src/models/saved_models/dl_cnn_model.pth (torch, 79676 bytes, 7 tensors)

conv1.weight f4 [8, 1, 3]
0.40669876 0.61249405 -0.14755075 0.65200645 -0.12269004 0.1860341 -0.27109388 0.37584162
0.55403507 -0.49677926 0.44851878 0.18518597 0.4289126 0.08365075 0.30839235 -0.11066949
0.45117712 0.21276511 -0.2705236 0.16395453 -0.34310317 -0.08510953 -0.32442337 0.4587453
00000000: d23a d03e 69cc 1c3f 8b17 17be e5e9 263f
00000010: ea44 fbbd b97f 3e3e d1cc 8abe 506e c03e
00000020: 3ed5 0d3f da59 febe 41a4 e53e 64a1 3d3e
00000030: 6f9a db3e 1651 ab3d 9ae5 9d3e b0a6 e2bd
00000040: b000 e73e 19df 593e 1282 8abe b2e3 273e
00000050: 38ab afbe e84d aebd d21a a6be aae0 ea3e

conv1.bias f4 [8]
-0.4318315 -0.2549293 -0.158298 -0.32578745 0.054925684 -0.5367529 0.49573258 -0.46653306
00000000: 0519 ddbe 1886 82be df18 22be 9dcd a6be
00000010: c1f9 603d a368 09bf a9d0 fd3e 6cdd eebe

conv2.weight f4 [16, 8, 3]
0.13121842 -0.0030742506 -0.059413143 0.1131648 0.009381744 0.1370118 -0.011888945 -0.012650523
0.11093196 -0.07918208 0.08119944 0.19895451 0.12150648 -0.069878496 0.13489482 0.014608107
0.08854483 -0.112665616 -0.18380906 -0.071002536 -0.13793004 0.15247706 0.060190927 0.06875073
0.030976862 -0.009874688 0.13853133 -0.16588922 -0.014673706 -0.14735292 0.0927528 -0.027305752
0.102006964 -0.044047397 0.17053789 -0.1165787 -0.10407547 -0.097980656 0.20340733 0.054969467
0.18588495 -0.17146921 -0.18766885 -0.14000414 -0.12281764 0.08078205 0.056552697 0.15616024
-0.10851621 -0.15278685 0.1654006 -0.0724989 0.123264454 -0.089866534 0.09217222 -0.077150196
-0.17082421 0.040852387 0.050854314 -0.04324544 0.1328429 0.15383042 -0.17497669 -0.11724061
0.18595429 -0.06249242 -0.066734806 -0.19760239 -0.06952227 0.042974334 -0.0152715305 -0.19942161
0.022394616 -0.13697945 -0.18375011 -0.10365005 -0.16489905 -0.09070539 0.16000168 -0.038958278
-0.019625137 -0.18558228 -0.14561649 -0.09566289 0.01563653 -0.19697528 -0.09538255 -0.1144654
-0.0056205853 -0.0867633 -0.012432622 -0.13815203 -0.15295343 -0.12056396 -0.065299 -0.14268799
0.19567683 -0.048320204 0.18689865 0.10957037 -0.16737175 0.14339729 -0.11171035 -0.069933906
-0.1996297 -0.20172496 0.065642044 -0.04151031 0.069943845 -0.17547905 0.13897 -0.13355246
-0.030350091 0.04674902 0.08216762 0.14884979 0.18215887 -0.14762425 0.071912006 -0.08983513
-0.03713204 -0.1557467 0.2291671 -0.17657161 0.11940742 0.037131634 0.10482107 0.006499227
0.28710264 0.05643632 0.04170703 -0.12288753 0.079057544 0.012315555 -0.0690204 0.17243065
0.053648937 -0.07911147 -0.09476591 -0.02175175 0.12682611 -0.047617637 -0.099273324 -0.08830473
-0.17107372 0.010646166 0.1528099 -0.25591034 0.061560906 0.029868314 -0.0038511655 -0.048610847
0.19788082 0.09553095 0.02481703 0.01914816 -0.06918392 0.06276089 -0.017011985 -0.083111
0.08830638 0.18897267 0.028186867 -0.054628674 0.036020137 -0.048926808 0.06368288 0.035417035
-0.1734227 -0.085396856 0.15127249 0.0736523 -0.005135598 -0.13034128 -0.17026119 -0.25019258
-0.11524218 0.065182745 0.11022927 0.085602015 -0.19538221 -0.14173158 -0.060519226 0.1902174
0.019865511 -0.05728948 0.08684989 -0.07889577 -0.12937021 0.13987249 -0.086242765 -0.033277757
-0.19984478 0.11977715 0.154313 0.08399977 -0.14800777 -0.21691683 -0.18795432 0.18064356
0.16348593 0.15060207 0.10786057 0.07529329 0.0071413927 -0.1451989 -0.16595818 -0.19314249
0.08068314 -0.08734276 -0.03934721 -0.112950504 -0.029939616 -0.1438187 -0.1267269 0.06356085
-0.056021336 0.10461409 -0.04976375 -0.14182727 -0.02717963 -0.11418205 -0.08513121 -0.13847585
0.18727551 -0.14845258 0.098060675 0.116318166 0.1480012 -0.13062419 0.1563635 -0.09809365
0.071755536 0.19836804 -0.024493339 -0.009850402 -0.040393554 -0.17311597 0.1060617 -0.2005593
0.11983458 0.14957005 0.17976026 -0.057714336 -0.16427575 0.037857175 0.10563078 -0.22184967
-0.109677255 -0.12094315 -0.026290104 -0.11715777 -0.087224945 -0.06723318 -0.19616708 0.15962778
00000000: 1f5e 063e 5e79 49bb 325b 73bd f2c2 e73d
00000010: e3b5 193c d24c 0c3e d9c9 42bc 2444 4fbc
00000020: 4c30 e33d 372a a2bd e44b a63d bbba 4b3e
00000030: 64d8 f83d 751c 8fbd de21 0a3e d756 6f3c
00000040: fe56 b53d 3bbd e6bd 7138 3cbe c769 91bd
00000050: 883d 0dbe f222 1c3e c38a 763d 2fcd 8c3d
00000060: 30c3 fd3c 72c9 21bc 28db 0d3e ddde 29be
00000070: fc69 70bc afe3 16be 2ef5 bd3d 50b0 dfbc
00000080: 07e9 d03d 0b6b 34bd 7ca1 2e3e d0c0 eebd
00000090: 8525 d5bd 15aa c8bd 034a 503e aa27 613d
000000a0: a058 3e3e a095 2fbe 432c 40be 3f5d 0fbe
000000b0: d187 fbbd 0f71 a53d cda3 673d 78e8 1f3e
000000c0: bf3d debd 2874 1cbe c65e 293e 4e7a 94bd
000000d0: 1372 fc3d f20b b8bd cac4 bc3d ec00 9ebd
000000e0: 8bec 2ebe d554 273d 9d4c 503d 2122 31bd
000000f0: f807 083e b985 1d3e 172d 33be d81b f0bd
00000100: cd6a 3e3e 0df8 7fbd 42ac 88bd 4858 4abe
00000110: b161 8ebd db05 303d 7135 7abc 2e35 4cbe
00000120: ea74 b73c 5744 0cbe fd28 3cbe 7a46 d4bd
00000130: 4cdb 28be bfc3 b9bd 7bd7 233e b792 1fbd
00000140: e5c4 a0bc 4809 3ebe 7d1c 15be e8ea c3bd
00000150: 2e18 803c e3b3 49be ed57 c3bd d66c eabd
00000160: e32c b8bb f5b0 b1bd 32b2 4bbc ba77 0dbe
00000170: d39f 1cbe 3dea f6bd 7bbb 85bd cd1c 12be
00000180: 825f 483e 68eb 45bd 5c62 3f3e 6e66 e03d
00000190: 8063 2bbe bdd6 123e 65c8 e4bd 8239 8fbd
000001a0: ba6b 4cbe fd90 4ebe 566f 863d b706 2abd
000001b0: b83e 8f3d c8b0 33be 274e 0e3e fac1 08be
000001c0: c1a0 f8bc e77b 3f3d 7f47 a83d 146c 183e
000001d0: db87 3a3e d02a 17be 9a46 933d 7bfb b7bd
000001e0: c417 18bd 107c 1fbe c8aa 6a3e 30cf 34be
000001f0: e18b f43d 5717 183d 6eac d63d 78f7 d43b
00000200: 1eff 923e c529 673d fed4 2a3d 75ac fbbd
00000210: ece8 a13d 2ec7 493c 915a 8dbd a991 303e
00000220: fdbe 5b3d 3205 a2bd a114 c2bd ba30 b2bc
00000230: b4de 013e b60a 43bd d04f cbbd 1cd9 b4bd
00000240: f32d 2fbe 426d 2e3c 337a 1c3e ae06 83be
00000250: 4a27 7c3d 65ae f43c d663 7cbb 2b1c 47bd
00000260: 45a1 4a3e bba5 c33d 164d cb3c 9adc 9c3c
00000270: 4db0 8dbd c888 803d b85c 8bbc 1a36 aabd
00000280: fad9 b43d 0d82 413e 25e8 e63c 51c2 5fbd
00000290: da89 133d 7a67 48bd 2b6c 823d 7411 113d
000002a0: b895 31be 8ce4 aebd 2de7 1a3e 04d7 963d
000002b0: 8548 a8bb 2f78 05be f358 2ebe 3e19 80be
000002c0: 1804 ecbd 887e 853d e2bf e13d 1c50 af3d
000002d0: 4612 48be 1522 11be 02e3 77bd 5ac8 423e
000002e0: ffbc a23c 60a8 6abd 5bde b13d 1b94 a1bd
000002f0: a079 04be bc3a 0f3e 0ca0 b0bd 424e 08bd
00000300: 1ca4 4cbe b94d f53d 3a04 1e3e 1208 ac3d
00000310: 598f 17be 721f 5ebe 1977 40be a0fa 383e
00000320: db68 273e 6e37 1a3e 01e6 dc3d 5e33 9a3d
00000330: 5802 ea3b 05af 14be f1f0 29be 25c7 45be
00000340: 343d a53d c3e0 b2bd 8a2a 21bd 9852 e7bd
00000350: ed43 f5bc 3645 13be b2c4 01be 312c 823d
00000360: a176 65bd e93f d63d 13d5 4bbd 2b3b 11be
00000370: d1a7 debc 47d8 e9bd 4659 aebd 9dcc 0dbe
00000380: 27c5 3f3e f403 18be 09d4 c83d 3838 ee3d
00000390: a08d 173e 59c2 05be c11d 203e 53e5 c8bd
000003a0: 91f4 923d fe20 4b3e 41a6 c8bc 9563 21bc
000003b0: b673 25bd 5045 31be e036 d93d 6b5f 4dbe
000003c0: d56b f53d e428 193e 1313 383e de65 6cbd
000003d0: e737 28be 2010 1b3d f354 d83d 8f2c 63be
000003e0: 789e e0bd 0bb1 f7bd 585e d7bc 6af0 efbd
000003f0: fea2 b2bd 8db1 89bd 06e0 48be 7775 233e

conv2.bias f4 [16]
-0.06772607 0.08869736 -0.12500769 -0.13655649 -0.01851653 -0.06868856 -0.1261685 0.11247768
0.16415818 0.035447974 -0.030329835 -0.1851571 -0.0716724 0.0487642 0.095436096 -0.027774835
00000000: f7b3 8abd f6a6 b53d 0402 00be 77d5 0bbe
00000010: faaf 97bc 96ac 8cbd 5132 01be b35a e63d
00000020: 1519 283e e531 113d 4676 f8bc d399 3dbe
00000030: fbc8 92bd f8bc 473d 0074 c33d 0d88 e3bc

fc1.weight f4 [128, 144]
-0.037564803 0.044981647 -0.07174331 0.054368287 -0.036893297 0.0068549626 -0.0149993505 0.010417152
-0.014017951 0.050321244 -0.002619826 0.05673836 0.08578412 -0.04658167 -0.054600313 0.071175836
0.056954846 -0.05553719 -0.005906504 -0.096171424 -0.056384947 0.0038711196 0.017605744 0.022058945
-0.035987113 0.07179873 0.016044125 -0.03687709 0.0019619046 0.019676255 0.028875357 -0.06453958
0.022660712 -0.051344365 -0.08068734 -0.0625864 0.08146687 0.0702925 0.07588652 0.048813265
0.049380053 0.0048919525 -0.061705563 0.043646317 -0.044708263 -0.05088904 -0.050680455 0.033988558
0.036400855 -0.007814237 -0.048713624 0.0260189 -0.04327286 -0.049326863 0.037869774 -0.017173305
0.07814316 0.07441447 0.033255376 0.02059089 0.024025932 0.005263587 -0.0061452715 0.020966489
0.02828488 0.078996226 -0.024220541 -0.042562336 -0.027656756 -0.04957586 -0.0029016638 0.037687175
0.05050478 0.04233301 -0.04776986 -0.041442253 -0.023205161 0.0003567644 -0.015016692 -0.07786534
0.040389195 -0.067672424 -0.043717824 -0.057317887 0.06518742 -0.06414549 0.06925165 -0.007958257
0.012485195 0.05575192 -0.009543639 0.04430741 0.053625777 -0.072901905 0.02439337 0.011603381
0.014531232 0.004448261 0.017258072 -0.02691829 -0.0114048375 0.07766235 0.048677225 0.0021786196
-0.11107118 0.0067992914 -0.09247026 0.019528676 -0.039100412 -0.0073903664 -0.0072986064 0.0022789866
0.04686376 0.018480223 0.00239716 0.045660496 0.046241462 -0.024414998 -0.03022639 0.064847514
-0.034876127 0.052727275 -0.0040392415 -0.05925613 0.060415275 0.046562225 0.03332434 0.073484525
0.054067165 0.09933686 -0.04001363 0.0013993895 -0.08851748 -0.042753544 -0.043350395 -0.027858011
-0.08454793 -0.067995906 -0.06170765 -0.08180489 -0.058939025 0.011827216 0.059948057 -0.03345107
-0.021416988 0.047329582 -0.04022692 -0.030803448 0.050343532 -0.0624191 0.015650803 0.07591524
0.026582995 0.026071321 -0.041400537 -0.0028159588 0.011095678 0.01641769 0.03831076 0.08125294
-0.062279776 0.010885969 -0.037705895 -0.06781361 0.006913279 -0.07797747 0.053067505 0.0145018585
-0.052633323 0.047910433 -0.06980415 -0.047492396 -0.023774609 -0.077782564 -0.055272203 -0.020839067
0.052058082 0.064527184 0.03445128 -0.07042142 -0.05278518 0.0646808 0.027988346 0.0026784618
0.0011656202 -0.05618869 -0.045696884 0.075841114 -0.028315099 0.013760513 -0.055138018 -0.017034331
-0.00044796502 -0.034110278 -0.0043391692 0.05773367 -0.055412695 0.032659855 -0.049885236 -0.03645211
0.033065673 0.05919352 -0.015166922 -0.034352273 -0.06303488 -0.034013104 -0.07203815 -0.031055061
0.005097575 -0.083040886 0.06256581 0.04181571 -0.087910004 -0.05031705 0.008240383 -0.053431652
0.025556505 -0.042888645 0.059802253 -0.053970445 0.058522772 0.01598915 -0.00094338396 0.056907903
-0.005857425 -0.040323526 -0.016048282 0.0638938 -0.069315866 0.027765933 -0.07255849 0.038461152
0.042638946 0.001424679 0.03525369 0.00045258884 0.047999382 -0.060258586 -0.014662461 0.03404128
0.07949633 0.03858551 -0.058654897 0.044857018 -0.041885436 -0.03639105 -0.09420267 -0.023130512
0.015108705 -0.0015632298 -0.09527912 -0.027129102 -0.03987701 0.053973217 -0.08006628 -0.042639904
00000000: 8ddd 19bd ad3e 383d 28ee 92bd 48b1 5e3d
00000010: 6d1d 17bd 989f e03b d6bf 75bc b4ac 2a3c
00000020: 8cab 65bc a61d 4e3d 63b1 2bbb 7c66 683d
00000030: 96af af3d 6ccc 3ebd 94a4 5fbd a3c4 913d
00000040: 7c49 693d f77a 63bd 598b c1bb 86f5 c4bd
00000050: e7f3 66bd 9cb2 7d3b ec39 903c f6b4 b43c
00000060: 3967 13bd 360b 933d f86e 833c 6e0c 17bd
00000070: 4c93 003b 1930 a13c 038c ec3c 542d 84bd
00000080: f5a2 b93c 784e 52bd 673f a5bd 4c2d 80bd
00000090: 1ad8 a63d 84f5 8f3d 646a 9b3d 6bf0 473d
000000a0: bd42 4a3d ac4c a03b f9be 7cbd 7bc6 323d
000000b0: 0320 37bd 0771 50bd 4f96 4fbd 9637 0b3d
000000c0: 1019 153d 4907 00bc f087 47bd 9725 d53c
000000d0: e23e 31bd f70a 4abd 561d 1b3d 08af 8cbc
000000e0: 8509 a03d 9d66 983d ca36 083d 3aae a83c
000000f0: 08d2 c43c 2b7a ac3b 465e c9bb eac1 ab3c
00000100: b1b5 e73c c6c8 a13d 286a c6bc d855 2ebd
00000110: 6c90 e2bc 0f10 4bbd d729 3ebb de5d 1a3d
00000120: 1ade 4e3d 6165 2d3d 54aa 43bd 5abf 29bd
00000130: c018 bebc 1b0c bb39 9208 76bc dd77 9fbd
00000140: 246f 253d d797 8abd 7611 33bd 29c6 6abd
00000150: fb80 853d b65e 83bd cfd3 8d3d 5963 02bc
00000160: b48e 4c3c 205c 643d ec5c 1cbc b07b 353d
00000170: b4a6 5b3d 984d 95bd 9bd4 c73c 1b1c 3e3c
00000180: 6814 6e3c b8c2 913b cd60 8d3c bf83 dcbc
00000190: 5bdb 3abc 700d 9f3d c561 473d 2cc7 0e3b
000001a0: 4979 e3bd 97cc de3b 0c61 bdbd 9afa 9f3c
000001b0: c127 20bd e32a f2bb 2629 efbb 0d5b 153b
000001c0: 37f4 3f3d d663 973c ac19 1d3b 8006 3b3d
000001d0: b067 3d3d f601 c8bc 569d f7bc c6ce 843d
000001e0: 45da 0ebd 8ef8 573d 9d5b 84bb 8eb6 72bd
000001f0: 0276 773d 08b8 3e3d 1a7f 083d 0e7f 963d
00000200: 8875 5d3d 2071 cb3d 55e5 23bd b86b b73a
00000210: a748 b5bd 571e 2fbd 2f90 31bd 7c36 e4bc
00000220: 7727 adbd 7041 8bbd 29c1 7cbd 5289 a7bd
00000230: 0c6a 71bd f0c6 413c 188c 753d fd03 09bd
00000240: ae72 afbc aadc 413d fcc4 24bd 8357 fcbc
00000250: 0535 4e3d 2cab 7fbd 1d36 803c 7379 9b3d
00000260: 95c4 d93c 8693 d53c 9c93 29bd f38b 38bb
00000270: a6ca 353c 647e 863c beeb 1c3d f167 a63d
00000280: 1419 7fbd 105b 323c 7f71 1abd dde1 8abd
00000290: ca88 e23b a7b2 9fbd 505d 593d 3499 6d3c
000002a0: 0a96 57bd bb3d 443d 7af5 8ebd 6387 42bd
000002b0: f8c2 c2bc 774c 9fbd 1b65 62bd b1b6 aabc
000002c0: db3a 553d d426 843d c91c 0d3d 1b39 90bd
000002d0: 4635 58bd 5e77 843d d147 e53c 2289 2f3b
000002e0: b9c7 983a 1d26 66bd a82c 3bbd 9652 9b3d
000002f0: 11f5 e7bc c673 613c 67d8 61bd 958b 8bbc
00000300: d9dc eab9 38b7 0bbd 972f 8ebb 247a 6c3d
00000310: 6cf8 62bd 57c6 053d 7654 4cbd cf4e 15bd
00000320: df6f 073d e874 723d ae7e 78bc f8b4 0cbd
00000330: 6e18 81bd 5351 0bbd bd88 93bd 2f67 febc
00000340: 8f09 a73b 5711 aabd 8122 803d f346 2b3d
00000350: 290a b4bd 4019 4ebd ac02 073c 26db 5abd
00000360: e05b d13c 01ac 2fbd 35f3 743d 1d10 5dbd
00000370: 93b5 6f3d aefb 823c 6d4d 77ba 4318 693d
00000380: a4ef bfbb 482a 25bd b077 83bc c1da 823d
00000390: 7af5 8dbd 6275 e33c 8c99 94bd 7189 1d3d
000003a0: 2da6 2e3d 4bbc ba3a 2c66 103d 7249 ed39
000003b0: 009b 443d b5d1 76bd d23a 70bc df6e 0b3d
000003c0: f9ce a23d d70b 1e3d 1e40 70bd febb 373d
000003d0: 1090 2bbd c80e 15bd 54ed c0bd 337c bdbc
000003e0: 808a 773c 4ae5 ccba b321 c3bd da3d debc
000003f0: 1356 23bd 0513 5d3d caf9 a3bd 2ea7 2ebd

fc1.bias f4 [128]
0.0014046958 -0.020130904 -0.022908874 0.060964324 -0.051994894 -0.010518224 0.05311764 -0.0052204793
0.03424765 -0.039357007 0.042258985 -0.06433629 -0.039409716 -0.071824394 -0.06296211 0.05704621
0.063314036 0.023520352 0.03719502 0.045976896 0.04535991 0.050526798 -0.039633937 0.054894675
0.056848083 0.021932205 -0.02069014 0.06735006 -0.021297924 -0.08899486 -0.03973116 -0.008161589
0.030835917 0.013649779 0.012921788 0.07302916 0.051389012 -0.038981546 -0.042582653 -0.007673983
-0.010262338 -0.06852335 -0.024880184 0.05619716 -0.07051182 0.019438528 0.010292449 -0.027424913
-0.026194606 -0.03064535 -0.080438405 -0.079554945 0.04008766 -0.0050626593 0.0013585814 -0.017761579
-0.073495336 -0.020159438 -0.063578084 0.039105747 -0.028530553 -0.022980507 0.01680383 -0.049345773
-0.04825708 -0.041023385 -0.017408917 -0.05053835 -0.08348591 0.03614267 0.044228215 -0.028555397
-0.057536177 0.04636118 -0.049861982 -0.061719887 -0.071647786 0.012280053 0.025259767 0.07422657
-0.037162244 -0.049514156 0.060270667 0.047403015 -0.06543607 -0.08453115 0.034748238 -0.03446858
0.016665023 -0.005719429 -0.022985138 0.06175419 0.020726968 0.017280644 -0.060671702 -0.033833425
0.046495963 0.043254204 0.007374123 -0.075135246 -0.04531997 0.08257924 0.06846766 0.03773698
-0.054133635 -0.032122273 0.022083998 -0.06988641 -0.0014982464 0.024042293 0.020843199 0.041149393
0.0034174775 0.04339142 -0.08861879 -0.029792055 -0.029590731 0.05554385 -0.059539534 0.051494293
-0.04740388 -0.030154003 0.050924752 0.081573755 0.017172547 -0.025224173 0.0562024 0.00012250936
00000000: c51d b83a 91e9 a4bc 64ab bbbc bab5 793d
00000010: 99f8 54bd a154 2cbc e291 593d 8e10 abbb
00000020: 4447 0c3d d034 21bd c217 2d3d bfc2 83bd
00000030: 156c 21bd ab18 93bd 47f2 80bd 49a9 693d
00000040: caaa 813d c1ad c03c ce59 183d 4552 3c3d
00000050: 50cb 393d 30f5 4e3d 3257 22bd 3dd9 603d
00000060: 89d9 683d 2bab b33c 5e7e a9bc d4ee 893d
00000070: fc78 aebc f042 b6bd 24bd 22bd 2fb8 05bc
00000080: 9b9b fc3c 53a3 5f3c e8b5 533c 5090 953d
00000090: 497d 523d 1dab 1fbd 266b 2ebd 0976 fbbb
000000a0: 5e23 28bc f855 8cbd 87d1 cbbc fe2e 663d
000000b0: 8068 90bd 8c3d 9f3c a9a1 283c 36aa e0bc
000000c0: 1296 d6bc f50b fbbc e4bc a4bd b4ed a2bd
000000d0: f532 243d aae4 a5bb 6d12 b23a bb80 91bc
000000e0: b984 96bd 6825 a5bc 3a35 82bd 592d 203d
000000f0: e8b8 e9bc 9e41 bcbc 30a8 893c cb1e 4abd
00000100: 37a9 45bd 2308 28bd 259d 8ebc 4d01 4fbd
00000110: a9fa aabd 560a 143d a528 353d 02ed e9bc
00000120: 0eab 6bbd 38e5 3d3d 143c 4cbd fecd 7cbd
00000130: 13bc 92bd 4732 493c 92ed ce3c 1a04 983d
00000140: 7037 18bd 5bcf 4abd 60de 763d aa29 423d
00000150: 5903 86bd ab1e adbd 2b54 0e3d ed2e 0dbd
00000160: 1685 883c 0c6a bbbb 544b bcbc f6f1 7c3d
00000170: 9acb a93c 2390 8d3c e482 78bd eb94 0abd
00000180: 8d72 3e3d 522b 313d a1a2 f13b 82e0 99bd
00000190: 6fa1 39bd 4e1f a93d c638 8c3d 1792 1a3d
000001a0: 3bbb 5dbd a592 03bd 80e9 b43c 9b20 8fbd
000001b0: cf60 c4ba 58f4 c43c 5bbf aa3c 448c 283d
000001c0: c2f7 5f3b 34bb 313d c57d b5bd 780e f4bc
000001d0: 4368 f2bc f381 633d badf 73bd aeeb 523d
000001e0: 922a 42bd 8705 f7bc 7996 503d 2410 a73d
000001f0: 71ad 8c3c eda2 cebc 7d34 663d db75 0039

fc2.weight f4 [1, 128]
0.07323759 0.040766798 -0.031267006 0.103004955 0.052440286 0.09030083 0.08723336 0.04107309
-0.06649452 -0.05026175 -0.0524797 -0.059285972 0.033549737 0.13874836 0.09585608 0.0306753
0.19462723 -0.0646287 0.10658626 0.072981596 0.03749971 0.021997238 0.06548133 -0.14961106
0.04361389 -0.1253603 -0.10185287 0.066999845 -0.042535495 -0.046686534 -0.06810997 -0.052559856
-0.040108237 -0.104993396 0.044437245 0.03793922 0.05101126 0.16839714 -0.047652066 -0.083093785
-0.2886764 -0.04088144 -0.047562927 0.14034292 0.04238827 0.04094287 -0.28531113 -0.18381733
-0.2043547 0.032543227 -0.066110834 -0.19215463 -0.08136485 -0.107189335 0.083180144 0.13429478
-0.07877113 -0.31625983 0.10317894 0.09090672 -0.1926121 0.04459101 -0.21493433 -0.077287436
-0.07960737 0.021254066 0.1307335 0.062366564 -0.1705844 0.057414614 0.13067189 0.044330765
0.117468104 -0.08507383 -0.05245998 0.04748764 -0.07766405 -0.06071148 0.14977022 0.025823759
-0.11498188 0.06795499 -0.08973433 -0.1193331 0.06231406 -0.20905377 0.12749058 0.08222711
0.058084276 0.17273462 0.044379767 -0.09995064 -0.10476547 -0.11675048 -0.10026312 0.043973774
0.048073072 -0.11407619 -0.11873971 0.07374616 -0.06567071 0.03736737 0.023621615 -0.0985549
-0.047407966 0.052042294 -0.10533022 -0.09912334 0.047003515 -0.07621244 -0.06338927 0.024544781
0.045460057 -0.06368832 -0.07889907 0.05965673 -0.08144454 0.0494322 0.056964032 -0.02968938
-0.041465167 -0.03030062 -0.14750566 0.07942472 -0.14349923 -0.07399659 -0.12065283 0.05474811
00000000: 97fd 953d 16fb 263d d511 00bd 43f4 d23d
00000010: a0cb 563d a4ef b83d 67a7 b23d 423c 283d
00000020: 472e 88bd 44df 4dbd f4f4 56bd d9d5 72bd
00000030: 736b 093d 0d14 0e3e 3150 c43d c44a fb3c
00000040: 5c4c 473e 0d5c 84bd e649 da3d 6077 953d
00000050: 4c99 193d 8d33 b43c 131b 863d a433 19be
00000060: 7aa4 323d 735e 00be 3d98 d0bd 3737 893d
00000070: b339 2ebd 613a 3fbd 3d7d 8bbd 0149 57bd
00000080: 8948 24bd c706 d7bd d403 363d 2866 1b3d
00000090: 2ff1 503d 4d70 2c3e d02e 43bd 132d aabd
000000a0: 65cd 93be 4c73 27bd 58d1 42bd 0eb6 0f3e
000000b0: 539f 2d3d b6b3 273d 4d14 92be 9c3a 3cbe
000000c0: 5c42 51be 0c4c 053d 1e65 87bd 2fc4 44be
000000d0: 9da2 a6bd 1586 dbbd 5a5a aa3d 9284 093e
000000e0: c252 a1bd cfec a1be 7b4f d33d 4d2d ba3d
000000f0: 1b3c 45be 10a5 363d bf17 5cbe e048 9ebd
00000100: 3009 a3bd 021d ae3c 01df 053e 1574 7f3d
00000110: adad 2ebe 962b 6b3d dace 053e 2d94 353d
00000120: 1e93 f03d 303b aebd 47e0 56bd 6682 423d
00000130: 540e 9fbd 9aac 78bd 5d5d 193e 598c d33c
00000140: 9f7b ebbd fc2b 8b3d a2c6 b7bd ea64 f4bd
00000150: 073d 7f3d 3112 56be e48c 023e b066 a83d
00000160: c7e9 6d3d 58e1 303e 8fc7 353d ecb2 ccbd
00000170: 478f d6bd e01a efbd c056 cdbd d81d 343d
00000180: 45e8 443d c7a0 e9bd ce2d f3bd 3a08 973d
00000190: 5d7e 86bd 870e 193d 1e82 c13c 27d7 c9bd
000001a0: db2e 42bd 4d2a 553d 5fb7 d7bd 2d01 cbbd
000001b0: c286 403d 4515 9cbd 3cd2 81bd 2312 c93c
000001c0: 5334 3a3d 066f 82bd d695 a1bd 9e5a 743d
000001d0: 65cc a6bd 6b79 4a3d 1e53 693d 2537 f3bc
000001e0: 61d7 29bd 0139 f8bc b90b 17be 6da9 a23d
000001f0: 76f1 12be 868b 97bd d518 f7bd 8e3f 603d
