src/models/saved_models/dl_cnn_model.pth (torch, 83964 bytes, 7 tensors)

conv1.weight f4 [16, 1, 3]
000000 e2 a9 bc be a1 78 1e 3f 53 ce a1 be 36 91 bd 3d
       -0.3684836 0.61902815 -0.31602725 0.092562124
000010 bf a1 af be e9 78 fc 3e 41 dd 0e 3f 0d 21 c1 be
       -0.3430309 0.49310997 0.55806357 -0.37720528
000020 6d ba e2 be 53 55 99 3d 27 44 6c 3e dd 34 a5 be
       -0.44282857 0.074869774 0.23072873 -0.32266894
000030 8c 60 04 bf 97 1d 14 bf 64 ff d9 be b3 23 2f 3f
       -0.5170982 -0.5785765 -0.4257766 0.6841385
000040 21 bf 71 3e d7 bb 9e be 0a 71 06 bf 3f b8 c8 3d
       0.23608066 -0.31002685 -0.52516234 0.09800767
000050 77 02 8c 3e d0 f8 1f bf f2 62 9a 3d 3a 2e c9 3d
       0.2734563 -0.6248903 0.075384036 0.0982327
000060 c8 92 be bd 91 25 fc 3e 90 e9 1d 3f 34 fc 18 3e
       -0.0930534 0.4924741 0.61684513 0.14939958
000070 b9 15 20 3b ff 48 f6 3e d6 22 06 be 88 9a 09 be
       0.002442701 0.48102567 -0.13099226 -0.13437855
000080 58 43 85 be b2 c0 86 be b4 4c 18 3f 6d 3d 11 3f
       -0.26027942 -0.2631889 0.5949204 0.56734353
000090 ff 93 23 be 20 33 2a bf 8b b7 82 ba 45 f5 1c 3d
       -0.15974425 -0.6648426 -0.0009972913 0.038319845
0000a0 76 9f 83 3d dc 09 bf be 8d f0 08 3e 94 da 15 bc
       0.06426899 -0.3731221 0.13373013 -0.009146351
0000b0 67 c6 b0 3e 11 fa cb be e7 53 23 bf 34 f7 e7 3d
       0.3452637 -0.39839223 -0.637999 0.11326447

conv1.bias f4 [16]
000000 a3 be 40 3e 8f 58 ef be dc 3b 0d 3f a0 5e cc be
       0.18822722 -0.46747252 0.55169463 -0.39915943
000010 85 dd 9e 3d 22 ae 7e bd c1 26 8c be a4 3a c4 3e
       0.07757095 -0.062177785 -0.27373317 0.3832599
000020 f4 4b e0 3d f0 c2 18 be cf 06 0d 3f 17 82 d2 be
       0.10951987 -0.14918113 0.55088514 -0.41114876
000030 6a 90 12 3e 3f 39 94 be 69 8e 04 3d d5 58 05 3f
       0.14312902 -0.28949925 0.032362375 0.5208867

conv2.weight f4 [32, 16, 3]
000000 b0 26 f9 3d 19 e6 85 bd ce 5d 9d 3d 1c a9 0b be
       0.12165582 -0.06538028 0.076839074 -0.13638729
000010 e2 cb b9 3c 51 76 5f bc bf 3b 0f be 8d 56 b4 bd
       0.022680227 -0.013639049 -0.13987635 -0.08805571
000020 08 8e d0 bc d7 ff 33 bc 7b 4b 05 be ac 77 60 bc
       -0.02545835 -0.01098629 -0.13017075 -0.013700407
000030 21 c8 68 3d f0 15 48 bd 34 3e 40 bb 15 bd d6 3d
       0.056831483 -0.048849046 -0.002933395 0.10485283
000040 e3 ae c3 bd 65 64 a2 bd ee dc 82 bd 21 b5 c5 bd
       -0.09554841 -0.07929305 -0.06389795 -0.09653688
000050 32 47 ef 3d 0e ca b2 3c 2a b6 d9 3d 13 c3 9b 3d
       0.11683501 0.021824863 0.10630448 0.07605567
000060 76 53 12 be 66 33 2b bd 13 58 c2 3c 9d cf c1 3d
       -0.1428965 -0.041797064 0.023723638 0.09463427
000070 7b 2b ca 3c 3e a5 0f bc 1a ee e0 bd ab ce 5c bd
       0.024678936 -0.008767424 -0.10982914 -0.05390803
000080 ee b5 a5 bc 67 31 4c bd 5e 2f 88 bc 39 88 52 3b
       -0.020228352 -0.0498518 -0.016624149 0.0032124652
000090 51 62 c5 3d 0e 78 69 3d d2 28 12 be 9e 6d 8e 3d
       0.09637893 0.05699926 -0.14273384 0.069545016
0000a0 3f 6e bf bd 3a 97 5f bc d1 50 9f 3c 19 0d 4a bc
       -0.093472 -0.013646895 0.019447716 -0.012332224
0000b0 1b 81 83 bd 03 9c a5 bd 23 8c 9e bd 91 33 10 3e
       -0.06421109 -0.080863975 -0.07741573 0.14082171
0000c0 83 a0 30 bd 1b cd 17 3e ae 7a 17 3e a2 5d 11 3d
       -0.043121826 0.14824335 0.14792892 0.035489686
0000d0 40 61 4e bc a9 b9 a0 bc 0d 29 fb 3d 5c a3 8d bc
       -0.012596428 -0.01961978 0.12263689 -0.01728981
0000e0 b9 ca 91 3c 92 55 94 3d c8 bf 0c 3c d8 c1 02 3e
       0.017796861 0.07242884 0.008590646 0.12769258
0000f0 97 f5 c2 3c 09 46 6b bd b3 2c 8b bd 22 fc 81 3d
       0.023798747 -0.057439838 -0.06795635 0.06346919
000100 56 ee ff 3d 86 f4 14 3e 52 b7 e9 3d 14 5e bc bd
       0.12496631 0.14546403 0.11411919 -0.091976315
000110 2b 0d 05 be 0c 08 0c 3e db ba d3 3c d0 9e 2e bd
       -0.12993304 0.13674945 0.025845936 -0.042631924
000120 0d ba 6c bb 31 0c 5a bd 83 4f 3c 3e 56 ca fb 3c
       -0.0036121637 -0.053234283 0.18389706 0.03073613
000130 c3 c8 ca 3c d5 5a 0d 3e c0 43 20 3d cc cd bf b8
       0.024753934 0.13804181 0.03912711 -9.1459224e-05
000140 83 8f f6 3d f3 d8 89 3c 1e 1b 9f bd cb cf 6d 3d
       0.120390914 0.016827082 -0.07768844 0.058059495
000150 f2 4b a6 3d df 5a 2c be 9e 03 1e 3d 18 ea 75 bd
       0.08119954 -0.1683154 0.03857767 -0.060037702
000160 3d a3 8e bb d9 10 12 3d b9 84 0f 3e 44 df 06 3e
       -0.0043529556 0.0356606 0.14015473 0.13171107
000170 83 78 40 3e 2e f8 81 3d 3b 09 06 be 25 29 f3 bd
       0.18795972 0.06346165 -0.13089459 -0.11873082
000180 f2 10 03 bd 80 cf 79 bd 36 27 01 be 80 28 e8 bd
       -0.031998582 -0.060988903 -0.12612614 -0.1133585
000190 3d d5 00 be 80 3e e5 38 82 a6 0d be 48 01 cb 3d
       -0.12581344 0.000109312125 -0.13833049 0.09912354
0001a0 7b 83 3d 3d b4 a2 31 3b 0c 75 ad 3d 9d 3b 09 3e
       0.046267968 0.0027105035 0.084695905 0.13401647
0001b0 54 cd 0a 3e 98 01 df 3d 0a ef 10 be e4 4c 28 bd
       0.13554889 0.10888976 -0.14153686 -0.041088954
0001c0 de 8c 29 bd 0b 00 bd 3c 5c 76 33 bc 00 3d 98 3d
       -0.041394107 0.02307131 -0.010953512 0.0743351
0001d0 11 f4 28 3d 63 59 11 be 0d 3b ee bd 62 ed 1c 3d
       0.041248385 -0.14194255 -0.11632357 0.038312323
0001e0 4c 1b 09 3e 81 a4 29 3d 66 67 fd 3c 87 d5 8b 3d
       0.13389319 0.04141665 0.030933093 0.068278365
0001f0 c5 2a f1 bc 97 8c 84 bd 00 94 f0 3d 88 01 7c bd
       -0.02943934 -0.06472128 0.11746979 -0.061524898
000200 33 c1 a8 bd 71 78 ce bd 27 e8 4d 3c c4 f6 9d bd
       -0.08239975 -0.10081566 0.012567556 -0.077130824
000210 a2 b8 a1 bd e7 e0 ea 3d 53 0c 1a 3d 36 2c 01 be
       -0.07896544 0.11468678 0.03760941 -0.12614521
000220 3c 79 0f be f2 ec 79 3d 46 46 97 bd 09 6c a2 bd
       -0.14011091 0.061016984 -0.073864505 -0.07930762
000230 d2 38 3a 3c c6 a6 fb 3d bc 5d aa 3d e8 cb e9 bd
       0.011366086 0.12287669 0.0831866 -0.11415845
000240 27 91 17 be 30 5b ea 3d 35 b0 33 bd 7d c2 08 be
       -0.14801465 0.11443174 -0.043869216 -0.13355441
000250 ce b1 fd bd 12 d9 db 3d 0c bb 31 3d 63 69 ee bd
       -0.12387429 0.10734762 0.043391272 -0.11641195
000260 cc e5 45 3b c3 95 42 bd c3 46 bf 3d c5 3c 9c 3d
       0.0030196784 -0.047506105 0.093396686 0.07628778
000270 fa bf 75 3d c3 43 97 3c c9 ab c4 bd 4e 5b f0 bd
       0.059997536 0.018464928 -0.09603078 -0.11736165
000280 51 af 8b bd db 08 48 3e 74 7a bd bd 9e 3b a0 bc
       -0.06820548 0.19534628 -0.09251872 -0.019559678
000290 63 61 dc 3d b1 fb 84 bd 31 e2 a7 3d cd c0 9a bc
       0.107607625 -0.06493319 0.081974395 -0.018890763
0002a0 21 49 9f bd cb 7e 68 3e 67 8d fb 3d b2 85 5b be
       -0.0777762 0.22704618 0.1228283 -0.2143772
0002b0 1a f3 db 3d 11 f3 4d 3e 76 95 0b be 87 23 b5 3d
       0.10739727 0.20112254 -0.13631234 0.08844667
0002c0 0a 80 a8 bd 5d e3 ce 3d b9 52 06 3e 8d d4 9a bd
       -0.082275465 0.1010196 0.13117494 -0.07560072
0002d0 16 43 3f bc 93 55 db bd dc 4c 47 bd fa 96 b1 bd
       -0.011673709 -0.10709681 -0.048657283 -0.086713746
0002e0 53 b9 d0 bd 1b 10 28 3d d4 cb d0 3d 23 6d 2a bd
       -0.10191598 0.041030984 0.10195127 -0.041607987
0002f0 f2 89 4e 3e 42 54 f7 3d 07 b3 c5 3d b8 0e 48 be
       0.2016981 0.12076618 0.096532874 -0.19536865
000300 a4 1c 94 3d 41 08 22 3d 0c 5c 5f bc 46 9c f3 3d
       0.07232025 0.039558653 -0.0136327855 0.11895041
000310 01 66 29 3d e3 7b 3d bd 5f cb 97 bd 81 10 f7 bc
       0.041357044 -0.046260726 -0.07411837 -0.030159237
000320 89 ae 12 be 00 fd c2 bd 13 dc 8f 3d 1e 02 eb bd
       -0.14324392 -0.09520912 0.07024398 -0.11475013
000330 3f 67 98 bd 58 52 0e be 7e a7 0f be d8 07 c3 bc
       -0.07441568 -0.13898599 -0.14028737 -0.023807451
000340 59 2b da bc 5b 56 22 bd 52 f7 c8 bc 2d db a2 bd
       -0.026631998 -0.039633136 -0.024531994 -0.07951961
000350 2d 86 60 3d d8 03 ef bd 7a e8 cd 3c 49 f2 0e be
       0.05481546 -0.11670655 0.025135268 -0.13959612
000360 2b 56 d7 bd aa bf 4d bb f1 76 8a bd 1b d2 04 bd
       -0.10514482 -0.0031394758 -0.067609675 -0.032426935
000370 80 b9 bc 3c 35 d3 0b 3e 2f a3 81 bd c7 4d c5 bc
       0.023037672 0.13654788 -0.06329953 -0.024084939
000380 53 30 d2 bd b8 95 eb bc 96 c6 12 bd 6f a3 c8 3d
       -0.10263123 -0.028757915 -0.035833918 0.097967975
000390 24 2b da bd 2d db e1 3d 55 12 09 3e 71 a6 9a 3d
       -0.1065276 0.110281326 0.133859 0.075512774
0003a0 d5 35 0d bd 15 19 e7 bc 5b 86 11 3d 16 90 0e be
       -0.034475166 -0.028210202 0.035528522 -0.13922152
0003b0 59 42 6d bd 31 8f ed 3c c1 e6 90 3a 33 29 c0 3d
       -0.057924602 0.028998943 0.0011055098 0.09382858
0003c0 4f 32 1c bd 2a 3a 0e 3d 76 0b 9a bd 54 ac bb bd
       -0.038133916 0.03472344 -0.07521717 -0.09163728
0003d0 5f b3 c6 3d 62 37 29 bd d3 53 8a bd e0 8a e4 3c
       0.09702181 -0.041312583 -0.067542695 0.027898252
0003e0 e4 52 1c 3e 5d c0 08 be 37 73 c6 bc 7b da 6f 3d
       0.15265995 -0.13354631 -0.02422486 0.05855797
0003f0 aa 45 6b 3c d2 27 35 3d c9 12 de 3d d1 a3 52 3e
       0.014359871 0.04422743 0.10843427 0.20570303

conv2.bias f4 [32]
000000 51 f1 34 bd 59 36 d4 bd 4d 3a 0a be 00 ac 64 bd
       -0.04417545 -0.103619285 -0.13498802 -0.055828094
000010 f3 f3 fd 3a a6 1d e6 bd d9 70 a1 bd 7f 82 90 3d
       0.0019375071 -0.11236124 -0.07882852 0.0705614
000020 d4 5a 71 bd 8c 85 b0 3d e0 4d 19 3b 78 05 e7 bd
       -0.05892451 0.08619222 0.0023392364 -0.1128034
000030 4f 86 a7 bd 37 58 d0 3d 07 bc ec 3d 0b d8 e9 bc
       -0.08179914 0.10173076 0.11559301 -0.0285454
000040 8d ad 2a 3d bb 4d e7 3d 4e f4 76 3d 8f c3 60 bc
       0.041669417 0.11294123 0.06029158 -0.0137185
000050 3a 8f fc 3d 14 12 0a 3d 2c 95 6f 3c ba 60 02 bd
       0.12332006 0.033708647 0.014622968 -0.031830527
000060 ab f0 7c bc f7 68 86 bd dc 78 cb 3d 64 ed 05 3d
       -0.015438239 -0.06562989 0.099351615 0.032697096
000070 7e 84 88 3d b9 c3 81 3d ae 8a a5 3b 8f 20 4a 3c
       0.06665896 0.06336159 0.0050519323 0.012336864

fc1.weight f4 [64, 288]
000000 6a de 58 bd 1e 20 2f bd 86 27 58 3d 1f a7 0f 3c
       -0.052946486 -0.04275524 0.052772067 0.008767872
000010 61 8b 15 bc 5d 34 2b 3c e2 48 68 3c 47 6a 2c 3d
       -0.009127469 0.010449496 0.014177533 0.04209354
000020 cf b4 9e 3c bf 4f 06 bd 46 e3 90 bc e5 d5 6d bd
       0.019373326 -0.032790896 -0.017686497 -0.058065314
000030 e5 ce a3 3c 35 3a 3e 3c 9f 2f 42 3d 04 2f 37 3d
       0.019996116 0.011610557 0.047408696 0.044722572
000040 bc 86 58 3b 35 14 42 3d f0 e3 d7 bc 8a 0b 02 bd
       0.0033039292 0.047382552 -0.026353806 -0.031749286
000050 a8 fe 58 bd f4 9f 0b 3d 85 f8 21 bd e5 77 48 3c
       -0.052977234 0.03408809 -0.039543647 0.012235616
000060 2c 3f 9a 3c bd 4d 58 bc 71 43 12 bd 4e 96 45 bd
       0.01882895 -0.013202128 -0.03570885 -0.048239045
000070 07 e9 3f bd 4f bd d6 b8 9c aa 38 3d dd d8 46 3c
       -0.04685309 -0.00010239577 0.04508458 0.012136665
000080 3a 77 9a bb e6 90 69 bd e8 73 19 bd a2 3d cf bc
       -0.00471392 -0.05702295 -0.037464052 -0.025297944
000090 31 38 2a bc 26 b3 70 3d 3d f8 00 bd 60 33 fd bc
       -0.010389374 0.0587646 -0.03148674 -0.030908287
0000a0 f0 ac c5 3c e9 16 63 bd 20 5f fc bc c3 4e 15 3d
       0.024130315 -0.05544177 -0.030807078 0.036452066
0000b0 e0 6a 3c bc 3e eb 31 3d c2 b3 3e bd 17 09 1a bd
       -0.01150009 0.043437235 -0.04655815 -0.037606325
0000c0 f2 a5 a5 3c 40 61 35 bd 2a 70 12 bd 96 d4 57 bd
       0.02022073 -0.044282198 -0.0357515 -0.052692972
0000d0 4a 5a 19 bd 31 aa 20 3d d8 94 dd 3c 52 dc 3e 3d
       -0.037439622 0.039224807 0.027048513 0.046596833
0000e0 85 2b 0c bd f5 a8 4b bc 7d b0 01 bd 50 5e c1 bc
       -0.03422119 -0.012430419 -0.031662453 -0.023604542
0000f0 29 ee 9e 3c e8 28 57 bb 7a f2 d3 bc 24 6c 09 bd
       0.019400673 -0.0032830779 -0.025872458 -0.033550397
000100 a9 2d 19 3d ce ca 2d bc b6 19 43 bd 6f 43 5b 3c
       0.03739706 -0.010607434 -0.04763194 0.013382777
000110 0a 3d 73 bc 62 32 04 3d 92 1b 08 bd de e0 56 bc
       -0.014846096 0.03227461 -0.033229418 -0.013115136
000120 93 07 6d bd 0a bf a1 bc 00 6e f8 bb 64 dc 2f bb
       -0.05786855 -0.019744415 -0.0075814724 -0.0026834244
000130 37 96 ef 3c fd f3 e5 bb df ef 07 bc f7 f7 8c bc
       0.029246433 -0.007017611 -0.008296936 -0.017208083
000140 c2 2c 18 bd 1c bb 2b 3d 0d ac 8d 3c f9 42 6c bd
       -0.03715206 0.04192649 0.017293954 -0.057681058
000150 ac 23 20 3b b0 4f 59 bc e5 72 c1 3b 93 b0 2b bc
       0.0024435325 -0.013263628 0.005903589 -0.01047911
000160 a3 7f c4 3c be e9 0c bd 7e e8 cc 3c 58 cf 4a bd
       0.023986643 -0.0344026 0.025013205 -0.049514145
000170 7f 22 1f bd 6d bf 98 bc bb bc 2d bd 37 6e d4 bc
       -0.038851257 -0.018645966 -0.042416316 -0.02593146
000180 d1 24 e3 bc 3a 87 aa bc 81 34 2c 3d 00 74 1f 3d
       -0.027727516 -0.020816434 0.04204226 0.038928986
000190 93 96 8d 3c 6c 43 dd bc 38 87 18 3d 2a 56 c3 bc
       0.017283713 -0.027009688 0.03723833 -0.023844797
0001a0 56 2f e8 bc a1 8f 33 3d 94 80 6e 3c 1e 0b b3 bc
       -0.028342884 0.043838147 0.014557023 -0.021855887
0001b0 73 a2 fe 3c 82 32 55 bd 8f 9c 88 3b 85 b2 2c 3d
       0.031083321 -0.05205012 0.004169054 0.042162437
0001c0 54 97 24 3d 83 83 5a bc b6 40 63 bc c4 bb 65 bd
       0.04018338 -0.013337019 -0.013870409 -0.05608727
0001d0 ee c2 6a 3d d5 21 f3 3c b4 ee c9 bc d9 57 e8 bb
       0.057314806 0.029679218 -0.024649955 -0.0070905504
0001e0 ba 2b 28 3d 85 68 61 3c f3 ca 0c 3c e7 b8 21 bd
       0.041057326 0.01375783 0.008593309 -0.039482977
0001f0 f0 b9 da bb b5 f4 e5 3c ac a8 82 bc 6c 59 36 bb
       -0.0066749975 0.028070787 -0.01594957 -0.0027824296
000200 f8 ac 86 3c 3a 18 b9 3c 71 05 4c 3d ef c3 25 3d
       0.0164399 0.02259456 0.049809877 0.04047006
000210 15 e4 51 bd d3 a5 01 bd f3 98 98 bc 75 f9 30 3d
       -0.051242907 -0.031652283 -0.01862762 0.04320665
000220 bc 7b 12 3d 5d 7b 73 bd 6c d7 05 3d 57 24 3a 3c
       0.035762534 -0.05944382 0.032676145 0.011361203
000230 27 6c 03 bd cb 7f da bb 0a 2e a1 3c eb d0 70 bc
       -0.032085564 -0.006668066 0.019675273 -0.014698247
000240 e0 12 43 3d 56 68 a7 3c c9 ed 94 3b a1 6e 5a bd
       0.047625422 0.020435493 0.0045449478 -0.05332816
000250 e7 e6 55 bd aa f1 ac 3c a7 16 69 3c 6e b3 19 3d
       -0.05222216 0.021111328 0.014226592 0.037524633
000260 bd 2a 2b bd 3e d1 48 3d 59 29 bb 3c 42 7a a0 3c
       -0.041788805 0.049027674 0.022846865 0.019589547
000270 8d 91 3a bd 61 03 b0 3c 28 8d ad 3c 61 ee ce bc
       -0.045548964 0.021485986 0.021185473 -0.025260152
000280 eb f4 01 3d bf 4e 18 bd 37 88 4e bb 7c 26 14 bd
       0.031727713 -0.037184473 -0.0031514296 -0.036169514
000290 b8 0e 6b bd 57 69 10 3d b5 d1 f7 3c 72 bd 38 3c
       -0.057387084 0.03525671 0.030251363 0.011275636
0002a0 c6 99 40 bc 97 73 af 3c b1 2b b4 3c 56 b9 82 3b
       -0.011755412 0.021417422 0.02199349 0.003989379
0002b0 35 16 68 bd 25 50 3f bd 67 76 53 bd c8 cc 6b 3d
       -0.056661803 -0.04670729 -0.05162659 0.05756834
0002c0 02 92 47 3c 17 bd 33 bd c7 19 61 bd 64 16 47 3d
       0.012180807 -0.043881502 -0.054956224 0.048605338
0002d0 d3 b2 79 3c d4 76 5b 3d 50 82 c8 bc f5 7a 55 bd
       0.015240389 0.05358012 -0.0244762 -0.052119214
0002e0 f1 dd 33 3d 7f 60 9c 3c 2b 5c 23 bd 0a 85 a2 3c
       0.04391283 0.019088982 -0.03988282 0.019838829
0002f0 39 2d 2c bd 4a 79 eb 3c ae d0 e2 bc 38 f2 91 bb
       -0.042035315 0.028744359 -0.027687397 -0.0044539236
000300 8a f4 40 bd af 4b 5f bd 89 0b 1f bd 69 d8 cb 3c
       -0.04710821 -0.054515537 -0.03882936 0.024883466
000310 90 7a 20 bd 0b 45 53 3d 88 06 21 bd 12 35 43 bd
       -0.039179385 0.051579516 -0.03931287 -0.047658034
000320 be 91 4f 3d 34 5c 50 bd 31 0d 5b bd 40 0f ef bc
       0.0506761 -0.05086918 -0.053479377 -0.029182076
000330 31 4d 89 3c 6b cf 67 3d 8d b3 0f bd 1f 67 54 bd
       0.01676044 0.056594294 -0.035083342 -0.051856156
000340 47 75 94 3c 49 a3 4b bd f6 77 4c 3c 63 5a 20 3c
       0.018122328 -0.049716268 0.012479773 0.009787175
000350 93 4d 95 bc 73 82 bc bc 0a 3d 45 3d 0f 6e 3b 3d
       -0.018225467 -0.023011422 0.048153915 0.045759257
000360 d3 88 2e 3d 00 00 6a 3d 23 ea 59 bc 5d 12 54 bc
       0.042610954 0.057128906 -0.013300451 -0.012943831
000370 25 ef 79 bc 60 a2 45 3c ae e1 37 bd 1b cc 5d bd
       -0.01525477 0.012062639 -0.04489296 -0.05414973
000380 2b 8f 46 bd 90 46 5f bc 68 10 38 3c f7 c9 5b 3d
       -0.04847638 -0.013627663 0.01123438 0.053659406
000390 4a 85 80 bc 7d 80 03 bd 6e 80 6a 3d da f9 58 bd
       -0.015688557 -0.032104958 0.057251386 -0.052972652
0003a0 85 ef 52 3d 69 80 e3 bc 0a f9 c9 3a 06 28 3e bd
       0.051497955 -0.027771192 0.0015409302 -0.046424888
0003b0 12 b2 6b 3c b6 28 2e bd e6 c5 33 3c 6f a7 67 bd
       0.014385717 -0.042519294 0.010972476 -0.05655616
0003c0 85 a8 69 3d 38 ea ac bc 80 8d 3a 3c 10 df 1d 3d
       0.05704548 -0.021107778 0.011386275 0.038542807
0003d0 46 25 2d 3b 6e da 54 bd d9 43 6c bd f9 54 a8 bc
       0.0026419922 -0.051966123 -0.057681892 -0.02054833
0003e0 c5 8e 57 bd 6e c4 70 bd 42 e2 bb 3c 12 22 25 bd
       -0.05262639 -0.05878108 0.022935037 -0.040315695
0003f0 1b 85 fb bc 2f d8 43 3d f2 04 02 3d 10 83 52 bd
       -0.030703118 0.04781359 0.031742997 -0.051394522

fc1.bias f4 [64]
000000 e3 86 0d 3d 2d 2e 0f 3d da 5a 72 bb f6 90 58 bd
       0.034552466 0.034956146 -0.0036980421 -0.05287262
000010 75 39 44 bd 84 f9 33 bd b7 b4 1d bc 33 d0 1b bd
       -0.047906358 -0.04393913 -0.009625605 -0.03804035
000020 82 00 50 bd 50 ef 2f bd d7 fa a4 3c e3 e7 f0 bc
       -0.050781734 -0.042952836 0.020139141 -0.029407447
000030 b0 2c fc 3c 81 e4 2e 3d 5f 04 08 bd cf 82 0e bd
       0.030783027 0.042698387 -0.033207294 -0.034792718
000040 65 4c 5a 3c b6 af d6 3b 6f 30 1b bd 26 f4 d2 bc
       0.013323878 0.006551708 -0.037887987 -0.025751185
000050 83 03 7c bb 81 6a 21 3c c7 85 6a 3d 2a a0 08 3d
       -0.0038454242 0.009852053 0.057256486 0.03335587
000060 e9 eb 26 3d aa 56 e1 3b 7a da 97 3c 8b 2b 0f 3d
       0.040752325 0.0068767862 0.018536795 0.034953635
000070 17 ca 24 bd b3 db 2c 3d 3d 8b 1a 3d ec f1 df 3c
       -0.04023179 0.04220171 0.037730444 0.027337037
000080 23 cd 1e bd 59 9e 0e bd 30 13 4d bd b3 fe 1a 3d
       -0.038769852 -0.03481898 -0.050067127 0.037840556
000090 23 55 17 bd 2f e9 41 3d fe 88 af 3c f0 52 12 bd
       -0.036946427 0.04734152 0.021427628 -0.035723627
0000a0 1e e7 2e 3c 1b 0b 9e 3c 38 a0 f5 3c 14 4f 70 3c
       0.01067522 0.019292405 0.029983625 0.014667291
0000b0 6c f7 40 bd aa 24 10 bd 2b 0c 79 3d 44 fd 5b 3d
       -0.04711096 -0.035191216 0.06080262 0.05370833
0000c0 f0 31 2f 3d 42 f4 38 bd af c1 39 bd 5b 0f 31 3d
       0.042772233 -0.045154817 -0.045350727 0.043227535
0000d0 0f fd 28 bc 41 ff 7f bb 3d 66 1b bc 82 28 a4 bc
       -0.01031424 -0.0039062055 -0.009484825 -0.020038847
0000e0 ee ef 52 bd 57 81 52 3d 68 b3 56 3d 45 9e 47 3c
       -0.051498346 0.05139288 0.05241719 0.0121837305
0000f0 ee ef 94 bc b8 2e 2b 3c ad 9e 0b bd bb 42 aa bc
       -0.018180814 0.01044815 -0.034086872 -0.020783773

fc2.weight f4 [1, 64]
000000 3b b7 89 3c 10 9b db bd 67 c4 c4 3d b4 0a d1 bd
       0.016811004 -0.10722935 0.09607773 -0.102071196
000010 b2 d0 bc 3d a0 e5 7d bd ea d9 a1 3d d8 09 9c 3d
       0.09219493 -0.061986566 0.07902892 0.07619065
000020 85 63 1e be 18 b0 b1 3c 17 7d 7e 3d 68 d9 b0 bd
       -0.15467651 0.021690413 0.062131014 -0.08635217
000030 06 94 2d be fd c1 e5 3d 6c 0c 99 3e 3a 5a 05 3d
       -0.16950998 0.11218641 0.2989229 0.03255675
000040 c9 6d a2 bd ef f4 b5 3d 16 f4 d7 bd c9 19 34 be
       -0.07931096 0.08884608 -0.105446026 -0.17587961
000050 ba 90 21 3e a3 2c f2 bd d2 27 ec 3d 51 a8 8e bd
       0.15777865 -0.1182492 0.115310326 -0.069656976
000060 ec b6 20 3e e6 5c 23 be bc cd fb 3d 4a ef 15 3e
       0.15694779 -0.15953407 0.122951 0.14642063
000070 fa e5 d9 bd 41 66 41 3e 23 14 73 be 02 8b 35 3e
       -0.10639568 0.18886663 -0.2373815 0.17728809
000080 34 7d 81 3d cc 1a 6c 3e 50 ec 6f 3c 82 56 e3 3d
       0.06322709 0.23057097 0.014643744 0.111004844
000090 1d b7 4e be fd 47 2d 3e aa fe 99 bd 71 e7 2f 3e
       -0.2018704 0.16921993 -0.075192764 0.17178132
0000a0 1c 02 85 3e 70 d2 3e 3e 24 1c 74 bd ce e3 9f bd
       0.25978172 0.18634963 -0.05959715 -0.07807122
0000b0 8d 61 25 be 15 e3 cb 3d 1d c0 1f 3e b5 1f 5f 3e
       -0.16150494 0.09955422 0.15600629 0.21789439
0000c0 11 89 f5 3d 0a 9c 83 3d 58 af d5 bd fd 0a b3 bd
       0.11989034 0.064262465 -0.10433835 -0.0874233
0000d0 af 9a ee 3d 13 37 aa be a4 06 35 be cd 40 dd 3d
       0.11650597 -0.33245143 -0.17678314 0.108033754
0000e0 19 54 02 be ef 7b 99 3d 84 2d d4 3d 6f 2b cc bd
       -0.12727393 0.074943416 0.10360244 -0.09969222
0000f0 c1 34 a9 3d f9 55 9b 3d 7b 9d 74 3d 67 20 7e be
       0.08262015 0.07584757 0.059720498 -0.24817048
