src/models/saved_models/dl_cnn_model.pth (torch, 79676 bytes, 7 tensors)

conv1.weight f4 [8, 1, 3]
0	0x3ed589fc	0.41706836
1	0x3f1514a5	0.58234626
2	0xbe0882bd	-0.13331123
3	0x3f0b259f	0.5435428
4	0xbda827a4	-0.08210686
5	0x3e21e333	0.15809326
6	0xbe8b1721	-0.27166083
7	0x3ec0e9f9	0.37678507
8	0x3f0cf69e	0.5506381
9	0xbee528fa	-0.44757825
10	0x3ee6e228	0.4509442
11	0x3e2b5164	0.16730267
12	0x3edd3219	0.43202284
13	0x3dba5548	0.09098297
14	0x3e9d8643	0.30766496
15	0xbdbe0498	-0.0927822
16	0x3ee5040d	0.44729653
17	0x3e2d49a5	0.16922624
18	0xbe8c4428	-0.2739575
19	0x3e196dfc	0.14983362
20	0xbea8c048	-0.329592
21	0xbdab56dc	-0.083661765
22	0xbe91c303	-0.28469095
23	0x3ecfae9f	0.40562913

conv1.bias f4 [8]
0	0xbee4a779	-0.44659021
1	0xbe86ebe2	-0.2635184
2	0xbe2584a6	-0.16163883
3	0xbeacbda8	-0.33738446
4	0x3d67bbc8	0.056575567
5	0xbf0dac1b	-0.5534074
6	0x3f02a739	0.5103641
7	0xbef753bc	-0.48306072

conv2.weight f4 [16, 8, 3]
0	0x3e0d4c71	0.13798691
1	0x3c4211fb	0.011845107
2	0xbd6193e1	-0.05507267
3	0x3de957ee	0.113937244
4	0x3ca22753	0.019794142
5	0x3e0d8ae1	0.1382251
6	0x3c1e8e5c	0.009677496
7	0xbbafc4e9	-0.0053640497
8	0x3dc0e8bc	0.094193906
9	0xbd8e7bea	-0.069572285
10	0x3db4306e	0.087983
11	0x3e523023	0.20526175
12	0x3dfe81bf	0.12427091
13	0xbd8b8977	-0.06813329
14	0x3e016442	0.12635902
15	0x3cb566ac	0.022143684
16	0x3dc8c164	0.09802511
17	0xbde90fb9	-0.11379952
18	0xbe43ba1b	-0.19113962
19	0xbd9d0e7f	-0.076687805
20	0xbe10acbf	-0.14128397
21	0x3e237bb0	0.15965152
22	0x3d7eb279	0.062181924
23	0x3d8f2076	0.06988613
24	0x3d353fb5	0.04425021
25	0xbc50468e	-0.012712134
26	0x3e1ce3fe	0.15321347
27	0xbe1b6b22	-0.15177587
28	0xbb6ae0d4	-0.0035839574
29	0xbe2b2654	-0.1671384
30	0x3da08c39	0.07839245
31	0xbcbb596b	-0.022869786
32	0x3dd6a080	0.10479832
33	0xbd4e7332	-0.050402828
34	0x3e318ce6	0.17338905
35	0xbdd9ec73	-0.10640802
36	0xbdd52d4e	-0.10409032
37	0xbdcb1eeb	-0.099180065
38	0x3e492514	0.1964305
39	0x3d6d2fcd	0.057906915
40	0x3e45190a	0.19247833
41	0xbe2a74ef	-0.16646169
42	0xbe4a068f	-0.19729064
43	0xbe19a037	-0.15002523
44	0xbdf9d0f3	-0.12198057
45	0x3da67b7d	0.08129022
46	0x3d84de8c	0.0648776
47	0x3e2008dc	0.1562838
48	0xbddca6f7	-0.107740335
49	0xbe1db6ed	-0.15401812
50	0x3e14f449	0.14546312
51	0xbd9a4474	-0.07532588
52	0x3e000196	0.12500605
53	0xbd9a3fb8	-0.07531685
54	0x3dab3dcb	0.083613954
55	0xbde6b5bf	-0.11265134
56	0xbe1cacc1	-0.15300275
57	0x3d371ac6	0.044703268
58	0x3d3ec37a	0.04657314
59	0xbd333c3c	-0.043758616
60	0x3e01be06	0.12670144
61	0x3e14d3e8	0.14533961
62	0xbe303aa3	-0.17209868
63	0xbdf0cec0	-0.117581844
64	0x3e3ec959	0.18631496
65	0xbd82fca2	-0.06395842
66	0xbd8d07cc	-0.06886253
67	0xbe4f98d3	-0.20273142
68	0xbdb42cd5	-0.087976135
69	0x3d369362	0.04457415
70	0xbc8743dd	-0.016511852
71	0xbe3b39c9	-0.18283762
72	0x3ca1acdc	0.019735746
73	0xbe0dc229	-0.13843597
74	0xbe332464	-0.1749435
75	0xbde42677	-0.11140149
76	0xbe295df8	-0.16539752
77	0xbdd02803	-0.10163882
78	0x3e342dce	0.17595598
79	0xbc8e1318	-0.017343089
80	0xbb6cbd7c	-0.0036123684
81	0xbe3e03ef	-0.18556188
82	0xbe153c04	-0.14573675
83	0xbdb9c3df	-0.090705626
84	0x3c8d73fa	0.017267216
85	0xbe460f83	-0.19341855
86	0xbdc1b9f0	-0.09459293
87	0xbdefb0b3	-0.117036246
88	0xbb7db8b5	-0.003871483
89	0xbdacd800	-0.08439636
90	0xbc4079ce	-0.0117477905
91	0xbe11449e	-0.14186332
92	0xbe182e1a	-0.14861336
93	0xbdfc1842	-0.12309314
94	0xbd880671	-0.066418536
95	0xbe1e2aa3	-0.15445952
96	0x3e507463	0.20356898
97	0xbd3e82b6	-0.046511374
98	0x3e3d49e1	0.18485214
99	0x3d9ed9c4	0.07756379
100	0xbe22066b	-0.15822761
101	0x3e1005a4	0.14064652
102	0xbdafe2f3	-0.08588209
103	0xbdc07142	-0.09396602
104	0xbe4843e4	-0.19557148
105	0xbe3e27c0	-0.18569851
106	0x3d38863c	0.04504989
107	0xbd2b6dec	-0.041852877
108	0x3d781b9f	0.060573217
109	0xbe2388e4	-0.15970188
110	0x3e12444f	0.1428387
111	0xbe053104	-0.13006979
112	0xbd1e1a06	-0.038599037
113	0x3d3a91df	0.04554927
114	0x3dc62162	0.09674336
115	0x3e1bbfe2	0.15209916
116	0x3e3f2e06	0.186699
117	0xbe22a560	-0.15883398
118	0x3d863966	0.06553917
119	0xbdba6947	-0.09102111
120	0xbcf05113	-0.029335534
121	0xbe1c52eb	-0.15266006
122	0x3e5dbd70	0.21654296
123	0xbe169669	-0.14705814
124	0x3ddb5a5f	0.10710596
125	0x3d6005da	0.05469308
126	0x3db2d540	0.087320805
127	0xbcd7952b	-0.026316246
128	0x3e7abd31	0.24486233
129	0x3d360b77	0.044444527
130	0x3d33bf9e	0.043883912
131	0xbe180648	-0.14846146
132	0x3dc49090	0.095978856
133	0xbbedc493	-0.0072560995
134	0xbd9f1a10	-0.07768643
135	0x3e31fd77	0.17381845
136	0x3d61a086	0.055084728
137	0xbdbeabd9	-0.09310121
138	0xbdd9198c	-0.10600576
139	0xbc7b6579	-0.015344017
140	0x3dfaa43e	0.12238358
141	0xbd400d15	-0.046887476
142	0xbddebeeb	-0.108762585
143	0xbda67d65	-0.08129386
144	0xbe321215	-0.1738971
145	0x3cd4b90e	0.025967147
146	0x3e1fc38f	0.15601943
147	0xbe6f3353	-0.23359422
148	0x3d3f231a	0.046664335
149	0x3d85de07	0.06536489
150	0x3b8eab65	0.004353928
151	0xbd478ab1	-0.04871625
152	0x3e3b9c4f	0.18321346
153	0x3dbda92d	0.09260783
154	0x3d3a2020	0.045440793
155	0xb97f3a0d	-0.0002434032
156	0xbd771207	-0.060319927
157	0x3d5b2334	0.05350037
158	0xbbcff88c	-0.006346768
159	0xbda7e06b	-0.08197101
160	0x3dd20129	0.102541275
161	0x3e400972	0.18753603
162	0x3c3eff06	0.011657482
163	0xbd41f9d4	-0.047357395
164	0x3ca628f3	0.020283198
165	0xbd1870c3	-0.037216913
166	0x3d6b0ad9	0.057383392
167	0x3d36dcee	0.04464429
168	0xbe34dc5b	-0.17662184
169	0xbdaa9390	-0.083289266
170	0x3e2e046c	0.16993874
171	0x3d9c7a87	0.07640558
172	0xbb1f9774	-0.0024351748
173	0xbdf18060	-0.11792064
174	0xbe25537b	-0.16145127
175	0xbe6c2eb3	-0.2306469
176	0xbdc30486	-0.09522347
177	0x3d8e5896	0.0695049
178	0x3df24a41	0.11830569
179	0x3dba8fa3	0.09109428
180	0xbe4c6624	-0.19960839
181	0xbe0efe36	-0.13964161
182	0xbd4b1eed	-0.04959004
183	0x3e4aa947	0.19791137
184	0x3cc5a7a6	0.024127793
185	0xbd5637fe	-0.052299492
186	0x3db099ac	0.086230606
187	0xbda8c0e2	-0.082399145
188	0xbe0b30e1	-0.13592865
189	0x3e14e3a3	0.14539962
190	0xbdb02159	-0.086001106
191	0xbd0f7861	-0.03502691
192	0xbe56c770	-0.20974517
193	0x3e074d22	0.13213018
194	0x3e1c271b	0.15249293
195	0x3d991f72	0.07476701
196	0xbe19ad95	-0.15007623
197	0xbe5df5d8	-0.21675813
198	0xbe2b5c93	-0.16734533
199	0x3e369113	0.17828779
200	0x3e102876	0.14077935
201	0x3e269961	0.16269447
202	0x3de3ec77	0.111290865
203	0x3d878d6e	0.066187724
204	0x3bd0ce7c	0.006372271
205	0xbe160aaa	-0.14652506
206	0xbe2df51f	-0.16988038
207	0xbe48ad9b	-0.19597475
208	0x3dab75cd	0.08372078
209	0xbdc1ab20	-0.09456468
210	0xbd1f3569	-0.038869295
211	0xbde839e9	-0.113391705
212	0xbd01a7e4	-0.031654254
213	0xbe146485	-0.1449147
214	0xbe09e847	-0.13467513
215	0x3d85b92a	0.06529458
216	0xbd7ca911	-0.06168467
217	0x3deb3ea1	0.11486555
218	0xbd61b400	-0.055103302
219	0xbe185a6c	-0.14878243
220	0xbd07a4e7	-0.033116248
221	0xbdda04e3	-0.10645463
222	0xbd8c44bd	-0.06849048
223	0xbe1b5919	-0.15170707
224	0x3e29c706	0.16579828
225	0xbe16534d	-0.14680214
226	0x3dd1376b	0.10215648
227	0x3ddccc53	0.10781159
228	0x3e1c2e78	0.15252101
229	0xbe0c1632	-0.13680342
230	0x3e271822	0.163178
231	0xbdcc40ff	-0.099733345
232	0x3d9777e2	0.07395913
233	0x3e4b620d	0.19861622
234	0xbcd2aae3	-0.02571625
235	0xbbae2a94	-0.0053151343
236	0xbd313389	-0.04326204
237	0xbe31c236	-0.17359242
238	0x3dd211e7	0.10257321
239	0xbe52a775	-0.20571692
240	0x3dfdc54f	0.12391149
241	0x3e17784c	0.14791983
242	0x3e3c639c	0.18397373
243	0xbd545309	-0.051837
244	0xbe2e1b94	-0.17002708
245	0x3d21d499	0.03950939
246	0x3dbb8961	0.09157062
247	0xbe66eb1e	-0.22550628
248	0xbdc7e301	-0.097600944
249	0xbe04a27d	-0.1295261
250	0xbcce9a3b	-0.025220027
251	0xbdec85aa	-0.11548932
252	0xbdb75287	-0.08951288
253	0xbd94d5b1	-0.07267321
254	0xbe4e0ccb	-0.20122068
255	0x3e24b681	0.16085245

conv2.bias f4 [16]
0	0xbd95eeda	-0.07320948
1	0x3db1e16d	0.08685575
2	0xbe07a87d	-0.13247867
3	0xbe0d1258	-0.13776529
4	0xbc6c8392	-0.014435666
5	0xbd952cec	-0.07283959
6	0xbe09af50	-0.13445783
7	0x3debc267	0.11511689
8	0x3e2b78ce	0.16745302
9	0x3d16868f	0.03674942
10	0xbd050899	-0.032478902
11	0xbe40231b	-0.18763392
12	0xbd9114e6	-0.07084064
13	0x3d4e7c4e	0.050411515
14	0x3dbeb3af	0.09311616
15	0xbcf307fd	-0.029666895

fc1.weight f4 [128, 144]
0	0xbd1ab479	-0.03776977
1	0x3d2f523c	0.042803034
2	0xbd92f5fa	-0.071758226
3	0x3d4cff54	0.050048187
4	0xbd182fcd	-0.03715496
5	0x3a3afb5a	0.0007132791
6	0xbc4dd22c	-0.012562316
7	0x3c14487b	0.009050484
8	0xbc7d5adc	-0.015463557
9	0x3d5a89b0	0.053353965
10	0xbbc7aa2c	-0.006093284
11	0x3d73fa53	0.0595649
12	0x3da3411e	0.079714045
13	0xbd3e84e3	-0.04651345
14	0xbd7d7514	-0.061879233
15	0x3d936046	0.07196097
16	0x3d8084e8	0.0627535
17	0xbd6373fc	-0.055530533
18	0xbc15fdee	-0.00915478
19	0xbdbabd70	-0.091181636
20	0xbd8a5c7f	-0.067559235
21	0x3c3df1d5	0.011593302
22	0x3c8c1912	0.017101798
23	0x3c68a0cb	0.014198492
24	0xbd415e6d	-0.047209192
25	0x3dab34f6	0.08359711
26	0x3c92399d	0.017849738
27	0xbd1ddc5c	-0.03854023
28	0x3b1d666c	0.0024017347
29	0x3cc66455	0.024217764
30	0x3d056ee4	0.032576457
31	0xbd68fa16	-0.056879126
32	0x3d03a3dd	0.032138694
33	0xbd463eda	-0.048399784
34	0xbdb5137f	-0.08841609
35	0xbd9be626	-0.07612257
36	0x3daa5083	0.08316138
37	0x3d9893e5	0.07450084
38	0x3da09ab1	0.07842005
39	0x3d53c977	0.051705804
40	0x3d7929b8	0.0608308
41	0xbb53cfe1	-0.003231995
42	0xbd67d2f9	-0.056597684
43	0x3d2cf150	0.04222232
44	0xbd6623d9	-0.05618653
45	0xbd621e2d	-0.05520456
46	0xbd328c1a	-0.043590643
47	0x3c60a7d8	0.013711892
48	0x3d2afed7	0.04174694
49	0xbd052270	-0.032503545
50	0xbd6a9ad1	-0.05727655
51	0x3c488c60	0.012240499
52	0xbce9873d	-0.02850687
53	0xbd2ebbf7	-0.042659726
54	0x3d1b59e7	0.037927534
55	0xbc97c174	-0.018524863
56	0x3d979b2a	0.07402642
57	0x3d9ea019	0.0774538
58	0x3cbef215	0.023308793
59	0x3cc5c8ca	0.024143595
60	0x3ccdb5ed	0.025111163
61	0x3c4fd5fe	0.012685297
62	0xbb515490	-0.0031941272
63	0x3c852f12	0.016257796
64	0x3cf74a16	0.030186694
65	0x3da211fb	0.07913586
66	0xbcb66593	-0.022265231
67	0xbd213adb	-0.03936277
68	0xbccaa2b6	-0.02473579
69	0xbd502ba9	-0.050822888
70	0x39a64d27	0.0003171947
71	0x3d129818	0.03578958
72	0x3d437b7d	0.04772519
73	0x3d339cc0	0.04385066
74	0xbd543875	-0.051811654
75	0xbd25f784	-0.040519252
76	0xbc95915f	-0.018257795
77	0xbbef3430	-0.0072999224
78	0x3b70e0da	0.0036755116
79	0xbd8487fc	-0.064712495
80	0x3d2a266a	0.04154054
81	0xbd8ed730	-0.069746375
82	0xbd39655f	-0.04526269
83	0xbd810a8f	-0.06300842
84	0x3d92c4a5	0.07166413
85	0xbd95d3d8	-0.073157966
86	0x3d8fe3b3	0.07025852
87	0x3c340a4a	0.010988781
88	0x3c9d2b32	0.019185636
89	0x3d4c9faf	0.049956974
90	0xbc2e718b	-0.010647188
91	0x3d3deee3	0.0463704
92	0x3d615bbc	0.055019125
93	0xbd98b428	-0.07456237
94	0x3cddcf3e	0.02707636
95	0x3c2f2aa6	0.0106913205
96	0x3baf0aee	0.005341879
97	0xba8b31c7	-0.0010619693
98	0x3c9372bd	0.017999047
99	0xbced7db1	-0.028990598
100	0xbbd205f3	-0.0064094006
101	0x3dac6db2	0.0841936
102	0x3d725ec6	0.059172414
103	0x3b80a103	0.003925444
104	0xbdbcb90e	-0.09214984
105	0xbb8474ff	-0.0040422673
106	0xbdc1b1ba	-0.09457727
107	0x3cbb8291	0.022889407
108	0xbd40838f	-0.047000464
109	0xbabc7f70	-0.0014381241
110	0xbc1c9e8b	-0.009559284
111	0x3c6a994b	0.014318774
112	0x3d8e97e5	0.06962565
113	0x3c5dfeac	0.013549488
114	0x3c888928	0.016666964
115	0x3d463de6	0.048398875
116	0x3d096417	0.03354272
117	0xbcd488f2	-0.025944207
118	0xbcbd1295	-0.02308015
119	0x3d52d811	0.05147559
120	0xbcd091aa	-0.025460083
121	0x3d2feec3	0.04295231
122	0xbc69ad0c	-0.014262449
123	0xbd6fb407	-0.058521297
124	0x3da46eb0	0.080289245
125	0x3d9efafc	0.07762715
126	0x3d0b9691	0.03407914
127	0x3d981176	0.074252054
128	0x3d61e605	0.055151004
129	0x3da871e3	0.08224847
130	0xbc6b2e18	-0.014354251
131	0xbd6be7b0	-0.057594
132	0xbd9d28e8	-0.07673818
133	0xbce96bf3	-0.028493857
134	0xbd3e1ed0	-0.046416104
135	0xbd159fd2	-0.03652937
136	0xbda62faa	-0.0811456
137	0xbd9a1a7b	-0.07524582
138	0xbd6378fe	-0.05553531
139	0xbdacb993	-0.08433833
140	0xbd6c2d82	-0.057660587
141	0x3c131bca	0.008978793
142	0x3d7a7bf5	0.06115337
143	0xbd0ec454	-0.0348552
144	0xbcb3676f	-0.021899907
145	0x3d43ffd7	0.04785141
146	0xbd21070d	-0.039313365
147	0xbd0d1b6b	-0.034449976
148	0x3d56ce8e	0.05244308
149	0xbd89fbd3	-0.06737485
150	0x3c973c37	0.01846133
151	0x3d9e32ba	0.07724519
152	0x3ce0ac9e	0.02742606
153	0x3cc5a952	0.02412859
154	0xbd3779fe	-0.044794075
155	0x38f443ab	0.00011647431
156	0x3c2691f5	0.010166635
157	0x3ca2567b	0.019816628
158	0x3d10b760	0.03533113
159	0x3da6ec64	0.08150557
160	0xbd787bb3	-0.060664844
161	0x3c72e6e2	0.014825555
162	0xbd1e29fe	-0.038614266
163	0xbd89b68d	-0.06724272
164	0x394dcadd	0.00019625896
165	0xbd919922	-0.07109286
166	0x3d7286bc	0.059210524
167	0x3c54ea4f	0.012995317
168	0xbd7d5267	-0.061846163
169	0x3d58714c	0.052842423
170	0xbd8cd86a	-0.06877215
171	0xbd0a3733	-0.03374405
172	0xbc9b080e	-0.01892474
173	0xbd998206	-0.07495503
174	0xbd66a339	-0.056308005
175	0xbc8bbaba	-0.017056812
176	0x3d783a00	0.060602188
177	0x3d956bdc	0.07295963
178	0x3d0e0220	0.034669995
179	0xbd9bbf18	-0.076048076
180	0xbd67b40d	-0.056568194
181	0x3d8c5c17	0.06853502
182	0x3cdfe7e3	0.027332252
183	0x39e1c7e8	0.00043064286
184	0x3b98fd69	0.0046688807
185	0xbd81f00c	-0.063446134
186	0xbd2d07e1	-0.042243842
187	0x3d99e2ba	0.07513948
188	0xbd13554e	-0.035970025
189	0xbbce08f8	-0.0062876903
190	0xbd967bbe	-0.07347821
191	0xbd17c34e	-0.03705149
192	0x3bf20e6e	0.007386974
193	0xbd390b0c	-0.04517655
194	0xbc55d0b7	-0.01305025
195	0x3d2286fe	0.03967952
196	0xbd64703e	-0.055771105
197	0x3d1d1ff5	0.038360555
198	0xbd570f6b	-0.052504938
199	0xbd19ac37	-0.037517752
200	0x3d11db83	0.035609733
201	0x3d899e36	0.067196295
202	0xbca1db27	-0.01975782
203	0xbd0c2cba	-0.034222342
204	0xbd869fc3	-0.06573441
205	0xbce761dd	-0.028244907
206	0xbd8761dd	-0.06610463
207	0xbc9fadae	-0.019491997
208	0x3c8ec06f	0.017425744
209	0xbd9b2401	-0.075752266
210	0x3d942b1a	0.072347835
211	0x3d4bb554	0.049733475
212	0xbdab2892	-0.083573475
213	0xbd42d4d3	-0.047566246
214	0x3c871f77	0.016494496
215	0xbd423143	-0.04741026
216	0xbc026c64	-0.007960413
217	0xbd25b1d2	-0.040452786
218	0x3d86a3d0	0.065742135
219	0xbd509c61	-0.050930385
220	0x3d78a84c	0.060707375
221	0x3bd661d9	0.006542426
222	0x3c0ac5ff	0.0084700575
223	0x3d910fa8	0.07083064
224	0xbb78dcdd	-0.0037973442
225	0xbd37c499	-0.044865225
226	0xbc655afa	-0.013998741
227	0x3d87cee4	0.06631258
228	0xbd8bf1b2	-0.06833209
229	0x3c8c6cc7	0.017141713
230	0xbda57afe	-0.080800995
231	0x3d49c76b	0.049262445
232	0x3d558538	0.052129
233	0xbb1d2eec	-0.0023984266
234	0x3d1b9440	0.03798318
235	0x3a7be92a	0.0009609634
236	0x3d43865b	0.047735553
237	0xbd7bc260	-0.061464667
238	0xbc2742ce	-0.010208799
239	0x3d1e120c	0.03859143
240	0x3d9e74ed	0.077371456
241	0x3d0f7ffc	0.035034165
242	0xbd795c1a	-0.06087885
243	0x3d7c922f	0.06166285
244	0xbcd73764	-0.02627153
245	0xbcc73c7f	-0.024320839
246	0xbdaa488a	-0.08314617
247	0xbc746547	-0.0149167245
248	0x3d1956fa	0.037436463
249	0xbb12daf5	-0.002240834
250	0xbdbbc943	-0.09169247
251	0xbc970d8b	-0.018439075
252	0xbd037640	-0.032095194
253	0x3d8e85bf	0.06959104
254	0xbd96acf1	-0.07357205
255	0xbd049ad6	-0.032374226

fc1.bias f4 [128]
0	0x3b0df7b5	0.0021662537
1	0xbcb40cbd	-0.02197873
2	0xbcd8d2d4	-0.026467718
3	0x3d7feed1	0.062483612
4	0xbd54e0bb	-0.051972132
5	0xbc2df9a2	-0.010618599
6	0x3d6394e8	0.05556193
7	0xbbdeff1c	-0.0068053138
8	0x3d14223c	0.03616546
9	0xbd198312	-0.037478514
10	0x3d42a6b9	0.04752228
11	0xbd824f8a	-0.06362827
12	0xbd235d87	-0.039884117
13	0xbd936ed6	-0.07198875
14	0xbd84b5e1	-0.06480003
15	0x3d75f4da	0.06004796
16	0x3d8687c9	0.06568868
17	0x3ce9a1d7	0.028519554
18	0x3d227bc0	0.0396688
19	0x3d40ecc2	0.04710079
20	0x3d3a2cc6	0.045452856
21	0x3d565d72	0.05233521
22	0xbd2522d6	-0.040316425
23	0x3d6b7f44	0.057494417
24	0x3d68c563	0.056828868
25	0x3cbbb9d2	0.022915754
26	0xbc881e8c	-0.016616128
27	0x3d8f3d8f	0.06994163
28	0xbca0078a	-0.019534845
29	0xbdb40a4c	-0.087910265
30	0xbd180289	-0.037111793
31	0xbbae42b1	-0.005318009
32	0x3d075c7f	0.033047196
33	0x3c8a9457	0.016916437
34	0x3c5dc79b	0.013536359
35	0x3d964738	0.07337803
36	0x3d5abc76	0.053402387
37	0xbd1babf4	-0.038005784
38	0xbd238ed0	-0.03993112
39	0xbb8dfb11	-0.004332908
40	0xbc18f5be	-0.009335933
41	0xbd8c690f	-0.06855976
42	0xbcc51070	-0.02405569
43	0x3d78804e	0.060669236
44	0xbd94014e	-0.07226811
45	0x3ca8670a	0.020556945
46	0x3c3f727c	0.01168501
47	0xbce2aca9	-0.027670221
48	0xbcdb18b9	-0.026745187
49	0xbd019c39	-0.031643126
50	0xbda200fd	-0.07910345
51	0xbda3092f	-0.07960736
52	0x3d21fcf8	0.03954789
53	0xbaa6bda0	-0.0012721308
54	0x3a538c10	0.0008069882
55	0xbc79c7e2	-0.01524541
56	0xbd932de0	-0.07186484
57	0xbca119de	-0.019665655
58	0xbd83ea3c	-0.06441161
59	0x3d23145e	0.039814346
60	0xbcefb564	-0.029261298
61	0xbcd7b925	-0.026333401
62	0x3c958c5e	0.018255409
63	0xbd470c50	-0.048595726
64	0xbd41ab7f	-0.047282692
65	0xbd267a56	-0.040644012
66	0xbc7f8fc8	-0.015598245
67	0xbd57371f	-0.052542802
68	0xbdaeec71	-0.08541191
69	0x3d1729dd	0.03690516
70	0x3d5210f9	0.051285718
71	0xbcf507db	-0.029910972
72	0xbd745269	-0.059648905
73	0x3d54edbe	0.05198454
74	0xbd5588c6	-0.05213239
75	0xbd827b1c	-0.063711375
76	0xbd95cfb2	-0.07315005
77	0x3c843162	0.016136829
78	0x3ce3d084	0.027809389
79	0x3d9c5db5	0.07635061
80	0xbd1df0aa	-0.038559593
81	0xbd4f3b21	-0.0505935
82	0x3d887b8e	0.06664191
83	0x3d4a5930	0.049401462
84	0xbd895ea4	-0.067075044
85	0xbdaee7ec	-0.08540329
86	0x3d17e71c	0.037085637
87	0xbd0f0cc8	-0.0349243
88	0x3c8a658c	0.016894124
89	0xbbc2c44b	-0.00594381
90	0xbcc78bac	-0.024358593
91	0x3d84c5ad	0.06483016
92	0x3ccd4224	0.025055952
93	0x3c95ceea	0.01828714
94	0xbd77eacf	-0.060526665
95	0xbd0a6206	-0.03378489
96	0x3d44eaae	0.04807537
97	0x3d33a920	0.043862462
98	0x3be462be	0.006969779
99	0xbd9c90e4	-0.07644823
100	0xbd42b796	-0.047538362
101	0x3dab189d	0.08354304
102	0x3d8a70f7	0.067598276
103	0x3d230209	0.039796863
104	0xbd57fbc9	-0.052730355
105	0xbd056245	-0.03256442
106	0x3cada670	0.021197528
107	0xbd8c4159	-0.068484016
108	0xbb098cdd	-0.0020988502
109	0x3cf1dd87	0.029524578
110	0x3cd20a4c	0.025639676
111	0x3d26408e	0.040588908
112	0x3aceed41	0.001578726
113	0x3d2ff3c0	0.042957067
114	0xbdb32d86	-0.08748917
115	0xbd0399e9	-0.032129202
116	0xbcebdcf3	-0.02879188
117	0x3d6ffd34	0.058591083
118	0xbd7ab29c	-0.06120549
119	0x3d47f569	0.048818026
120	0xbd4f1765	-0.05055942
121	0xbcf9c8f7	-0.030491335
122	0x3d598be9	0.053111944
123	0x3dac34b6	0.08408491
124	0x3c985e6e	0.018599715
125	0xbcb9b6c9	-0.022670167
126	0x3d6ef605	0.05834009
127	0x3b53f0a1	0.003233947

fc2.weight f4 [1, 128]
0	0x3d88d6dc	0.06681606
1	0x3d35e878	0.044411153
2	0xbc5ad49d	-0.013356355
3	0x3de8a6e6	0.11359958
4	0x3d616d7f	0.055036064
5	0x3dd5fd4d	0.10448704
6	0x3dbfaeb7	0.09359496
7	0x3ce08a6d	0.027409757
8	0xbd4f2b0c	-0.050578162
9	0xbd074143	-0.033021223
10	0xbcd5b998	-0.026089475
11	0xbd3121e4	-0.04324521
12	0x3d2193c4	0.03944756
13	0x3e023f35	0.12719424
14	0x3dc83196	0.09775083
15	0x3d0c28e3	0.03421868
16	0x3d6053fd	0.054767597
17	0xbd40cb06	-0.04706862
18	0x3d7c2111	0.061554972
19	0x3db42913	0.08796897
20	0x3d108baa	0.035289444
21	0x3c9795ee	0.01850411
22	0x3d9b78c9	0.07591397
23	0xbdb9d8e8	-0.09074575
24	0x3d3da9cf	0.04630452
25	0xbd49d765	-0.04927768
26	0xbdae6959	-0.08516187
27	0x3d79d5d9	0.060994957
28	0xbcbe0f5e	-0.023200687
29	0xbcd7debe	-0.026351329
30	0xbd496237	-0.04916593
31	0xbd0a7e13	-0.03381164
32	0xbcbb384a	-0.02285399
33	0xbdc13a38	-0.094349325
34	0x3d514170	0.051087797
35	0x3d0fffa3	0.035155904
36	0x3d5f84a9	0.054569874
37	0x3de08d26	0.10964422
38	0xbcdd0ae7	-0.026982738
39	0xbd6850e0	-0.056717753
40	0xbdfa9328	-0.12235099
41	0xbca599ab	-0.020214876
42	0xbcbb3231	-0.022851082
43	0x3d04f753	0.03246243
44	0x3d1d34d8	0.038380474
45	0x3d27de92	0.040983744
46	0xbdf20435	-0.11817209
47	0xbe0e63ad	-0.13905211
48	0xbdc31000	-0.09524536
49	0x3d07146e	0.032978468
50	0xbd4558d5	-0.04818042
51	0xbddd29f1	-0.10799015
52	0xbd364146	-0.044495843
53	0xbdb1831e	-0.08667587
54	0x3dc3db67	0.09563332
55	0x3d91038f	0.07080757
56	0xbd6bd197	-0.057572927
57	0xbe1dd343	-0.15412621
58	0x3dcfbe7e	0.101437554
59	0x3db814e1	0.08988357
60	0xbe029f81	-0.12756158
61	0x3d3fd2bf	0.046831843
62	0xbdaa3932	-0.083116904
63	0xbd84488c	-0.0645915
64	0xbd761a3f	-0.060083624
65	0x3cb9c597	0.022677226
66	0x3dd1344c	0.10215053
67	0x3d7d5d2d	0.061856437
68	0xbdda728f	-0.106663816
69	0x3d6ab39a	0.057300188
70	0x3dbf9681	0.09354878
71	0x3d517261	0.05113447
72	0x3dd88a2b	0.105732284
73	0xbd85d499	-0.065346904
74	0xbd5424c9	-0.051792894
75	0x3d425828	0.047447354
76	0xbd8c2e04	-0.06844714
77	0xbd11b04e	-0.035568528
78	0x3dc92caf	0.09822976
79	0x3ce11b7f	0.027478931
80	0xbd5ef48e	-0.054432444
81	0x3d8df17c	0.06930825
82	0xbd860ac7	-0.06545024
83	0xbd82725a	-0.06369467
84	0x3d97f376	0.07419483
85	0xbdeff030	-0.11715734
86	0x3d9d06c5	0.07667307
87	0x3db11f35	0.086485304
88	0x3d794dcd	0.060865212
89	0x3dd451da	0.103671744
90	0x3d24aaa3	0.040201794
91	0xbd50ec8b	-0.051006835
92	0xbdaf8219	-0.08569736
93	0xbda722a5	-0.08160905
94	0xbdb7d504	-0.089761764
95	0x3d42726b	0.0474724
96	0x3d4d3e87	0.05010846
97	0xbda81b51	-0.08208335
98	0xbd4ef118	-0.050522894
99	0x3daa1236	0.08304255
100	0xbd53c578	-0.051701993
101	0x3cf989c1	0.030461194
102	0x3c86401d	0.016387993
103	0xbd29109a	-0.041275598
104	0xbcd30003	-0.025756842
105	0x3d3952c2	0.04524494
106	0xbd60eff6	-0.054916345
107	0xbdb09a85	-0.08623222
108	0x3d290ce6	0.041272067
109	0xbd5fd501	-0.054646496
110	0xbd415f1a	-0.047209837
111	0x3b9caca0	0.0047813207
112	0x3d1b0fc7	0.037856843
113	0xbd3591ea	-0.044328608
114	0xbd7e71ee	-0.06212037
115	0x3d8b2678	0.06794447
116	0xbd908d18	-0.070581615
117	0x3d3d2d21	0.046185616
118	0x3d3778f2	0.044793077
119	0xbc9016a0	-0.017588913
120	0xbcf0a8d7	-0.029377384
121	0xbc7a3fdf	-0.015274017
122	0xbdaea060	-0.08526683
123	0x3daa045f	0.08301615
124	0xbd7a82d3	-0.06115992
125	0xbd5f32e7	-0.054491904
126	0xbdb1ae02	-0.086757675
127	0x3d6ac77a	0.057319142
