src/models/saved_models/dl_fcn_model.pth (torch, 4984 bytes, 3 tensors)

fc1.weight f4 [64, 9]
0.061866194 -0.18078691 0.30407348 0.3261458 -0.30657354 0.43969184 0.15907426 0.076489724
0.09689968 0.029936062 0.23932901 -0.12799802 0.21963577 0.025869666 0.29048854 -0.020403786
0.18252036 0.32370365 0.11067763 0.052208602 -0.13900997 0.4094583 0.028873589 -0.16352177
0.022158368 -0.32918233 -0.3941585 0.0040294654 0.25089025 -0.27968565 0.28437543 -0.34930444
0.02296949 0.37549704 -0.050788444 0.31024632 0.3128183 0.005651077 -0.35239765 0.37292668
-0.15633093 -0.16261655 0.30885753 0.22289093 -0.037158325 0.15680872 0.20611681 0.2967503
-0.0043929513 0.118133314 0.04562066 0.15574725 -0.1327389 0.39752433 0.13680279 0.017263101
-0.24535917 -0.47567466 0.19165646 -0.102896795 -0.25421038 -0.2877875 -0.29744074 0.23847699
-0.38296965 0.39331868 -0.06688918 -0.10375613 -0.049617216 0.17461962 -0.2809817 0.25463447
0.32093227 -0.14127594 -0.18066975 -0.08776401 0.081974946 0.30469355 0.021874573 -0.13299154
0.108874545 0.1423434 0.23977642 -0.2137392 -0.036059797 -0.024411052 0.0516091 0.12387894
-0.13718088 0.25127554 -0.13324521 0.009197599 -0.08864531 0.31995675 0.049927063 -0.11567409
-0.08248263 0.1198539 0.48654684 0.23051867 0.12304812 -0.13302492 0.15290011 0.09089886
0.25632468 -0.16241264 0.35625377 0.42971057 0.1676548 -0.09808317 -0.13184175 -0.2815446
0.15023081 0.25618762 -0.009409505 -0.24859881 0.43373963 -0.21988 0.11864023 0.023077816
-0.27468234 0.08270729 -0.5289999 -0.40902498 0.1496542 -0.6237056 -0.057235852 -0.22479713
0.024082022 0.436324 -0.3340172 -0.11787994 0.0017302585 0.12213763 0.31767854 -0.0255528
-0.03368904 0.06246663 -0.18651146 -0.26864514 0.30746877 0.20011152 -0.07108595 0.44948903
0.015577123 0.07043655 0.13329676 -0.4794847 -0.1799864 -0.1316204 -0.27109876 0.010576972
-0.684014 -0.21452293 0.08217126 0.20276566 -0.03411321 -0.18925537 0.051658247 0.16650593
0.11464913 0.5280618 -0.08316111 -0.1234439 0.2890499 -0.08792154 0.20621707 0.084697425
0.22764507 0.26002562 -0.01630131 0.15479392 -0.0028700007 0.39765593 0.120435745 0.41840082
0.10058665 0.008423525 -0.28979388 -0.28687143 0.10373963 -0.17929736 0.21917044 -0.111982815
-0.32875043 0.14886679 0.39361423 0.09726868 -0.5475799 -0.17368609 -0.01190924 -0.16826206
0.25342724 -0.23703009 0.089102745 0.3125276 -0.23022026 0.28146967 0.03589532 0.020157885
0.12674007 -0.354121 0.16980325 0.13179933 -0.05024161 -0.24959771 0.40129963 -0.09492463
-0.2528741 0.13662751 -0.049973425 0.25122276 -0.04608092 -0.30291218 -0.77660793 -0.40378246
-0.21666653 0.019692091 -0.2362349 -0.14069504 -0.0040300433 0.3898593 0.32177076 -0.17700663
0.05718965 0.039061364 0.081505425 -0.17501743 0.0035181188 0.057984807 0.1297648 0.34217858
-0.08792408 -0.5243227 0.1873944 0.06766325 -0.06387303 -0.013764057 0.04616273 0.017610233
0.06890723 0.23897202 0.31083545 -0.0136780795 0.02641041 0.11515616 -0.16528575 -0.20649785
-0.2563515 -0.05006285 0.030897522 -0.6463081 0.0972851 0.16903809 -0.15157624 0.40573946
00000000: 6867 7d3d 3420 39be 85af 9b3e 95fc a63e
00000010: 35f7 9cbe 4a1f e13e 5de4 223e a5a6 9c3d
00000020: 5773 c63d 793c f53c aa12 753e ea11 03be
00000030: 33e8 603e 9fec d33c eaba 943e d725 a7bc
00000040: 9ee6 3a3e 7cbc a53e f4aa e23d b0d8 553d
00000050: a158 0ebe 85a4 d13e 4e88 ec3c 4072 27be
00000060: 7785 b53c 968a a8be 25cf c9be 9b09 843b
00000070: b074 803e f532 8fbe a899 913e 08d8 b2be
00000080: 832a bc3c 2641 c03e 8b07 50bd 9bd8 9e3e
00000090: b829 a03e ab2c b93b 776d b4be 3ff0 be3e
000000a0: 3715 20be f484 26be 9322 9e3e 853d 643e
000000b0: 5433 18bd 7792 203e 4910 533e a8ef 973e
000000c0: bff2 8fbb e1ef f13d bbdc 3a3d 357c 1f3e
000000d0: b5ec 07be 4f88 cb3e 0816 0c3e 596b 8d3c
000000e0: 6f3f 7bbe a18b f3be 9741 443e 8ebb d2bd
000000f0: dd27 82be e258 93be 274a 98be 5033 743e
00000100: 9914 c4be 1161 c93e 32fd 88bd 187e d4bd
00000110: 6c3b 4bbd 7ccf 323e d5dc 8fbe 735f 823e
00000120: 3c51 a43e a4aa 10be 7e01 39be 9ebd b3bd
00000130: 7be2 a73d cb00 9c3e 4e32 b33c ef2e 08be
00000140: 9ef9 de3d 78c2 113e f387 753e 73de 5abe
00000150: 70b3 13bd b0f9 c7bc 1064 533d 3eb4 fd3d
00000160: 2579 0cbe 30a7 803e 6f71 08be 87b1 163c
00000170: ac8b b5bd 5fd1 a33e 5280 4c3d 8ae6 ecbd
00000180: a7ec a8bd f675 f53d ab1c f93e 160d 6c3e
00000190: a700 fc3d af37 08be d991 1c3e 2e29 ba3d
000001a0: fd3c 833e 804f 26be e566 b63e 0603 dc3e
000001b0: b3ad 2b3e d4df c8bd 8601 07be 9d26 90be
000001c0: 1bd6 193e 062b 833e 532a 1abc b090 7ebe
000001d0: 1f13 de3e 3928 61be a6f9 f23d b00d bd3c
000001e0: 2aa3 8cbe 7162 a93d 8a6c 07bf b96b d1be
000001f0: f33e 193e 2cab 1fbf 2470 6abd 3831 66be
00000200: a947 c53c dc65 df3e 4d04 abbe 0a6b f1bd
00000210: d7c9 e23a 4b23 fa3d c3a6 a23e 1b54 d1bc
00000220: 85fd 09bd 02dd 7f3d dcfc 3ebe db8b 89be
00000230: 8c6c 9d3e 09ea 4c3e 8395 91bd 6d23 e63e
00000240: 3037 7f3c 0a41 903d f27e 083e 057f f5be
00000250: 5b4e 38be 80c7 06be 75cd 8abe 094b 2d3c
00000260: 8b1b 2fbf e6ab 5bbe 6849 a83d cda1 4f3e
00000270: 4bba 0bbd 29cc 41be 9997 533d 8880 2a3e
00000280: 2acd ea3d 0f2f 073f 5f50 aabd 28d0 fcbd
00000290: 59fe 933e 3510 b4bd 912a 533e d875 ad3d
000002a0: ca1b 693e 1422 853e 538a 85bc 4c82 1e3e
000002b0: 9f16 3cbb 8f99 cb3e 04a7 f63d a238 d63e
000002c0: 6000 ce3d d302 0a3c dd5f 94be d0e0 92be
000002d0: 7175 d43d ba99 37be 376e 603e 3f57 e5bd
000002e0: fa51 a8be 8970 183e ce87 c93e cd34 c73d
000002f0: 322e 0cbf c4da 31be f91e 43bc e44c 2cbe
00000300: 37c1 813e 04b8 72be 807b b63d 9e03 a03e
00000310: dcbe 6bbe cb1c 903e f906 133d 2622 a53c
00000320: 26c8 013e 594f b5be e7e0 2d3e 67f6 063e
00000330: 25ca 4dbd 8b96 7fbe 2577 cd3e d867 c2bd
00000340: b778 81be 15e8 0b3e efb0 4cbd 45a0 803e
00000350: 59bf 3cbd 4e17 9bbe c7cf 46bf 93bc cebe
00000360: d5dd 5dbe 4f51 a13c 90e7 71be 5c12 10be
00000370: 740e 84bb a39b c73e 23bf a43e 3a41 35be
00000380: b23f 6a3d cffe 1f3d 51ec a63d c537 33be
00000390: 3d90 663b 7a81 6d3d 10e1 043e 0832 af3e
000003a0: 8a11 b4bd 033a 06bf 51e4 3f3e 0893 8a3d
000003b0: ddcf 82bd a482 61bc 2115 3d3d 5643 903c
000003c0: 3c1f 8d3d 15b5 743e d325 9f3e 061a 60bc
000003d0: a55a d83c fed6 eb3d ab40 29be 2c74 53be
000003e0: 8140 83be b40e 4dbd cd1c fd3c 7374 25bf
000003f0: 693d c73d 5218 2d3e cd36 1bbe 15bd cf3e

fc1.bias f4 [64]
-0.07879952 -0.121857375 0.033647854 -0.019726496 -0.20763798 0.0044130413 0.00047942685 -0.0990663
-0.14716507 -0.1835241 -0.0137519725 0.05545766 -0.0016110009 -0.027181068 -0.0074946773 -0.007197834
0.0123070385 -0.015365968 -0.21486646 -0.156981 -0.010712963 -0.011889088 -0.0026008466 0.072086185
-0.18855762 0.0073497603 -0.021785786 0.027079491 -0.060525 -0.0627479 -0.01161361 -0.12965554
0.011203516 -0.0065876525 -0.114493586 -0.003551353 0.029384378 0.011986666 0.004816202 -0.05751401
-0.010929963 0.012408696 -0.011641423 -0.12785129 0.083689556 -0.28956306 -0.10781711 -0.017936459
0.001967459 0.0034694702 0.035118304 -0.021154752 -0.19556676 0.03447748 -0.03495252 0.030873857
-0.061017152 0.08993215 -0.34591848 0.1815053 -0.109364435 -0.016065933 -0.052232888 -0.013716372
00000000: a561 a1bd 5c90 f9bd 55d2 093d 7699 a1bc
00000010: 0d9f 54be 469b 903b 955b fb39 46e3 cabd
00000020: 71b2 16be beed 3bbe f44f 61bc 9227 633d
00000030: 3828 d3ba d5aa debc e995 f5bb cfdb ebbb
00000040: 76a3 493c 8bc1 7bbc f405 5cbe a1bf 20be
00000050: 6c85 2fbc 73ca 42bc f772 2abb eca1 933d
00000060: 4015 41be 42d6 f03b 1b78 b2bc cfd5 dd3c
00000070: 10e9 77bd f981 80bd 0347 3ebc 6cc4 04be
00000080: f48e 373c 3cdd d7bb 9d7b eabd d1bd 68bb
00000090: 82b7 f03c b963 443c 3bd1 9d3b d093 6bbd
000000a0: 9613 33bc d84d 4b3c abbb 3ebc 73eb 02be
000000b0: 6e65 ab3d 9c41 94be 38cf dcbd 7bef 92bc
000000c0: 7cf0 003b 0d60 633b 36d8 0f3d bb4c adbc
000000d0: a742 48be 4238 0d3d 602a 0fbd 2ceb fc3c
000000e0: 1fed 79bd 592e b83d 3a1c b1be 86dc 393e
000000f0: 76fa dfbd b49c 83bc 27f2 55bd a2ba 60bc

fc2.weight f4 [1, 64]
0.052066147 0.07604971 -0.04682325 0.07291073 0.28255635 0.009816404 -0.21824314 0.20894095
0.06882726 0.07531212 0.050486363 0.0053557944 0.10520057 -0.09289005 0.16032575 0.06829239
-0.20611192 0.039536506 -0.051234603 -0.07334324 -0.35523218 0.17448822 0.15299821 -0.030490566
0.073884346 -0.13852401 0.02983648 -0.13723859 0.07272644 -0.07158814 0.069044314 -0.33892307
-0.21605404 0.057314202 0.025883337 0.17296559 -0.049360603 -0.061563943 -0.26296294 -0.07399706
0.18715347 -0.16015837 -0.0896487 0.08454362 0.0034271865 0.005035076 0.1537079 0.062205385
-0.14234631 -0.25151902 -0.044098184 0.028663477 -0.1357761 -0.0464456 0.028375912 -0.10851083
0.01301302 -0.014022178 0.005492161 -0.0035149492 0.25187358 0.017512945 -0.06557725 0.033261664
00000000: 5043 553d f3bf 9b3d bcc9 3fbd 3952 953d
00000010: 3aab 903e fcd4 203c 217b 5fbe 9ef4 553e
00000020: 4ef5 8c3d 3e3d 9a3d caca 4e3d a97f af3b
00000030: 6573 d73d 233d bebd 6f2c 243e e1dc 8b3d
00000040: 010f 53be 08f1 213d 60db 51bd fb34 96bd
00000050: fee0 b5be 0aad 323e 90ab 1c3e 5ac7 f9bc
00000060: ad50 973d 3dd9 0dbe a26b f43c 4688 0cbe
00000070: 9af1 943d ce9c 92bd 1b67 8d3d 5387 adbe
00000080: 453d 5dbe 4cc2 6a3d 4b09 d43c e41d 313e
00000090: 582e 4abd 792a 7cbd 14a3 86be c58b 97bd
000000a0: 29a5 3f3e 8e00 24be bd99 b7bd 3525 ad3d
000000b0: a69a 603b 47fd a43b 9b65 1d3e 13cb 7e3d
000000c0: 3bc3 11be 1ac7 80be 4ca0 34bd abcf ea3c
000000d0: e408 0bbe be3d 3ebd 9a74 e83c ed3a debd
000000e0: 9034 553c 47bd 65bc 96f7 b33b 105b 66bb
000000f0: 93f5 803e 4f77 8f3c 5e4d 86bd 623d 083d
