src/models/saved_models/dl_fcn_model.pth (torch, 4984 bytes, 3 tensors)

fc1.weight f4 [64, 9]
0	0x3e052134	0.13000947
1	0x3e14d227	0.14533292
2	0xbe82a332	-0.25515133
3	0x3ebd4ed1	0.36974195
4	0xbe7bf6bd	-0.24605842
5	0x3e04d030	0.12970042
6	0xbe246280	-0.160532
7	0x3e38b0bf	0.18036173
8	0x3ec3bcfd	0.38230124
9	0xbea7c4f3	-0.32767448
10	0x3e89f442	0.26944166
11	0xbdac2128	-0.084047616
12	0x3e8254e3	0.25455388
13	0x3cdb04fb	0.026735773
14	0x3dc84237	0.097782545
15	0xbe1eb32a	-0.15498033
16	0x3e2a0e18	0.16606939
17	0xbd8d3e52	-0.06896652
18	0xbeab18f7	-0.33417484
19	0x3e3aaf00	0.1823082
20	0xbe2039f6	-0.1564711
21	0xbda03a39	-0.07823605
22	0xbe12d1ec	-0.14337891
23	0x3eb8eb9d	0.3611726
24	0xbdb40905	-0.08790783
25	0xbe301956	-0.17197165
26	0x3d8f3e49	0.06994302
27	0xbbfd0bf4	-0.007722372
28	0x3d93b6f4	0.0721263
29	0xbee3bbb2	-0.44479138
30	0x3ef36cda	0.47543985
31	0xbe995373	-0.2994648
32	0x3e9fa057	0.31177017
33	0x3d074bd1	0.03303129
34	0xbd9fb191	-0.0779754
35	0x3e40d6d1	0.18831946
36	0xbe004e11	-0.1252978
37	0x3d09230e	0.033480696
38	0x3daa9532	0.08329238
39	0xbe871428	-0.26382565
40	0x3d862bae	0.065513
41	0xbe9dd099	-0.3082321
42	0x3df75ec1	0.1207862
43	0x3e74cdab	0.23906581
44	0x3dcc3a06	0.099720046
45	0xbe1c183b	-0.15243618
46	0x3de76c42	0.112999454
47	0x3ca2b070	0.019859523
48	0x3b2868bb	0.002569719
49	0xbe82bd03	-0.2553483
50	0xbf111ea5	-0.56687385
51	0xbeb09286	-0.3448679
52	0xbee84408	-0.45364404
53	0xbde4204d	-0.111389734
54	0x3d1396df	0.036032554
55	0x3dbf9c86	0.09356026
56	0x3c779ffc	0.015113827
57	0x3d9e8b9b	0.077414714
58	0x3e492836	0.19644246
59	0xbdb6a215	-0.089176334
60	0x3e0abfb8	0.13549697
61	0xbdd058b9	-0.101731725
62	0x3eb29e09	0.34886196
63	0xbdc28cea	-0.094995335
64	0x3ddfe5ac	0.10932478
65	0xbd59d006	-0.053176902
66	0x3ec66732	0.38750607
67	0xbe3ac2cf	-0.18238376
68	0xbd83f4ec	-0.064431995
69	0xbdb918cb	-0.09037932
70	0x3ebc635e	0.3679456
71	0x3ea6640d	0.32498208
72	0x3e01c7fc	0.12673944
73	0xbe06d485	-0.13167007
74	0x3d85de96	0.065365955
75	0xbe38cb2f	-0.18046258
76	0xbe753279	-0.23945035
77	0x3e465a10	0.19370294
78	0x3e7e2a00	0.24820709
79	0x3e2004f1	0.15626885
80	0xbf1827b4	-0.5943558
81	0x3ba4dbd9	0.0050310907
82	0x3da97610	0.08274472
83	0xbe363a1d	-0.17795606
84	0x3ea7d8dc	0.32782638
85	0xbd5bb7c9	-0.053642068
86	0x3e4856f5	0.19564421
87	0xbe4710cd	-0.19440003
88	0xbed6531c	-0.41860282
89	0x3dfa5eb2	0.12225093
90	0x3dc86c16	0.09786241
91	0xbea0129b	-0.31264195
92	0x3c1c175c	0.009527054
93	0x3ef50cb0	0.47861242
94	0xbe4521be	-0.19251153
95	0xbe16e255	-0.14734776
96	0x3e8b07f6	0.2715451
97	0xbd7c7171	-0.061631624
98	0x3d29396c	0.041314527
99	0xbe45fd2e	-0.19334862
100	0xbe12cb88	-0.14335454
101	0x3e32b427	0.17451535
102	0x3dad5718	0.084638774
103	0xbd9534c2	-0.072854534
104	0xbcf6af23	-0.030112809
105	0xbe825946	-0.25458735
106	0xbec6c166	-0.38819426
107	0xbef979e2	-0.48725802
108	0xbe7446c4	-0.2385512
109	0xbead9673	-0.33903846
110	0x3d0f68b0	0.035011947
111	0xbd568160	-0.052369475
112	0xbd8bcfbe	-0.06826733
113	0xbe8af163	-0.27137288
114	0xbe74d006	-0.2390748
115	0x3d43d618	0.047811598
116	0x3e95dafa	0.29268628
117	0x3c0b3379	0.008496159
118	0x3b641b86	0.0034806444
119	0xbd606811	-0.054786745
120	0x3eaf5597	0.34244987
121	0x3db54c06	0.08852391
122	0x3e41d673	0.18929462
123	0xbdd7af07	-0.10531431
124	0xbe87e7ac	-0.2654394
125	0xbf040a08	-0.51577806
126	0xbdbaedca	-0.09127386
127	0xbe7b8b83	-0.24564938
128	0x3e59d50b	0.21272676
129	0x3b9b919c	0.0047475826
130	0x3e751054	0.2393201
131	0x3e82f5d6	0.25578183
132	0xbe113752	-0.1418126
133	0x3eb59755	0.3546702
134	0x3e625ed0	0.2210648
135	0xbd9d4796	-0.076796696
136	0xbe60bbc5	-0.21946628
137	0xbe9b81d4	-0.30372488
138	0x3e86fefa	0.26366407
139	0x3c1998ba	0.009374792
140	0x3ebc9b3a	0.36837178
141	0xbd40acac	-0.047039673
142	0x3edf7a04	0.43647778
143	0x3dee31e4	0.1163061
144	0xbe0c3aa2	-0.13694242
145	0xbc87538e	-0.016519334
146	0x3d271874	0.040794805
147	0x3e46dbec	0.19419831
148	0x3e57ad3b	0.21062176
149	0xbf0489b9	-0.5177265
150	0xbe12e5ae	-0.14345428
151	0xbeb39564	-0.35074914
152	0xbee0095e	-0.43757147
153	0xbeb5374d	-0.35393754
154	0x3d523742	0.05132223
155	0xbdbcd4fb	-0.0922031
156	0xbd22cc2e	-0.039745502
157	0x3e63f26d	0.22260447
158	0xbdf2566e	-0.118328914
159	0xbe9ca6e5	-0.3059608
160	0x3e8967b7	0.2683694
161	0x3e7ace1c	0.24492687
162	0x3da63006	0.081146285
163	0xbe886fca	-0.26647788
164	0x3e34ad0c	0.17644137
165	0xbe35a734	-0.17739564
166	0xbe2e625f	-0.17029713
167	0x3d812a65	0.06306914
168	0xbdfaab4f	-0.12239706
169	0xbebb1685	-0.3654062
170	0xbf0991bc	-0.53738
171	0x3e5d1fa1	0.21594097
172	0x3e8d84e1	0.2764044
173	0xbe9e9b35	-0.3097779
174	0x3d7c82ce	0.061648183
175	0xbcc3193a	-0.02381574
176	0xbdf3e48b	-0.119088255
177	0x3de36d52	0.111048356
178	0x3ed2a0a9	0.411382
179	0xbe80d408	-0.25161767
180	0xbc98bcfe	-0.018644806
181	0x3d4992a7	0.049212124
182	0x3c712668	0.014718629
183	0xbd1b1aa5	-0.037867207
184	0xbd89fb5c	-0.06737396
185	0x3da59c15	0.08086411
186	0x3e75d574	0.24007207
187	0x3c010d26	0.00787667
188	0xbec7429b	-0.38918003
189	0x3e080f6d	0.13287134
190	0xbdd3be68	-0.103390515
191	0xbe8bbc10	-0.27291918
192	0x3ebd589e	0.36981672
193	0x3e5ddf70	0.21667266
194	0xbbb09e2a	-0.0053899484
195	0x3df537be	0.119735226
196	0x3e264823	0.16238455
197	0xbdbbe29a	-0.0917408
198	0x3dcdc470	0.10047233
199	0x3bf64681	0.007515729
200	0xbe59ce58	-0.2127012
201	0x3d346675	0.044043023
202	0x3e8bd312	0.2730947
203	0x3e743a9a	0.2385048
204	0x3e0a6a6b	0.13517158
205	0xbd8c70a2	-0.068574205
206	0xbf200d77	-0.62520546
207	0xbe1121c5	-0.14173038
208	0xbd8b1290	-0.0679065
209	0x3be83615	0.007086525
210	0x3e89d375	0.2691914
211	0xbc4ee62e	-0.012628121
212	0xbe1a2700	-0.1505394
213	0xbdbf4e35	-0.09341089
214	0x3d1f4498	0.038883775
215	0x3ef45c40	0.4772663
216	0xbb8707b8	-0.004120793
217	0xbde36b40	-0.11104441
218	0x3dbcb3f4	0.09214011
219	0xbe8b18d7	-0.2716739
220	0xbe8737a0	-0.26409626
221	0x3d96aa32	0.07356681
222	0xbe935483	-0.28775415
223	0xbe17b2c5	-0.14814289
224	0xbf0a71c7	-0.5407986
225	0x3d88efa5	0.066863336
226	0x3e396397	0.18104397
227	0x3d5992f3	0.053118657
228	0xbd96e6c2	-0.07368232
229	0xbec231e8	-0.379287
230	0xbdbe14b9	-0.09281296
231	0x3eb15ff0	0.34643507
232	0x3e769d67	0.24083482
233	0x3f06508f	0.5246667
234	0x3e06997c	0.13144487
235	0x3d33a4bf	0.043858286
236	0xbde67fc2	-0.112548366
237	0xbea6d00d	-0.32580605
238	0xbecdfc59	-0.40231588
239	0xbecdeb76	-0.40218705
240	0x3bc4f0c7	0.006010148
241	0xbe79f796	-0.24410853
242	0xbde2e0c5	-0.11078028
243	0xbda5d6e5	-0.080976285
244	0x3c6f22b5	0.014595677
245	0xbe084af2	-0.1330984
246	0xbe9c38f6	-0.30512208
247	0x3e042a26	0.12906703
248	0xbe955cac	-0.29172266
249	0x3cba5ed1	0.02275029
250	0xbe8ec22f	-0.27882525
251	0xbf1b0330	-0.6055174
252	0x3d14f083	0.036362182
253	0xbd688738	-0.05676958
254	0xbdbd5bcf	-0.09246027
255	0xbe162dda	-0.14665928

fc1.bias f4 [64]
0	0xbd88d6e6	-0.066816136
1	0xbd1567a1	-0.03647578
2	0xbb9a450c	-0.004707938
3	0xbd6118cf	-0.0549553
4	0xbcf19aae	-0.029492702
5	0x3b24842a	0.002510319
6	0xbcf6be71	-0.030120106
7	0x3d074edf	0.0330342
8	0x3beed407	0.007288459
9	0x3bae6032	0.005321526
10	0xbd6c346a	-0.057667173
11	0x3c8f4cb8	0.017492637
12	0x3c88038b	0.016603252
13	0x3ce81e50	0.028334767
14	0xbca96413	-0.020677602
15	0xbb8a82da	-0.0042270245
16	0xbc26d33b	-0.010182197
17	0xbd15dcbe	-0.03658747
18	0x3b0355a4	0.002004006
19	0xbe07cc2a	-0.13261476
20	0xbb4bc1bf	-0.0031090823
21	0xbe3633e4	-0.17793232
22	0x3c523a98	0.012831353
23	0xbc29e938	-0.010370545
24	0x3b08d350	0.0020877905
25	0xbcda8106	-0.026672851
26	0xbe132910	-0.14371133
27	0x3b6bee37	0.0036000141
28	0xbc09c8cd	-0.008409691
29	0xba09e848	-0.0005260748
30	0xbdac3cbe	-0.08410023
31	0x3b6770ed	0.0035315112
32	0x3d356dcf	0.044294175
33	0xbc637ac3	-0.013884249
34	0xbc9bacf1	-0.019003363
35	0xbd9ea104	-0.07745555
36	0x3bb36419	0.005474579
37	0x3d51e827	0.05124679
38	0x3c23d3ad	0.009999198
39	0xbbaa377f	-0.005194604
40	0x3c422def	0.011851772
41	0xbe33ad8b	-0.1754667
42	0xbcfc83e6	-0.030824613
43	0xbd0a47bd	-0.03375982
44	0x3b49cded	0.0030792907
45	0xbbb92338	-0.0056499504
46	0x3b208caa	0.0024497905
47	0x3ba6a20f	0.005085237
48	0x3c317f16	0.010833522
49	0xbdc3f4aa	-0.0956815
50	0xbb9accc6	-0.004724118
51	0x3c8e4938	0.017368898
52	0xbe94c01d	-0.2905282
53	0xbb55c8df	-0.003262095
54	0xbe123246	-0.1427699
55	0xbd0fced0	-0.03510934
56	0xbb504335	-0.003177834
57	0xbbe4ca20	-0.006982103
58	0xbda192d6	-0.07889335
59	0xbd61b323	-0.05510248
60	0xbe0c6843	-0.13711648
61	0x3afd3466	0.0019317984
62	0xbe018d40	-0.12651539
63	0x3c25ada5	0.010112201

fc2.weight f4 [1, 64]
0	0x3db83594	0.08994594
1	0x3e170a81	0.147501
2	0x3e9c5543	0.305338
3	0x3e8e7b2e	0.27828354
4	0xbe81038b	-0.25198016
5	0xbdb5bb67	-0.08873635
6	0x3d59432f	0.053042587
7	0x3bd1c7fb	0.0064020134
8	0xbe9b399f	-0.303174
9	0xbe40e9c2	-0.18839172
10	0x3e5044eb	0.2033879
11	0xbe20eaa3	-0.15714507
12	0x3e0a9711	0.1353419
13	0xbd4746d6	-0.04865154
14	0x3d0c5ef9	0.03427026
15	0x3ce4eb59	0.027944254
16	0xbdd8d295	-0.1058704
17	0xbe6e11f6	-0.23249039
18	0xbe0dbd33	-0.13841705
19	0x3e1e8747	0.15481292
20	0xbeef47ae	-0.46734375
21	0x3daecf22	0.08535601
22	0xbda247a3	-0.0792382
23	0x3db25ff5	0.087097086
24	0xbdbb48b4	-0.091447264
25	0x3d4add10	0.049527228
26	0xbc8014d9	-0.015634941
27	0xbe042176	-0.1290339
28	0x3d7f8c25	0.06238951
29	0xbe2aa8ca	-0.1666595
30	0xbe940daa	-0.28916675
31	0x3e5bda7a	0.21470061
32	0xbd8b46d1	-0.068006165
33	0x3cd99583	0.02656055
34	0x3d32f166	0.043687247
35	0x3d43b9ac	0.047784492
36	0xbdac4fb6	-0.08413641
37	0xbd1d960e	-0.03847318
38	0xbdeaf19d	-0.11471865
39	0x3e22992d	0.15878744
40	0xbe5a7ef5	-0.21337493
41	0xbc19cfa1	-0.0093878815
42	0xbe1dbeed	-0.15404864
43	0x3cb80dcc	0.022467516
44	0xbe32a00a	-0.17443863
45	0x3da9ae2e	0.08285175
46	0xbe0fb642	-0.1403437
47	0xbdf6372d	-0.12022243
48	0xbe62d94c	-0.22153205
49	0xbdefd915	-0.11711327
50	0x3dd8a248	0.10577828
51	0xbe10904d	-0.14117546
52	0xbd37e95e	-0.04490029
53	0x3ed530d4	0.41638815
54	0x3d4735cc	0.04863529
55	0x3dae116a	0.08499415
56	0x3e57b475	0.21064933
57	0x3df48c55	0.11940829
58	0xbe85e69e	-0.2615251
59	0x3e089be5	0.13340719
60	0x3d0865a5	0.03330006
61	0xbe29c400	-0.16578674
62	0xbd0ceed9	-0.03440747
63	0xbe00c906	-0.12576684
