src/models/saved_models/dl_fcn_model.pth (torch, 22202 bytes, 5 tensors)

fc1.weight f4 [64, 9]
000000 5a eb 8b 3b cb 2b 1e 3d 81 63 90 bb 80 50 84 be
       0.0042699995 0.038615983 -0.004406393 -0.25842667
000010 12 2f 90 be 2b f1 6d be f2 09 86 3e 8f a0 83 be
       -0.28160912 -0.2323653 0.26179463 -0.25708434
000020 59 b2 27 3e d0 40 07 be cb 77 1c bd 70 bf 0c be
       0.16376628 -0.13208318 -0.03820018 -0.13744903
000030 9c 60 9a be 00 29 9e 3e e3 ca a0 be 36 78 e0 bd
       -0.30151832 0.30890656 -0.3140479 -0.109604284
000040 30 50 f7 3d b6 c2 b5 3d 7d 74 0f 3e 9e 45 17 3c
       0.120758414 0.08875029 0.1400928 0.009232907
000050 fb 41 33 be b7 17 87 be f3 15 59 be 99 af ad 3e
       -0.17505638 -0.2638528 -0.21199779 0.33923033
000060 a6 89 7f be 3f ba 73 3e bf ff e4 bd f3 9d 07 3e
       -0.24954852 0.23801516 -0.11181592 0.13243847
000070 bc 4b 4f 3e 58 08 9d 3e 27 35 89 3e f0 27 ff 3d
       0.20243734 0.30670428 0.26798365 0.12458789
000080 1f 58 08 3d 5e 47 f6 bd e3 5c 5f be 01 a2 81 3d
       0.033287164 -0.12025331 -0.21812777 0.06329728
000090 ea ee 79 3d 97 42 34 be ac 3e 69 bb e1 20 0f be
       0.06101886 -0.17603527 -0.0035590334 -0.13977386
0000a0 c6 17 95 3e 3b 33 ca bd fb ac 53 3d 44 09 a0 be
       0.291197 -0.09873053 0.05167864 -0.3125707
0000b0 9c 63 d2 bd 9c 1d a3 3e c3 32 61 be c4 4b 9f be
       -0.10272905 0.31858528 -0.2199202 -0.31112492
0000c0 fb 6a 6b 3e 43 b7 47 3e 66 65 66 be 2e 84 6e be
       0.22990029 0.19503503 -0.22499618 -0.2329261
0000d0 a0 ba 18 be 8b 72 64 3d 73 89 30 3e 2d cb 5e 3e
       -0.14914942 0.0557733 0.17239933 0.21757193
0000e0 65 26 82 bd db 4e a0 be 3d 2d a7 be 60 d0 a4 be
       -0.063549794 -0.31310162 -0.32651702 -0.32190228
0000f0 44 31 57 3a 0a 98 81 3b 7c f1 4f be 2e 6f 95 be
       0.000820894 0.003954892 -0.20306963 -0.29186386
000100 56 95 ba ba 7e 2d 3f be 98 29 8c be 38 0e 83 3e
       -0.0014235179 -0.18669698 -0.27375484 0.25596786
000110 36 0c 45 be 16 ba 86 3e 38 c1 06 3e d6 1b 04 bd
       -0.1924294 0.26313847 0.13159645 -0.03225311
000120 20 2b 94 3d c6 07 c4 3d 1b 00 a8 be 46 d2 a8 be
       0.07234788 0.09571795 -0.3281258 -0.32972926
000130 e0 27 1b 3d 4b 89 b3 bd a3 aa 8a 3e e6 e9 b6 3d
       0.037879825 -0.08766421 0.2708331 0.08931331
000140 66 42 9f 3d 3b 03 5a be 4e 0a 08 be b9 44 6b 3e
       0.07776336 -0.21290295 -0.13285181 0.22975434
000150 5b 08 44 3e 7e cd 01 be 89 b9 5a 3e e5 5c 33 be
       0.19143812 -0.12676045 0.21359839 -0.17515905
000160 56 8c 75 be 2f 1b db 3d a4 eb 99 3d f3 0d 57 3e
       -0.23979315 0.10698544 0.07515648 0.21001415
000170 7a f9 7c 3e 03 a9 02 3d a8 81 5b be 76 d3 13 3e
       0.24704543 0.031899463 -0.21436179 0.14436135
000180 8e 5b 9b be 26 cf b3 bd 48 b4 b3 bd 5f df 28 3e
       -0.30343288 -0.08779745 -0.0877462 0.1649146
000190 89 7f 62 be a0 ed 87 3e 6e cb 00 be 9d c6 62 3e
       -0.22118963 0.2654848 -0.12577602 0.22146077
0001a0 0d 2d cf 3d a3 6e a2 3e dd 62 68 be ca 76 a7 bc
       0.10116015 0.31725034 -0.22693963 -0.020442385
0001b0 2e de 95 3e 73 aa 45 be 87 3c a7 3e 26 7a aa be
       0.29271072 -0.19303302 0.32663366 -0.33296317
0001c0 80 49 5a be 06 56 9a bd 3b 6f 7b be d6 e8 22 bd
       -0.213171 -0.07535939 -0.2455415 -0.03977283
0001d0 94 54 82 be 6d f1 ba bd eb 11 39 3e 8a bf e1 bd
       -0.25455153 -0.091280796 0.18073241 -0.11022861
0001e0 cb fe eb bd 40 c8 85 be f9 a9 35 be 62 1a d9 bd
       -0.11523207 -0.2612934 -0.1774062 -0.10600735
0001f0 92 34 85 be 42 f1 ea 3c 59 a0 73 3e 2d 3c cd bd
       -0.2601667 0.028679494 0.23791637 -0.10021243
000200 7c 65 2a 3e b3 4f a3 3d 90 57 e0 bd b9 a9 8a bd
       0.16640276 0.07974186 -0.10954201 -0.06770653
000210 95 48 e9 3d c7 f7 50 be 32 5d 80 3e 60 c9 44 3e
       0.11390797 -0.2040702 0.25071102 0.19217443
000220 4f 4b 78 bd 5b 37 22 bd 49 2b ac 3e 62 d9 3d 3e
       -0.060618695 -0.039603572 0.33626774 0.18539956
000230 47 1a 22 3e 20 88 12 3e 5c 97 aa bb 86 13 64 3e
       0.15830337 0.1430974 -0.0052060317 0.22273073
000240 58 d7 74 be d5 ec 97 3d 6d 63 72 be c0 1d 89 bd
       -0.23910272 0.07418219 -0.2367074 -0.066951275
000250 42 39 fa 3d b7 4b a7 bd cc 40 02 3e 50 d5 93 be
       0.12217952 -0.08168738 0.1272003 -0.28873682
000260 2f d9 97 3e 6c 54 a1 3e 69 87 38 3e ef 63 5d bd
       0.29657885 0.3150972 0.18020405 -0.054050382
000270 52 02 95 3e 05 41 18 3e 74 af 9c 3d 5d 52 53 be
       0.29103333 0.14868553 0.076506525 -0.20636888
000280 f6 23 0e 3e 1b 66 ad 3e 20 cb ad bc e3 fa 86 3e
       0.13880906 0.33866963 -0.021215022 0.26363286
000290 4b 81 91 be 68 3b 59 be 15 77 10 be 39 15 5f 3d
       -0.28418955 -0.21214068 -0.14107926 0.0544636
0002a0 a9 0e 60 3e 5f e1 a7 3c 97 80 db bc bc 0a 69 3c
       0.21880592 0.020493207 -0.026794715 0.014223751
0002b0 1b 32 0b be 77 50 35 3e f9 69 1b be cb 1b b0 39
       -0.13593332 0.17706476 -0.15177144 0.00033590043
0002c0 09 eb 33 be 9a 1f 0e be ac d0 20 3e 65 de 82 3e
       -0.17570128 -0.13879243 0.15704602 0.255603
0002d0 e4 4b 3b 3e e6 37 45 bc 21 05 8e be a0 2b 0c be
       0.18290669 -0.012037253 -0.27738288 -0.13688517
0002e0 fe 70 97 3e 1d ca ee 3c 25 75 9c be 06 4a 5a 3d
       0.29578394 0.02914911 -0.30558124 0.05329325
0002f0 01 bf 69 be a0 c7 8c 3d bb 19 a6 be 70 2f d5 bd
       -0.22826768 0.06874013 -0.32441506 -0.104094386
000300 d0 40 42 be f0 15 3a 3e 26 9b 15 be d0 3e 95 3d
       -0.18970037 0.18172431 -0.14609966 0.07287371
000310 04 be 9a 3e d6 db 71 3c 6b 08 7e bd 9e 20 1b be
       0.30223095 0.014761886 -0.062019747 -0.15149161
000320 5e 2c 1f 3e 3b 1d a7 3d 96 b7 c8 bd 30 cd c1 bd
       0.15544268 0.08159872 -0.09800641 -0.094629645
000330 be 99 59 be 80 14 1c 3e 96 bb e7 bc de f6 a2 be
       -0.21250054 0.15242195 -0.02828769 -0.3182897
000340 7c d5 2f be df b0 67 be d2 2b 81 3e d0 f6 6c bc
       -0.17171282 -0.22626065 0.25228745 -0.014463142
000350 79 2e 67 bd db 87 31 3d 44 b2 de bc a4 78 87 3e
       -0.056440804 0.043342452 -0.027184613 0.2645923
000360 7b cf 7a 3c 47 df de 3d f3 90 3b 3e e3 73 31 3e
       0.015308256 0.108824305 0.18317012 0.17329364
000370 49 64 ff bc 89 db 3d be a6 d9 d4 bc 1c 66 ca bc
       -0.03117575 -0.18540777 -0.02598269 -0.024706893
000380 0c f2 97 3e ea 50 8a bd ca 6d 8b 3e e9 84 42 3e
       0.29676855 -0.067537144 0.272322 0.18996014
000390 4d 91 6d 3d eb ef 1d 3d 87 63 8f be d8 ff 1f be
       0.057999898 0.03855888 -0.2800562 -0.1562494
0003a0 c4 37 a9 3e a9 8c ab 3d 1b f2 42 3e 10 d1 0a be
       0.33050358 0.08376438 0.19037668 -0.13556314
0003b0 56 d1 ed bb ea 27 93 be 86 4e 90 3e 63 8c 04 be
       -0.007257621 -0.2874139 0.2818491 -0.12944178
0003c0 90 21 e2 3d 76 97 12 bd 4b 1a 60 be 5a 68 8e 3d
       0.11041558 -0.035788976 -0.2188503 0.06953497
0003d0 eb 37 a3 be 23 0c 87 be 82 85 54 3d a8 28 5b 3e
       -0.318786 -0.26376447 0.051885135 0.21402228
0003e0 a6 e0 cd bd bd 6d bd 3d e5 36 6b be 5d b6 a7 3e
       -0.10052614 0.092494465 -0.2297016 0.3275632
0003f0 19 29 6f be 5c 59 14 bd ec 18 71 be 93 24 9e 3e
       -0.23355521 -0.036218032 -0.23544663 0.3088728

fc1.bias f4 [64]
000000 4e a9 89 3e b7 64 97 be 3a aa 04 3e 93 c0 14 be
       0.26886982 -0.29569027 0.12955561 -0.14526586
000010 5e 55 b9 3d 20 e5 6f be 30 63 18 3e db 59 22 be
       0.090494856 -0.23427248 0.14881587 -0.1585459
000020 ec 88 8d be 9f 8c 37 3e fa 7e 90 3e 8a e8 2a be
       -0.27643526 0.17924736 0.28221875 -0.16690269
000030 98 d0 97 be e1 2e 85 3d a9 91 71 3e a7 f1 7f 3e
       -0.29651332 0.06503082 0.23590721 0.24994527
000040 fd 5f 75 3e 79 bf 2b be 3f 6a 8c 3e b1 c7 19 3e
       0.23962398 -0.1677226 0.2742481 0.15017582
000050 0c 51 5f bd 38 58 8b be 16 23 32 bd 22 dd ad bd
       -0.05452065 -0.27215743 -0.04349049 -0.08489443
000060 c7 72 75 3d 1c bd 5e be 67 0a 86 be f5 12 44 be
       0.059923913 -0.21751827 -0.2617981 -0.19147857
000070 4d da 38 3e 28 8d 45 be 9d 05 73 bd 51 76 a3 3e
       0.18052025 -0.19292128 -0.059331525 0.31926206
000080 e6 c7 9e bd f0 7f 67 3e c6 b6 73 3e d7 2c 8d 3e
       -0.07752971 0.22607398 0.23800191 0.27573273
000090 89 c2 35 3d cb 1e 57 bd 0b aa 9c be 56 ad b7 bd
       0.044374976 -0.0525196 -0.30598482 -0.08968608
0000a0 ca b8 14 3d 16 db 3b be 55 7a a4 3d 79 33 84 bb
       0.03630904 -0.18345293 0.080311455 -0.0040344563
0000b0 fc a6 06 be b2 ee 9c 3d 51 1d e3 3c 53 0b 60 be
       -0.13149637 0.07662715 0.02772394 -0.2187932
0000c0 73 16 8e be 9b 88 94 be 50 9e c8 bd 20 5e 4f bd
       -0.27751502 -0.29010472 -0.09795821 -0.050626874
0000d0 14 0b 0d 3d 40 44 d2 bb 92 bf 8a 3e 13 ab 09 be
       0.034434393 -0.0064168274 0.27099282 -0.13444166
0000e0 86 e0 2b be 88 7a 6d be 8c 62 42 3e b3 ac 73 be
       -0.16784868 -0.23191273 0.18982905 -0.23796348
0000f0 a5 90 a0 3e 10 93 1f 3d 33 7d 20 3e 56 0f 4a be
       0.31360355 0.03895861 0.1567276 -0.19732413

fc2.weight f4 [64, 64]
000000 47 db fd bd 36 e4 c3 3d 0c d1 f1 bb 27 5d b3 bc
       -0.123953395 0.09565012 -0.0073796567 -0.021895004
000010 17 1f da bd 52 4a be bd 46 b7 52 bd dc 8d 6d 3d
       -0.10650461 -0.09291519 -0.051444314 0.057996616
000020 ec b0 d0 3d c0 25 9a 3c 37 10 e7 bd f7 41 d8 3d
       0.10189995 0.018816829 -0.112823896 0.10559457
000030 c8 55 8c bc 33 7b 9d 3d 41 91 17 3d 6d 70 4a 3d
       -0.017130747 0.07689514 0.03700376 0.049423624
000040 0c 47 5c 3c 1c 2a d6 bc 6d 02 2a bd 73 b1 8f bc
       0.013444673 -0.026143126 -0.04150622 -0.01754067
000050 0c eb a4 3d c4 25 d8 3d 40 90 29 3b 47 85 81 3c
       0.08052644 0.10554078 0.0025873333 0.015810622
000060 fe 65 44 3d 34 42 33 bd 68 01 6a bd 9d 4b a4 bc
       0.04794883 -0.043764308 -0.057130247 -0.020055586
000070 e6 56 38 3d c3 8e 08 bd ca 5b ce bd d2 3e ea 3c
       0.045004748 -0.033339273 -0.10076101 0.028594408
000080 76 d9 9e bd 3c 85 17 3d dc a9 34 bc 96 e1 8d bd
       -0.07756321 0.036992297 -0.011026826 -0.06927793
000090 06 2f 8c bd ec 7b 2c 3d 6c 78 a6 bd d0 c5 b1 bc
       -0.068449065 0.04211037 -0.081284374 -0.02170077
0000a0 5c 8d 3f 3c ba 28 de bd b8 32 eb bd 7c 24 c7 bd
       0.011691418 -0.10847612 -0.11484283 -0.09723756
0000b0 37 69 2f bd f4 db ed 3d 0d 2a 9e bd 00 2b b5 3d
       -0.04282495 0.11614218 -0.07722864 0.08846092
0000c0 7f 16 86 3d ec 85 4e bd 52 40 b3 bd 6e 08 a1 bd
       0.065472595 -0.050420687 -0.087525025 -0.07862936
0000d0 28 53 14 3e 8a c9 0d be 9c b5 2f 3d 10 e9 1d bd
       0.14484847 -0.13846412 0.042897806 -0.038552344
0000e0 a6 aa b0 3d d6 ed e9 bd 17 4a 1a bc 26 42 d4 3d
       0.086262986 -0.11422317 -0.009417078 0.10364179
0000f0 37 ae d2 bd 2d 0e 13 bc 63 2a cd 3d a0 0c fe 3d
       -0.10287135 -0.008975548 0.1001785 0.12404752
000100 38 10 4b 3d d0 de 58 bc 94 8f de 3d d9 03 cf 3b
       0.049576014 -0.013236716 0.10867229 0.0063175973
000110 4f 15 07 3e 4e 4f b2 bd f7 21 ee bc 98 b0 51 bd
       0.13191722 -0.087065324 -0.02906893 -0.051193804
000120 64 03 4a 3d 95 6a 02 3e 60 55 0d 3d 6d 0b 2b 3d
       0.04931964 0.1273597 0.034505248 0.041758943
000130 80 48 ec bd 85 d1 c5 39 22 6b ed 3d 3d a5 5c 3c
       -0.11537266 0.00037730872 0.115926996 0.01346713
000140 51 b6 e1 3d 88 43 8c bd 2a 32 e3 3c 2f a8 8c 3d
       0.11021102 -0.06848818 0.027733881 0.06868016
000150 86 d6 1a 3c e2 b9 e2 bd 50 71 fc bc cf 25 59 3d
       0.00945056 -0.110706106 -0.03081575 0.053014573
000160 12 f9 2d bd d3 25 8a 3d a8 2d bd bd fc df 76 3d
       -0.04247386 0.06745496 -0.09237224 0.060272202
000170 89 b7 b6 bd 8a 49 00 be 38 8c 6c bd 81 bb fe bc
       -0.08921725 -0.12528053 -0.05775091 -0.031095268
000180 60 be 61 3c 20 74 8b 3d 3e 34 a0 bd e2 f4 9c 3d
       0.013778299 0.068092585 -0.078224644 0.07663895
000190 0c 66 56 3b bc fc c7 bc 86 f9 ad bd e4 41 06 3d
       0.0032714633 -0.024412505 -0.084948584 0.032777682
0001a0 89 3e 23 3d 04 84 da 3d 4d 5f 92 3d 3c 77 dd 3d
       0.03985456 0.10669711 0.071470834 0.10813758
0001b0 b9 25 7b 3d 2c aa a2 3c ed c7 4c bd 42 5a 9e 3d
       0.061315272 0.019856535 -0.04999535 0.07732059
0001c0 d3 60 60 3d f5 09 8c bd 20 9e 2f bd 94 8c 3c 3d
       0.05477984 -0.06837837 -0.04287541 0.046032503
0001d0 62 bb 80 3d 95 a8 90 3c 9e ec 8c bc 36 43 c2 3d
       0.062857404 0.017658511 -0.017202672 0.09485476
0001e0 0c e0 de bd 8a 28 8e 3d cd 13 be 3d 1a 76 a4 3d
       -0.10882577 0.06941326 0.092811204 0.080303386
0001f0 1e d9 1f 3d 35 cb c2 bd 25 9d 5f 3c 74 90 2c 3d
       0.03902542 -0.09511415 0.013648306 0.04212995
000200 27 21 ee 3d e4 0f 2a bd e2 df 91 bd 15 95 3e 3d
       0.11627417 -0.04151906 -0.071227804 0.046528894
000210 e9 59 f6 bc 50 85 6f bc cc 92 33 bd 40 53 bf bd
       -0.03007217 -0.0146191865 -0.04384117 -0.093420506
000220 f4 18 17 3d 40 c5 b0 3d 74 97 ef bd dc 42 8c 3d
       0.03688903 0.086313725 -0.11698809 0.0684869
000230 08 53 29 bd c8 3c 3a 3d 30 9e 98 bd 84 77 ff 3d
       -0.04133895 0.04546812 -0.07452047 0.12473968
000240 f8 69 86 bc a9 5c b9 bd 98 6a 89 3d c7 7a 12 3d
       -0.016407952 -0.09050877 0.06709784 0.03576162
000250 2a 8c f8 3d 70 78 12 3d a0 c5 98 bd 18 aa 09 3d
       0.12136109 0.03575939 -0.07459569 0.03360948
000260 93 a4 43 bd 09 46 cd 3d 0e 9d ae bd 28 ee ed 3d
       -0.047764372 0.10023124 -0.085260496 0.1161769
000270 de 48 75 bc 3b d8 33 bd dc c6 4b 3d 6e b6 71 bc
       -0.014970986 -0.043907385 0.049750194 -0.014752967
000280 58 b7 6a bd 85 33 26 3d cc 74 2e 3d b5 61 e6 bb
       -0.057303756 0.040576477 0.042591855 -0.0070306906
000290 a0 df 8b 3d 44 ee 8e 3d 38 a2 20 3d 00 42 96 b9
       0.068297625 0.06979039 0.039217204 -0.00028659403
0002a0 df 16 c5 3c 14 f0 5a bd 9e 5f ba 3c ce e5 9a bd
       0.024058757 -0.053451613 0.022750672 -0.07563363
0002b0 12 12 fb bd fc 3a d0 3d c6 ad 16 be d0 e2 02 bd
       -0.12259306 0.101675004 -0.14714727 -0.031954587
0002c0 ba d9 ef bd 49 92 14 3d e0 e0 96 3c 78 bc 73 bd
       -0.1171145 0.03627232 0.018417776 -0.05950591
0002d0 80 c5 06 3d 52 eb 00 bd cf 1b a5 bd ca 7b f1 bd
       0.032903194 -0.03147442 -0.08061945 -0.11791189
0002e0 78 e8 1e bd 50 d8 c0 3c 28 ab b4 bc 8e 48 80 3d
       -0.03879592 0.023540646 -0.02205427 0.06263839
0002f0 3c 7d e7 bd 98 e0 e9 bd 68 28 a7 3c 80 14 47 3c
       -0.113031834 -0.11419791 0.02040501 0.012150884
000300 80 5c 48 bd 98 81 14 bd 5f 0b 84 3d 8b 0a 2a 3c
       -0.04891634 -0.036256403 0.06447481 0.01037849
000310 51 9b 80 bd 5e 4f 89 3d d0 cb 97 bd 3c ab 2d bd
       -0.06279624 0.06704591 -0.07411921 -0.04239963
000320 60 b2 03 bc 70 40 9e bd 16 5f b2 3d 7e 07 0e 3c
       -0.008038133 -0.07727134 0.087095425 0.008668778
000330 42 d1 ca bd 5e 0a 96 bd a9 28 b6 bc 3d 1d 28 bd
       -0.09903194 -0.07326196 -0.022236185 -0.04104351
000340 86 ab 21 bc 54 23 a6 bc c1 df 95 3d af 80 b4 3c
       -0.0098675545 -0.020280518 0.07318068 0.022034017
000350 3b 79 b6 bd c0 5e 93 bb 60 24 fd bc c0 16 91 3d
       -0.089098416 -0.004497379 -0.030901134 0.07084417
000360 b3 59 e8 3c d2 58 88 3d 60 7a 3a bc 29 2c af 3d
       0.028363084 0.06657566 -0.011381716 0.08553345
000370 8a 45 40 3d 95 30 de 3d da 1c a6 bd fd c3 23 3d
       0.046941318 0.1084911 -0.08110972 0.03998183
000380 e8 8d a5 3c 70 88 66 3d 52 1c ad bd 85 58 9e 3d
       0.020209268 0.05628246 -0.08452667 0.077317275
000390 2c 12 ef bd 80 13 9c 3d 5c 2f b5 3d c2 e5 b0 bd
       -0.11673388 0.07620907 0.08846924 -0.08637573
0003a0 b5 dd e0 bb 84 cb 05 3d a5 4d e3 bd 20 50 a1 3d
       -0.006862367 0.03266479 -0.11098794 0.07876611
0003b0 0d 0d df bd 88 1c 06 be d8 fe 44 3d c4 77 ca bd
       -0.10891161 -0.13096821 0.0480946 -0.09886125
0003c0 09 55 ba 3d 1a 50 b6 3d ca 60 ee bd c8 3e ec 3d
       0.090982504 0.08901997 -0.11639555 0.11535412
0003d0 56 52 1e be 54 8d fc 3d 15 af a1 3d d0 60 4a 3d
       -0.15461096 0.12331644 0.07894722 0.049408734
0003e0 b8 e5 8e 3c 6e 78 e6 bd 77 4e d9 3d 12 9f c5 bd
       0.017443523 -0.11253439 0.10610669 -0.09649481
0003f0 94 4a 8e 3d af e6 9f 3c a6 1d 8e 3c 10 ae 4c bd
       0.069478184 0.019519178 0.017348122 -0.049970686

fc2.bias f4 [64]
000000 b2 84 cf bb 91 ff a2 bd 4d fb 18 bd 48 f9 6e bd
       -0.006332957 -0.07958902 -0.037349034 -0.058343202
000010 ef cc 95 bd 7a 6f c8 bc 3a 3e 78 3d 60 69 82 bd
       -0.073144786 -0.024467219 0.06060622 -0.06367755
000020 cb 47 c8 3d f8 c0 45 3c 11 2f 13 3d 6d a4 9f 3c
       0.097793184 0.012069933 0.035933558 0.019487584
000030 e9 c8 8d bd 32 6d 9f bd 2a 8b 86 bd 15 5e a4 bd
       -0.06923086 -0.07784499 -0.06569512 -0.08025757
000040 d8 fa 4d bd d0 c6 03 3d ff d4 a2 bd 74 e6 db bb
       -0.05028805 0.032172024 -0.07950782 -0.0067108218
000050 c9 bf 16 3d 60 15 88 3c d4 1a 29 bd db 52 a1 bd
       0.036803994 0.016611755 -0.04128535 -0.078771316
000060 a8 6f 8c 3d 46 5b ca bc 37 1c b8 bd a7 f0 91 3d
       0.06857234 -0.024701726 -0.089897566 0.07125979
000070 0f fd c9 bc 42 e0 8e bd f7 3b 23 bd 67 86 22 3c
       -0.0246568 -0.069763675 -0.03985211 0.009919739
000080 f6 d1 5a 3d 0e 18 26 3b aa dc 3f bc 36 b8 49 3d
       0.05342289 0.0025343928 -0.011710325 0.049247943
000090 14 8e cb 3d ff 1a d3 3b 48 09 a1 bd 84 01 69 bd
       0.099392086 0.006442427 -0.078630984 -0.05688621
0000a0 62 8e 6e 3c 36 74 67 3d c7 02 8e 3d 60 91 29 3d
       0.014560314 0.05650731 0.069341235 0.041398406
0000b0 60 c6 9d 3c 57 23 68 bd 8e b7 f5 bd 56 9d b8 3d
       0.019259632 -0.056674328 -0.11997901 0.090143844
0000c0 5a 9b b9 3d 4f ca 28 bd 50 30 fb 3d ed fd a6 bd
       0.09062834 -0.04120856 0.12265074 -0.08153901
0000d0 37 d6 ec 3c 66 66 60 3d 5d 6f d0 3d 05 63 94 3d
       0.02891074 0.054785155 0.10177491 0.07245449
0000e0 25 65 fc 3c 54 15 00 be 7b 4d df 3c 08 43 74 3d
       0.030809948 -0.12508136 0.027258625 0.05963424
0000f0 67 06 54 3d d0 3c b9 3d 8f 4e 3a bd 82 6e f1 b9
       0.05176392 0.09044802 -0.045485076 -0.00046049437

fc3.weight f4 [1, 64]
000000 3b 08 c7 bd 64 bf 8e bd 06 c7 88 3d fe 85 6b 3d
       -0.09718367 -0.069700986 0.06678586 0.05750083
000010 63 90 2b 3d d9 90 1a 3b 20 53 85 bd 19 e0 d2 3d
       0.041885745 0.002358487 -0.065099955 0.102966495
000020 9b c2 9e 3d 60 71 b6 3d 4d 51 88 bd ba e3 d5 3d
       0.07751962 0.08908343 -0.06656132 0.10443826
000030 be d6 53 3d 11 e9 85 3c d3 ba 22 3d b1 1f d9 bd
       0.051718466 0.016346486 0.03972895 -0.10601748
000040 fb e4 d5 3d f3 69 26 3d ef bf ee 3d 4c 53 b8 bd
       0.10444065 0.040628385 0.11657702 -0.090002626
000050 58 8e 33 bd 8c 85 c5 bd 07 71 a0 bd 7b 8c 93 3d
       -0.04383692 -0.09644613 -0.07834058 0.07204529
000060 17 76 f2 3c dd 9f a8 bc d3 77 3f 3d ab 55 b4 3d
       0.029597325 -0.020584041 0.046745133 0.08805402
000070 07 4a d1 3d e5 86 db 3d b0 1f 95 bd 96 70 bc bd
       0.10219198 0.107190885 -0.072814345 -0.092011616
000080 f6 78 95 3d b0 48 8d bd 75 d8 1d bd 28 05 9b bd
       0.07298462 -0.0689863 -0.038536508 -0.07569343
000090 f7 7c 05 3d bc 22 ce bc 44 b8 9b bd b8 6b e6 3d
       0.03258988 -0.025163047 -0.07603505 0.112510145
0000a0 05 cc c1 bd 97 c6 a9 3d 26 88 0f bd 94 09 79 3d
       -0.09462742 0.08289831 -0.03504195 0.06080015
0000b0 81 e3 fb 3d cb f4 97 3d 25 37 a3 bd f8 bc d2 38
       0.12299252 0.074197374 -0.07969502 0.000100487785
0000c0 fc 6a d7 bd 3e 47 d3 3d eb 6a 1e bd d6 b6 be bd
       -0.105184525 0.10316323 -0.038676184 -0.09312217
0000d0 01 8c fe bc 45 31 c2 3d 5a 71 cb bc db eb 8e 3d
       -0.031072618 0.09482054 -0.024834324 0.069785796
0000e0 0b ed 96 3d f0 36 b8 3d 75 ac 85 bc 2f 1c cb 3d
       0.07369431 0.089948535 -0.016317585 0.09917485
0000f0 ba f6 35 bd 5d 1f ab bd 05 e8 91 bd 6f 97 af bc
       -0.04442475 -0.083555914 -0.07124332 -0.021434514
