src/models/saved_models/dl_fcn_model.pth (torch, 4984 bytes, 3 tensors)

fc1.weight f4 [64, 9]
0.27611852 0.31284195 -0.047884453 0.334734 -0.04280571 0.09787114 -0.13036327 0.22846064
0.32357833 -0.26103973 0.25892457 0.03737511 0.22255485 0.019764844 0.13487822 -0.07415399
0.22897454 0.024118213 -0.14188184 0.11338226 -0.13098626 -0.01728877 -0.111570805 0.24569668
-0.2370835 -0.12646168 -0.069568224 -0.18324538 0.057476662 -0.30509782 0.32454872 -0.2607906
0.27759042 0.07555287 -0.08337858 0.22618769 0.03495911 0.23849106 0.011107848 -0.12902835
0.064105794 -0.11623907 0.113256365 0.2696332 0.16747679 -0.1600163 0.16281728 0.035817876
0.146123 -0.22879948 -0.35644433 -0.15696023 -0.28496465 0.2466188 0.11034912 0.1689279
0.13011034 0.018328471 0.28761294 -0.20891234 0.05062777 -0.19642474 0.13089153 -0.12808263
0.07441656 -0.091361724 0.25555125 -0.22037548 -0.22230501 -0.22375144 0.2738701 0.08775982
0.30944383 -0.2972622 -0.3554443 -0.2902454 -0.25958917 0.09825907 0.0811771 0.2394108
-0.21554273 -0.25012323 0.14551936 -0.16559356 0.17049009 -0.113007106 0.15620828 -0.2947535
-0.20417047 0.06513061 0.08439256 -0.05587668 0.22197239 0.24923638 -0.21702158 -0.15249237
0.33229294 -0.084296875 -0.09270508 -0.34920838 -0.22488546 0.048827894 -0.07848746 -0.27840397
-0.029165573 -0.2648163 -0.32064793 -0.22189282 -0.2916223 -0.20625275 0.33557758 0.07041065
0.1177666 -0.29112792 -0.19571865 -0.08528073 0.07570023 -0.25477067 -0.108209 -0.16665472
0.022303002 -0.122941166 -0.03965916 -0.25273937 -0.26504862 -0.23285286 -0.09940347 -0.23266217
0.3042957 -0.041728668 0.31381333 0.1318008 -0.2526057 0.2615411 -0.06326269 -0.10845617
-0.25006768 -0.30453756 0.12341584 -0.04248685 0.160503 -0.2417639 0.27921528 -0.2115992
-0.06980001 0.043700557 0.15166108 0.24939959 0.28193173 -0.28672084 0.059863724 -0.16835259
-0.059123497 -0.26305658 0.27642286 -0.26589653 0.15795413 0.09510806 0.0856498 -0.20433709
0.2778988 0.05088435 0.026639132 -0.32683554 0.112510055 -0.07664967 -0.18203864 0.25614858
0.04248217 -0.21754494 -0.19932002 -0.0018896464 0.21503189 -0.062128577 -0.16795552 -0.08977026
-0.2239251 0.14550035 0.28573528 -0.28870893 0.061359398 0.14462408 0.039027516 -0.13843355
0.15268604 0.15369564 0.102608934 -0.08037221 -0.10732498 0.05151844 -0.026576327 -0.07358357
0.23797141 0.31374672 -0.0048990515 -0.04494791 0.03592918 0.008146512 0.06397328 0.06231297
-0.32766 -0.14641118 0.2554029 0.104224674 -0.04338651 -0.22881526 -0.22891003 -0.27183542
-0.07380503 0.14677836 0.24732475 0.19091804 -0.25662425 -0.16212425 -0.013368435 0.36124894
0.060485773 -0.059805404 0.15865487 -0.10693236 -0.19382755 0.2659162 -0.12748604 -0.041540176
-0.30900225 0.2435269 0.2906008 0.15460046 -0.19981712 -0.29337856 -0.23407897 0.28670588
0.19950786 0.317869 0.18744668 0.11190809 0.018252494 -0.23270409 -0.2627817 -0.28824484
0.16149598 -0.13730165 -0.04358185 -0.219908 -0.10732752 -0.27665415 -0.2592986 0.065794505
-0.1447073 0.15890884 -0.15488954 -0.29102293 -0.031772133 -0.12612423 -0.06635816 -0.28371143
00000000: 685f 8d3e d22c a03e 7d22 44bd 4162 ab3e
00000010: 0a55 2fbd aa70 c83d f37d 05be 96f1 693e
00000020: 0fac a53e 00a7 85be c391 843e a516 193d
00000030: 6be5 633e e2e9 a13c 841d 0a3e 0cde 97bd
00000040: 4d78 6a3e 8f93 c53c 7949 11be f534 e83d
00000050: 4321 06be 2ea1 8dbc 3c7f e4bd e997 7b3e
00000060: 04c6 72be 2c7f 01be c979 8ebd ada4 3bbe
00000070: a66c 6b3d c835 9cbe 402b a63e 5886 85be
00000080: 5520 8e3e 77bb 9a3d 64c2 aabd bf9d 673e
00000090: 4931 0f3d 0037 743e b1fd 353c 0220 04be
000000a0: e649 833d c00e eebd f4f2 e73d 5d0d 8a3e
000000b0: 097f 2b3e 50db 23be 93b9 263e c4b5 123d
000000c0: 45a1 153e 694a 6abe df7f b6be 2fba 20be
000000d0: e3e6 91be a489 7c3e b8fe e13d 6ffb 2c3e
000000e0: a53b 053e 9725 963c 0142 933e 1eed 55be
000000f0: 115f 4f3d 9123 49be 6e08 063e 1828 03be
00000100: b667 983d db1b bbbd 9dd7 823e 1caa 61be
00000110: eda3 63be 191f 65be b438 8c3e 6cbb b33d
00000120: 6c6f 9e3e c032 98be ccfc b5be 0c9b 94be
00000130: dfe8 84be 0d3c c93d 2e40 a63d 1b28 753e
00000140: 3cb7 5cbe 2710 80be 0703 153e 5c91 29be
00000150: f494 2e3e 4570 e7bd 10f5 1f3e eee9 96be
00000160: 1012 51be 3263 853d 02d6 ac3d f2de 64bd
00000170: bb4c 633e d237 7f3e e83a 5ebe f626 1cbe
00000180: 4d22 aa3e d7a3 acbd 29dc bdbd 71cb b2be
00000190: 6048 66be c2ff 473d 09be a0bd f78a 8ebe
000001a0: a4ec eebc 0196 87be f72b a4be df37 63be
000001b0: 854f 95be ec33 53be d3d0 ab3e 7533 903d
000001c0: 9d2f f13d b80e 95be 786a 48be aaa7 aebd
000001d0: b908 9b3d 4d71 82be ae9c ddbd 89a7 2abe
000001e0: c9b4 b63c 94c8 fbbd a571 22bd 0e67 81be
000001f0: 74b4 87be fb70 6ebe 0c94 cbbd fe3e 6ebe
00000200: a5cc 9b3e aeeb 2abd 24ac a03e caf6 063e
00000210: 8955 81be b7e8 853e df8f 81bd 451e debd
00000220: df08 80be 59ec 9bbe 72c1 fc3d b106 2ebd
00000230: e65a 243e f590 77be 4ef5 8e3e 76ad 58be
00000240: 4ff3 8ebd 5bff 323d 0b4d 1b3e 9b62 7f3e
00000250: 5b59 903e 13cd 92be aa33 753d 9f64 2cbe
00000260: 7b2b 72bd 5aaf 86be 4c87 8d3e 9723 88be
00000270: babe 213e 04c8 c23d 2a69 af3d be3d 51be
00000280: c048 8e3e 1c6c 503d 4f3a da3c fd56 a7be
00000290: ac6b e63d 81fa 9cbd 5668 3abe e825 833e
000002a0: c901 2e3d 1ac4 5ebe 8c1a 4cbe 03ae f7ba
000002b0: 5231 5c3e 897a 7ebd 88fc 2bbe 78d9 b7bd
000002c0: 9f4c 65be 0bfe 143e e54b 923e a8d1 93be
000002d0: fe53 7b3d 5618 143e 51db 1f3d 86c1 0dbe
000002e0: bb59 1c3e 6462 1d3e a224 d23d 2f9a a4bd
000002f0: 33cd dbbd 0005 533d 99b6 d9bc fcb2 96bd
00000300: c7ae 733e 69a3 a03e 3988 a0bb 4d1b 38bd
00000310: 7a2a 133d f378 053c 6c04 833d e33b 7f3d
00000320: 0dc3 a7be d0ec 15be 2bc4 823e bf73 d53d
00000330: 0eb6 31bd 8c4e 6abe 6467 6abe 032e 8bbe
00000340: 1727 97bd 114d 163e b342 7d3e 0580 433e
00000350: 4164 83be e603 26be 4807 5bbc 9ff5 b83e
00000360: eebf 773d 83f6 74bd 6c76 223e 5aff dabd
00000370: bb7a 46be 2b26 883e b38b 02be 0826 2abd
00000380: 8b35 9ebe 1e5f 793e a1c9 943e 954f 1e3e
00000390: dc9c 4cbe b735 96be 66b2 6fbe 1dcb 923e
000003a0: ca4b 4c3e babf a23e 06f2 3f3e 1230 e53d
000003b0: 4186 953c fb49 6ebe 538b 86be d494 93be
000003c0: 345f 253e ce98 0cbe e282 32bd 902f 61be
000003d0: 88ce dbbd 9da5 8dbe c9c2 84be 45bf 863d
000003e0: 272e 14be 00b9 223e 5d9b 1ebe f500 95be
000003f0: 7f23 02bd b626 01be c9e6 87bd a042 91be

fc1.bias f4 [64]
-0.057526886 0.1552715 -0.16305362 -0.14852656 0.17999119 -0.28534833 0.034193773 0.2877128
0.09285337 0.09375673 -0.19283094 -0.002199796 -0.001127619 0.11934061 0.12203821 0.26589298
-0.25329584 0.0070522157 -0.16387048 -0.2616959 -0.052909523 -0.29206607 0.20749491 0.0276257
-0.18008387 0.1680407 -0.31512293 -0.12643148 -0.026037648 -0.27854046 -0.21466643 -0.054898873
0.22333641 0.30448598 0.19375195 -0.16929902 -0.214808 0.27936673 0.13378337 0.010729449
0.01603647 -0.26831448 -0.12074008 0.30595666 -0.08145614 0.01672904 -0.27009857 -0.18412425
-0.008879056 -0.21553536 -0.0067070704 0.10788313 -0.3188711 0.0670867 -0.1947482 -0.15167376
0.11016284 0.23880416 -0.11014215 -0.12847131 -0.2734937 -0.16899876 -0.28742394 -0.07366303
00000000: 50a1 6bbd 7eff 1e3e 87f7 26be 5917 18be
00000010: 9c4f 383e 2d19 92be c50e 0c3d 184f 933e
00000020: e829 be3d 8703 c03d 7975 45be 742a 10bb
00000030: 9dcc 93ba da68 f43d 2bef f93d 2023 883e
00000040: feaf 81be 4616 e73b aacd 27be 01fd 85be
00000050: a8b7 58bd af89 95be 8c79 543e 4b4f e23c
00000060: e867 38be dc12 2c3e cb57 a1be 4177 01be
00000070: e84c d5bc db9c 8ebe 84d1 5bbe a4dd 60bd
00000080: 4db2 643e 96e5 9b3e e966 463e b95c 2dbe
00000090: a1f6 5bbe 2809 8f3e 82fe 083e 92ca 2f3c
000000a0: ea5e 833c 8460 89be 9346 f7bd 5aa6 9c3e
000000b0: 7ad2 a6bd 570b 893c 5c4a 8abe 118b 3cbe
000000c0: 7679 11bc 4db5 5cbe fcc6 dbbb d5f1 dc3d
000000d0: 1343 a3be c064 893d 126c 47be 5e50 1bbe
000000e0: 0e9d e13d 1489 743e 3592 e1bd fc8d 03be
000000f0: 5e07 8cbe 030e 2dbe 3b29 93be a5dc 96bd

fc2.weight f4 [1, 64]
0.05027794 -0.08870863 0.09291923 0.10043026 -0.093802735 -0.06949879 0.05403847 -0.018749006
-0.05107438 -0.08378488 0.10041188 -0.10525243 0.07862328 -0.031463046 0.03514689 0.06482045
-0.013287677 -0.04327493 -0.036234267 0.091883115 -0.075365596 0.042757455 -0.11107755 0.09241793
0.029538006 0.020753434 0.03895111 -0.020590782 0.1025736 -0.10261573 -0.011034108 0.034849606
0.087145485 0.03563865 -0.0665609 0.12791678 -0.045436498 -0.03986533 -0.14272791 0.0017189827
0.06034702 0.020785227 -0.06305976 0.03140452 -0.046274323 0.1404031 -0.12504736 -0.04111176
-0.14471142 -0.03135789 0.06282734 0.08448299 0.035134293 0.087562814 0.03887751 0.096170396
0.0692055 0.083221324 -0.048944317 0.12848745 0.103479944 -0.06209892 -0.073101185 -0.12628713
00000000: 3ef0 4d3d dfac b5bd 704c be3d 61ae cd3d
00000010: a61b c0bd 6255 8ebd 7157 5d3d 8497 99bc
00000020: 5e33 51bd 6897 abbd bea4 cd3d 968e d7bd
00000030: 3e05 a13d 65df 00bd 2ff6 0f3d 96c0 843d
00000040: 8fb4 59bc 0e41 31bd 626a 14bd 372d bc3d
00000050: 4759 9abd 7122 2f3d a07c e3bd 9d45 bd3d
00000060: b0f9 f13c 1b03 aa3c 338b 1f3d 00ae a8bc
00000070: 1c12 d23d 3228 d2bd 67c8 34bc 76be 0e3d
00000080: 5579 b23d d5f9 113d 1551 88bd 9efc 023e
00000090: 9f1b 3abd d449 23bd 4427 12be 7d4f e13a
000000a0: 702e 773d c845 aa3c 7a25 81bd 07a2 003d
000000b0: 258a 3dbd d5c5 0f3e 6a0c 00be ce64 28bd
000000c0: 3b2f 14be 2271 00bd 9fab 803d 6b05 ad3d
000000d0: fae8 0f3d 2254 b33d 063e 1f3d fcf4 c43d
000000e0: 9dbb 8d3d f16f aa3d d679 48bd 3792 033e
000000f0: 4bed d33d 705b 7ebd 13b6 95bd 6a51 01be
