src/models/saved_models/dl_gru_model.pth (torch, 19258 bytes, 5 tensors)

lstm.weight_ih_l0 f4 [96, 9]
9.556001e-05 3.0755604e-05 -0.00021524228 0.0008649474 -0.0006816457 0.00041974097 8.086788e-05 -0.0006455869
0.0011599076 0.0005711679 0.00053898984 0.0012322514 -0.0017465574 0.0021484122 -0.0008906674 0.0004444732
0.0012586658 -0.004954249 0.0011418683 0.0009555509 0.0022963397 -0.002608309 0.0040920814 -0.0010050444
0.001539744 0.0026459764 -0.007552496 0.00077871745 0.0008148257 0.0013424035 -0.00058015494 0.002097524
-0.0001872545 0.0007082295 0.0017596369 -0.0024211088 0.00033989898 0.00022825581 0.0004598776 -0.00020470131
0.0005334049 -7.6082724e-05 0.00012187027 0.00012673337 -0.001015158 0.0014486411 0.0010274901 -0.00091865903
0.0060553164 -0.0036500301 0.0028334477 -0.00064958056 -0.004225659 0.009861833 0.0004261966 0.0018072592
0.0010637351 0.007114807 -0.0021442662 0.0038256273 -2.1582888e-05 0.00017645503 0.014121413 0.0004846824
0.00040473044 0.0008486289 -0.0008752818 0.0014498043 -0.00045882355 0.00033805595 0.0009981717 -0.0024035596
0.0007848583 0.0006919284 0.00048492677 0.0013081698 0.00017640606 0.00048775066 0.0006209675 0.00033841442
0.0009782364 0.000189769 2.9681032e-05 0.00016553885 8.817174e-06 0.00023137966 7.849009e-05 -1.1658164e-05
-4.9022517e-05 -7.95708e-05 0.0003135723 0.00022526567 0.00050612324 -0.0003933624 0.0006591308 -0.00015470643
0.00014362887 9.3078415e-05 -0.001585612 0.00088590506 0.0006559384 -0.0003575941 0.003266668 -0.0017631996
0.0018591455 0.00012507646 -0.0017469989 0.0050582276 0.00019242096 0.00019194001 6.119724e-05 0.0007476665
-0.0001863936 0.00031830772 0.00027524357 -4.2578216e-05 0.0008319582 0.0011253629 0.0010303312 0.00048998365
0.0028831651 -0.00059731497 0.0014550617 0.00056000846 -0.00028728214 0.004303699 0.0002613408 0.00019795574
0.000527296 -0.00077607593 0.0010580928 -0.000401686 0.00019027998 0.0008560567 -0.0017689891 -0.00015301286
7.388706e-06 -0.00019233843 0.00015117074 -0.00020300676 4.8734684e-05 4.4448363e-05 6.299287e-05 0.0004079105
0.0032632842 0.0064445697 0.0057778805 0.014868752 0.0009823635 0.009248069 0.0030363295 0.0044856165
0.027544485 0.0005998014 0.0003709891 0.0005456742 -0.00029737563 0.0008761543 -0.00013866954 0.0002870755
0.00021668976 -0.002043436 -1.6916274e-05 7.492234e-05 -1.7474604e-05 0.00026333597 -4.4441593e-05 2.7029118e-05
0.00016389946 0.00015892828 0.00016593648 0.0006104281 0.00085666147 5.0452054e-05 0.0037821908 -0.0016829782
0.0021775914 0.00016739841 -0.00087432476 0.0077232462 0.0033858398 0.0030599793 0.003033741 0.003996007
0.0026306096 0.0022135836 0.00261797 0.002463467 0.0020847316 0.00035677824 0.00035015322 0.00065084785
-0.0007883781 0.0010645585 -0.00039896384 0.00015899647 0.00063728984 -0.002074711 0.0017158412 0.0014440573
0.00020933473 0.0053139306 -0.0014849153 0.0032144713 0.0009005319 -0.0015521535 0.0074518383 -6.604775e-05
7.146667e-05 -0.00011617534 9.983102e-05 -0.00015677232 -1.9516967e-05 1.0457558e-05 5.2824438e-05 9.6647615e-05
0.00036697357 0.00058414135 0.001966761 -0.002709641 0.0036409954 -0.0011669477 0.0012834477 0.0032326807
-0.0057588834 0.00022138633 0.0003908398 0.00025003141 0.00061929895 0.00018125544 0.0003103634 0.00037293896
0.0003438789 0.00028219135 0.00017516897 3.082904e-05 0.00026783047 2.6217178e-05 0.0002723451 6.645952e-05
9.519747e-05 3.365707e-05 -0.00020114254 0.00044069564 0.0003224517 0.00049666665 -0.00035984573 0.0007584939
-0.00019537195 0.00015223895 0.00034208124 -0.0014435464 0.0007248837 0.0008965356 0.0008721914 0.0012332457
00000000: 6467 c838 94ff 0038 a9b2 61b9 a3bd 623a
00000010: 78b0 32ba ae10 dc39 9d97 a938 9a3c 29ba
00000020: 0a08 983a 6eba 153a ff4a 0d3a 7f83 a13a
00000030: beec e4ba 60cc 0c3b ad7b 69ba 2f08 e939
00000040: d1f9 a43a 4157 a2bb beaa 953a ef7d 7a3a
00000050: 307e 163b 2af0 2abb de16 863b b2bb 83ba
00000060: 3cd1 c93a 1e68 2d3b ee7a f7bb d822 4c3a
00000070: 079a 553a 96f3 af3a 8a15 18ba 9d76 093b
00000080: bf59 44b9 7aa8 393a 9ea3 e63a 77ab 1ebb
00000090: 7834 b239 f457 6f39 ba1b f139 17a5 56b9
000000a0: 32d4 0b3a 9a8e 9fb8 9a94 ff38 bbe3 0439
000000b0: 0d0f 85ba 54e0 bd3a d9ac 863a 2ad2 70ba
000000c0: ad6b c63b 5835 6fbb 5db1 393b 9d48 2aba
000000d0: 6677 8abb 8793 213c 2473 df39 8ee1 ec3a
000000e0: 076d 8b3a 5423 e93b d186 0cbb 60b7 7a3b
000000f0: e60c b5b7 c906 3939 805d 673c f81c fe39
00000100: 0032 d439 8576 5e3a 2b73 65ba 5c07 be3a
00000110: 418e f0b9 1a3d b139 16d5 823a 0a85 1dbb
00000120: f3be 4d3a 8762 353a c53d fe39 e576 ab3a
00000130: a4f9 3839 c9b8 ff39 6cc8 223a 376d b139
00000140: 2b38 803a bafc 4639 88fb f837 7f94 2d39
00000150: 79ed 1337 819e 7239 0c9b a438 6f97 43b7
00000160: 879d 4db8 3fdf a6b8 f666 a439 4b35 6c39
00000170: 5bad 043a 353c ceb9 85c9 2c3a b138 22b9
00000180: 159b 1639 1833 c338 4fd4 cfba 153c 683a
00000190: 48f3 2b3a 787b bbb9 9815 563b 291b e7ba
000001a0: 92ae f33a f526 0339 8efb e4ba 7dbf a53b
000001b0: 9cc4 4939 8143 4939 0557 8038 0dff 433a
000001c0: a772 43b9 8ae2 a639 914e 9039 0396 32b8
000001d0: c517 5a3a ea80 933a 2e0c 873a 3f72 003a
000001e0: 7cf3 3c3b 2195 1cba c5b7 be3a 88cd 123a
000001f0: 5b9e 96b9 0b06 8d3b 9204 8939 5792 4f39
00000200: 3c3a 0a3a 9371 4bba b4af 8a3a 6299 d2b9
00000210: e585 4739 fe68 603a 6ddd e7ba 1472 20b9
00000220: 80ec f736 74ae 49b9 9683 1e39 36de 54b9
00000230: 7868 4c38 116e 3a38 0a1b 8438 d2dc d539
00000240: d3dc 553b f82c d33b 6054 bd3b 119c 733c
00000250: a6c2 803a 3685 173c 28fd 463b 14fc 923b
00000260: f9a4 e13c fe3b 1d3a 5081 c239 930b 0f3a
00000270: 15e9 9bb9 b8ad 653a d267 11b9 9f82 9639
00000280: 3737 6339 2beb 05bb 6ce7 8db7 a01f 9d38
00000290: 6d96 92b7 5b10 8a39 cc66 3ab8 97bc e237
000002a0: 6ddc 2b39 fca5 2639 3cff 2d39 2305 203a
000002b0: 9491 603a 7b9c 5338 a2de 773b 6197 dcba
000002c0: ecb5 0e3b ab87 2f39 f132 65ba 4913 fd3b
000002d0: f7e4 5d3b ef89 483b bad1 463b f0f0 823b
000002e0: 4e66 2c3b c511 113b 4092 2b3b 1e72 213b
000002f0: fe9f 083b f70d bb39 c594 b739 a99d 2a3a
00000300: 29ab 4eba a888 8b3a 052c d1b9 4ab8 2639
00000310: cc0f 273a e0f7 07bb 14e6 e03a 8646 bd3a
00000320: dd80 5b39 7b20 ae3b 7da1 c2ba e1a9 523b
00000330: ac11 6c3a a171 cbba 8d2e f43b 1e83 8ab8
00000340: 60e0 9538 29a3 f3b8 5f5c d138 4063 24b9
00000350: 5eb8 a3b7 df72 2f37 cf8f 5d38 4baf ca38
00000360: 5c66 c039 1021 193a c6e4 003b 3b94 31bb
00000370: c49d 6e3b 44f4 98ba 5c39 a83a 62db 533b
00000380: 04b5 bcbb f123 6839 a1e9 cc39 a616 8339
00000390: 7358 223a 630f 3e39 45b8 a239 0587 c339
000003a0: a54a b439 15f3 9339 90ad 3739 6e4e 0138
000003b0: 996b 8c39 f6ec db37 8ac9 8e39 2f60 8b38
000003c0: c1a4 c738 012b 0d38 cae9 52b9 2b0d e739
000003d0: bc0e a939 bc32 023a ada9 bcb9 aad5 463a
000003e0: c2dc 4cb9 55a2 1f39 5e59 b339 6135 bdba
000003f0: 1f06 3e3a 7c05 6b3a c6a3 643a dca4 a13a

lstm.weight_hh_l0 f4 [96, 32]
0.00056718074 0.0007477952 0.0006198382 0.0008744097 -0.0005855718 -0.00077347615 0.0008366573 0.0005031047
0.0010092704 -0.00044719188 -0.00039514666 0.0004584768 -0.00067211414 0.00086480164 -0.00019842872 -2.6534562e-06
0.0018175998 0.0002704983 4.3071523e-05 -0.00019678393 0.00096049963 0.00085134426 -0.0010078308 0.00034581666
0.00014906048 0.0007775829 -0.00011743687 0.00064405735 0.00018223323 0.0005234499 -0.0005326947 -0.00043011643
0.000791232 -0.0008837126 -0.0030730444 -0.00077825255 -0.00085522304 0.0021931313 -0.0040549887 -0.0009974411
-0.0010893289 -0.0021549133 -0.00081312755 -0.0010572318 -0.00031925683 -0.0026214004 0.0015832494 0.0010290259
-0.0063362364 -0.0034546829 0.0026610678 0.002426789 -0.004699212 0.00035417307 0.00083079404 -3.9912506e-05
-0.0023161895 0.00016664616 0.00085401634 -0.0009751488 -0.003068958 -0.0040501594 -4.007048e-05 0.0029262446
0.0016379381 -0.0012372963 -0.005347375 -0.0011629526 -0.0019406029 0.004144026 -0.0065580555 -0.0014675091
-0.0017663311 -0.004140291 -0.0018696672 -0.0016522583 -0.0008558296 -0.0050234487 0.003055583 0.0020441331
-0.010494727 -0.0063460614 0.0049459105 0.0039687715 -0.0076927166 0.0008944985 0.0011533798 0.00010686951
-0.004246243 0.00050065905 0.0013593227 -0.0014919507 -0.005544463 -0.0065299086 -0.00032234573 0.004449308
0.0014439473 -0.0003142879 -0.0031749785 -0.0005786132 -0.0018602617 0.0026005092 -0.0034428046 -0.000649641
-0.0009420743 -0.003189866 -0.0016402752 -0.0007930201 -0.0010007512 -0.0032027334 0.001963539 0.0013447781
-0.0057759145 -0.004063456 0.0033605206 0.0022426003 -0.004196368 0.0013529877 0.00023125288 0.00018589031
-0.0027038988 0.0007936552 0.0008360254 -0.00066385703 -0.003381021 -0.0037121037 -0.0005029743 0.002660137
0.00022098483 -0.00023611683 -0.0007707972 -3.776374e-05 -0.00016443247 0.000388273 -0.0012460287 -0.00029667004
-0.00013947765 -0.00048338887 -0.00014502309 -0.00030534287 -0.00012375534 -0.00044278015 0.0003635533 0.00024944273
-0.0016482265 -0.0008314679 0.0006843365 0.0007439889 -0.0013587868 9.274005e-05 0.00016679196 4.3487853e-06
-0.0006567838 9.183702e-05 0.00017137994 -0.00026271952 -0.00089866563 -0.0012587076 -2.9944991e-05 0.00088980724
0.0042347885 0.004400034 0.0016049268 0.0038079224 -0.005237448 -0.0017493651 0.003984546 0.002659895
0.004082481 -0.006647278 -0.0040555974 0.0022968221 -0.0045183925 0.0017892472 0.0002890813 0.00089466845
0.007106281 -0.00081332104 0.0024391415 -0.00047901153 0.0039613303 0.006188829 -0.005439837 0.0018942683
-0.0007168644 0.0049805627 -0.00031723862 0.0032820322 -0.00041987377 0.0006435543 -0.003375506 -0.00012353693
0.005989042 0.0051904893 -0.00013739167 0.003961727 -0.00782801 0.0004420768 0.003915155 0.0031495274
0.0039239596 -0.008196627 -0.0061970614 0.002364456 -0.006007116 -0.0012204411 0.0020759783 0.0021776508
0.0057244822 -0.0039679264 0.005073631 0.00035696273 0.0032445178 0.008535508 -0.006371348 0.0024545125
-0.002652464 0.006359359 0.00014719041 0.00361196 -0.0024784799 -1.7195598e-06 -0.004401571 0.00019616864
0.00080685166 -0.00045378885 -0.0023747454 -0.0006249242 -0.001034066 0.0019257286 -0.0026820092 -0.0006083809
-0.00089321396 -0.0019990446 -0.0009504284 -0.0006878453 -0.00048337728 -0.0023625593 0.0013762681 0.00090812263
-0.0044949194 -0.0028602295 0.0022774574 0.0016454427 -0.0032104752 0.00063340436 0.00044166233 3.178535e-05
-0.0019059513 0.00030270265 0.0006363118 -0.00064888434 -0.0023955188 -0.0027866163 -0.00017864982 0.002067702
00000000: dbae 143a b007 443a a37c 223a a438 653a
00000010: 0f81 19ba 1bc3 4aba 1f53 5b3a c9e2 033a
00000020: 7f49 843a 1475 eab9 b02b cfb9 b75f f039
00000030: d130 30ba dbb3 623a 4e11 50b9 0812 32b6
00000040: 873c ee3a abd1 8d39 b2a7 3438 c957 4eb9
00000050: 0aca 7b3a bf2c 5f3a 3119 84ba ba4e b539
00000060: 1e4d 1c39 b5d6 4b3a 7148 f6b8 f5d5 283a
00000070: dc15 3f39 2138 093a 89a4 0bba 4081 e1b9
00000080: ae6a 4f3a f3a8 67ba 2165 49bb a503 4cba
00000090: 0c31 60ba a3ba 0f3b b6df 84bb 92bc 82ba
000000a0: d0c7 8eba 7239 0dbb 1128 55ba d092 8aba
000000b0: ed61 a7b9 cdcb 2bbb 0985 cf3a 61e0 863a
000000c0: 34a0 cfbb f667 62bb 4f65 2e3b c30a 1f3b
000000d0: d9fb 99bb 4eb0 b939 a5c9 593a ba67 27b8
000000e0: 36cb 17bb bdbd 2e39 11e0 5f3a 21a1 7fba
000000f0: 9220 49bb 33b7 84bb 5a11 28b8 3dc6 3f3b
00000100: 15b0 d63a c62c a2ba 0839 afbb 376e 98ba
00000110: d45b feba 9cca 873b f5e4 d6bb 6f59 c0ba
00000120: 3d84 e7ba 47ab 87bb 9f0f f5ba 9790 d8ba
00000130: c159 60ba be9b a4bb 2d40 483b ddf6 053b
00000140: 13f2 2bbc 9ff2 cfbb 4e11 a23b 780c 823b
00000150: 2f13 fcbb c77c 6a3a 012d 973a 221f e038
00000160: 1124 8bbb a93e 033a 4d2b b23a 8f8d c3ba
00000170: 54ae b5bb d8f8 d5bb 8300 a9b9 80cb 913b
00000180: d542 bd3a 02c7 a4b9 4d13 50bb 13ae 17ba
00000190: 06d4 f3ba 4e6d 2a3b ada0 61bb ab4c 2aba
000001a0: 89f5 76ba 120d 51bb 81fe d6ba aee2 4fba
000001b0: a32b 83ba f3e4 51bb b8ae 003b 4443 b03a
000001c0: e243 bdbb bd26 85bb 2e3c 5c3b 97f8 123b
000001d0: b081 89bb bc56 b13a 797c 7239 8deb 4239
000001e0: e533 31bb 4d0d 503a b728 5b3a b106 2eba
000001f0: 1f94 5dbb c446 73bb 09da 03ba b155 2e3b
00000200: 2ab8 6739 2196 77b9 530f 4aba 8264 1eb8
00000210: 816b 2cb9 1f91 cb39 c951 a3ba 618a 9bb9
00000220: bf40 12b9 5b6f fdb9 5711 18b9 6d16 a0b9
00000230: 52c4 01b9 f224 e8b9 4c9b be39 a3c7 8239
00000240: 4e09 d8ba def6 59ba 0c65 333a 4008 433a
00000250: 5219 b2ba 6f7d c238 e0e4 2e39 c8eb 9136
00000260: 042c 2cba a098 c038 74b4 3339 9ebd 89b9
00000270: 6e94 6bba 38fb a4ba 6132 fbb7 f441 693a
00000280: fbc3 8a3b 292e 903b 685c d23a 568e 793b
00000290: e69e abbb f44a e5ba cb90 823b a251 2e3b
000002a0: 55c6 853b 69d1 d9bb d1e4 84bb 4886 163b
000002b0: 060f 94bb 2c85 ea3a d68f 9739 2f88 6a3a
000002c0: cedb e83b 0d35 55ba 01da 1f3b d723 fbb9
000002d0: 0cce 813b a9cb ca3b a940 b2bb 1949 f83a
000002e0: f5eb 3bba fd33 a33b 0c53 a6b9 5d17 573b
000002f0: 8122 dcb9 33b4 283a 9837 5dbb b189 01b9
00000300: ba3f c43b fb14 aa3b cc10 10b9 60d1 813b
00000310: 0e41 00bc 8bc6 e739 b34a 803b 4d68 4e3b
00000320: 8f94 803b 254b 06bc b810 cbbb fdf4 1a3b
00000330: 57d7 c4bb 35f7 9fba 230d 083b ebb6 0e3b
00000340: 7094 bb3b 6105 82bb b440 a63b ba26 bb39
00000350: faa1 543b 84d8 0b3c bec6 d0bb e3db 203b
00000360: f6d4 2dbb 2b62 d03b 2057 1a39 a2b6 6c3b
00000370: fe6d 22bb a0cb e6b5 0e3b 90bb 9eb2 4d39
00000380: e682 533a 82ea edb9 9ea1 1bbb f4d1 23ba
00000390: 7f89 87ba bb68 fc3a a6c4 2fbb c07b 1fba
000003a0: 9326 6aba 6702 03bb 2c26 79ba 8450 34ba
000003b0: cd6d fdb9 2bd5 1abb e563 b43a 140f 6e3a
000003c0: 1e4a 93bb b072 3bbb 6541 153b e5ab d73a
000003d0: d666 52bb 0c0b 263a ea8e e739 4251 0538
000003e0: 1dd1 f9ba 10b4 9e39 29ce 263a e419 2aba
000003f0: 23fe 1cbb aa9f 36bb f253 3bb9 4882 073b

lstm.bias_ih_l0 f4 [96]
0.0017320117 0.01237169 0.03038004 0.014051092 0.0026822442 0.06739208 0.038704976 0.0064282543
0.018305128 0.0010168351 0.0023350404 0.039544452 0.006895519 0.024790443 0.011568235 0.00042294207
0.12227586 0.0073416294 0.0027934685 0.0281729 0.06801684 0.0068539707 0.029982815 0.0011356738
0.03176957 0.0056273043 0.0005698088 0.005781711 0.012787786 0.053457208 0.0042554266 0.02018566
-0.014812682 -0.067274645 -0.119383566 -0.067782275 -0.01845274 -0.10464075 -0.23224907 -0.04821721
-0.083890356 -0.0006167302 -0.012834299 -0.05035988 -0.023214335 -0.10954076 -0.023088684 -0.0025838462
-0.37342468 -0.056026515 -0.015775679 -0.098079436 -0.25139204 -0.042658687 -0.114577584 -0.0043502967
-0.04995535 -0.032429982 -0.004692692 -0.038837332 -0.06964751 -0.15925601 -0.017988313 -0.100553975
0.17710602 0.049555395 -0.078457154 0.026282942 -0.15110233 -0.0117007885 0.15862289 0.030907504
0.054241605 -0.14317277 -0.09875694 0.111280106 -0.1348185 -0.06293733 0.103685044 0.027940776
0.13927677 -0.12965241 0.10175427 -0.05819987 0.064879976 0.14641425 -0.17090686 0.05546739
-0.14055113 0.13627332 0.017596722 0.042708185 -0.049900938 0.0868431 -0.1009541 0.0040644235
00000000: ab04 e33a a1b2 4a3c 90df f83c 8d36 663c
00000010: 97c8 2f3b dc04 8a3d 1c89 1e3d 1ba4 d23b
00000020: a3f4 953c 5347 853a 7a07 193b 5df9 213d
00000030: cef3 e13b 5415 cb3c b288 3d3c 53be dd39
00000040: c46b fa3d 0d92 f03b a012 373b dbca e63c
00000050: 6a4c 8b3d 4697 e03b 859e f53c e4da 943a
00000060: cf20 023d 4065 b83b 395f 153a 8274 bd3b
00000070: dd83 513c f2f5 5a3d 1b71 8b3b 665c a53c
00000080: e4b0 72bc 4ac7 89bd 5f7f f4bd 6fd1 8abd
00000090: 332a 97bc e44d d6bd b3d2 6dbe 697f 45bd
000000a0: b5ce abbd 10ac 21ba f446 52bc 2946 4ebd
000000b0: fd2b bebc e856 e0bd 7b24 bdbc bf55 29bb
000000c0: 8531 bfbe 0f7c 65bd ff3b 81bc dfdd c8bd
000000d0: 75b6 80be e0ba 2ebd a7a7 eabd ef8c 8ebb
000000e0: fb9d 4cbd 4dd5 04bd 27c5 99bb e513 1fbd
000000f0: 5ba3 8ebd 0214 23be 3a5c 93bc 3eef cdbd
00000100: 485b 353e 99fa 4a3d 25ae a0bd 534f d73c
00000110: 92ba 1abe aab4 3fbc 0a6e 223e bc31 fd3c
00000120: 722c 5e3d e29b 12be 1441 cabd d3e6 e33d
00000130: dc0d 0abe 49e5 80bd d358 d43d 0ee4 e43c
00000140: 929e 0e3e 9ac3 04be 8b64 d03d fd62 6ebd
00000150: cbdf 843d 9eed 153e 3502 2fbe c631 633d
00000160: a3ec 0fbe 3c8b 0b3e 0027 903c c7ee 2e3d
00000170: ed64 4cbd ccda b13d 06c1 cebd db2e 853b

lstm.bias_hh_l0 f4 [96]
0.0039426195 0.009065992 0.011553705 0.020680774 0.002682244 0.011985899 0.038972665 0.00991527
0.01830513 0.0010168358 0.0023350406 0.030716715 0.0069452 0.02883323 0.0031717003 0.0004229422
0.11918423 0.0075162686 0.0027861018 0.033378903 0.067969345 0.006893497 0.0026990203 0.001135674
0.035330735 0.005627305 0.00056980876 0.005819415 0.012787789 0.052659426 0.0042554257 0.019336062
-0.014798986 -0.071056835 -0.11357805 -0.06802121 -0.01839058 -0.10414657 -0.18435717 -0.047801614
-0.083974175 -0.00061673013 -0.012834387 -0.05498239 -0.02344545 -0.11568209 -0.023250312 -0.0025838462
-0.30723873 -0.0594137 -0.015672836 -0.07883903 -0.15742238 -0.04300134 -0.111939155 -0.0043502967
-0.062526554 -0.032431137 -0.0046926923 -0.038697597 -0.08298959 -0.12566076 -0.017988548 -0.082244195
-0.09313657 0.13503593 0.14575404 0.13246231 -0.052655645 0.08927502 -0.0978764 0.08254974
-0.005061783 -0.07418803 -0.081503645 -0.13978611 0.016128095 -0.0421969 -0.083068036 0.04424335
0.006376945 0.056653433 -0.029462261 0.07311998 0.0788867 0.1061933 0.027649824 -0.01021865
0.15356757 0.0064235497 -0.030748513 0.063145146 -0.0035320888 -0.094644345 -0.000847907 -0.06410211
00000000: 1731 813b 8789 143c c04b 3d3c ba6a a93c
00000010: 96c8 2f3b 8160 443c cda1 1f3d a873 223c
00000020: a4f4 953c 5947 853a 7b07 193b 9fa1 fb3c
00000030: 8f94 e33b aa33 ec3c 4ddc 4f3b 57be dd39
00000040: dd16 f43d 084b f63b 0897 363b 51b8 083d
00000050: 8333 8b3d d8e2 e13b 0ce2 303b e5da 943a
00000060: f6b6 103d 4165 b83b 385f 153a cbb0 be3b
00000070: e083 513c 69b1 573d 1971 8b3b a966 9e3c
00000080: 7277 72bc 3f86 91bd 9c9b e8bd b44e 8bbd
00000090: d7a7 96bc cc4a d5bd 20c8 3cbe a0cb 43bd
000000a0: a7fa abbd 0fac 21ba 5247 52bc 3735 61bd
000000b0: ac10 c0bc bbea ecbd 7077 bebc bf55 29bb
000000c0: 654e 9dbe c85b 73bd 5264 80bc 5b76 a1bd
000000d0: 5533 21be 2c22 30bd 5b40 e5bd ef8c 8ebb
000000e0: ec0d 80bd 83d6 04bd 28c5 99bb 5f81 1ebd
000000f0: 72f6 a9bd 37ad 00be b85c 93bc a56f a8bd
00000100: 63be bebd dc46 0a3e 8c40 153e 33a4 073e
00000110: 72ad 57bd d2d5 b63d 6c73 c8bd d70f a93d
00000120: 50dd a5bb e5ef 97bd 62eb a6bd 1724 0fbe
00000130: 111f 843c a8d6 2cbd 931f aabd 8438 353d
00000140: b1f5 d03b 6e0d 683d d75a f1bc eebf 953d
00000150: 5a8f a13d df7b d93d e281 e23c 206c 27bc
00000160: d140 1d3e a47c d23b 4ee4 fbbc 3e52 813d
00000170: 9e7a 67bb e5d4 c1bd 1346 5eba f847 83bd

fc.weight f4 [1, 32]
-0.09765957 -0.13886443 -0.20293635 -0.1812357 0.053305443 0.23717503 -0.21610202 -0.15781708
-0.20209362 0.010047316 0.03994356 -0.18319924 0.119118474 -0.21911162 0.14932777 0.026899725
-0.29386523 -0.10667947 0.09193234 0.17160338 -0.2695052 -0.101971485 0.21792172 -0.04505967
-0.16891903 -0.106291346 0.02977105 -0.10551163 -0.15650898 -0.21066399 0.09010174 0.17279531
00000000: be01 c8bd 7a32 0ebe 8cce 4fbe da95 39be
00000010: cf56 5a3d 03de 723e d949 5dbe cd9a 21be
00000020: a1f1 4ebe 7f9d 243c dc9b 233d 9598 3bbe
00000030: 63f4 f33d cc5e 60be 61e9 183e d05c dc3c
00000040: 8175 96be c47a dabd 0647 bc3d ccb8 2f3e
00000050: 96fc 89be 6dd6 d0bd df26 5f3e 7d90 38bd
00000060: 1cf9 2cbe 47af d9bd 6be2 f33c 7b16 d8bd
00000070: e443 20be 4db8 57be 4387 b83d 41f1 303e
