src/models/saved_models/dl_gru_model.pth (torch, 39290 bytes, 5 tensors)

lstm.weight_ih_l0 f4 [150, 9]
000000 a6 79 f2 ad da 17 42 ad f6 4f 2e ae 83 82 a7 ad
       -2.7566237e-11 -1.1032919e-11 -3.963404e-11 -1.904366e-11
000010 76 de 25 ae fe 93 62 ae db 1c 84 ae 67 5e 0d ae
       -3.771424e-11 -5.1517894e-11 -6.007791e-11 -3.2143534e-11
000020 10 78 ef ae ce 48 ba 31 51 d8 96 31 76 9e 17 32
       -1.0889789e-10 5.4215894e-09 4.390167e-09 8.825387e-09
000030 6e 39 ee 31 df 24 12 32 0d 10 39 32 f9 8c 6f 32
       6.9332406e-09 8.506702e-09 1.0772067e-08 1.3943684e-08
000040 22 89 4a 32 53 59 b5 32 59 45 22 ad 41 7d a4 2d
       1.1789128e-08 2.1111793e-08 -9.224032e-12 1.8700265e-11
000050 9e 3f 70 2c cc 09 7d 2d 7b 25 8a ac 00 68 ae a8
       3.4141366e-12 1.438356e-11 -3.926357e-12 -1.9362983e-14
000060 74 8e 64 ad 10 2b 52 2d 21 8f a5 ad 65 7d 48 af
       -1.29919304e-11 1.194668e-11 -1.882189e-11 -1.8234443e-10
000070 1b 52 d8 ae be bb 8a af db 58 34 af 92 d5 87 af
       -9.8371276e-11 -2.5235453e-10 -1.6402472e-10 -2.4708108e-10
000080 69 2f ae af 0b 72 df af ff 63 98 af 83 f5 3f b0
       -3.1684103e-10 -4.0644496e-10 -2.771969e-10 -6.983429e-10
000090 8f 8a 0e 39 a3 15 e5 39 0e ba 29 39 13 db b5 39
       0.00013593792 0.00043694404 0.00016186407 0.00034686233
0000a0 cf 62 66 b8 f9 95 80 39 3f 3d 38 38 e2 85 04 38
       -5.4928296e-05 0.000245258 4.392606e-05 3.159594e-05
0000b0 f6 6c 10 3a 6c 4f 7d 39 88 4f a5 39 86 3a 86 39
       0.00055094005 0.00024157547 0.00031530508 0.00025602075
0000c0 b3 80 81 39 76 67 14 39 9b 58 61 39 a0 4f a9 38
       0.00024700686 0.00014152922 0.0002149068 8.073379e-05
0000d0 ab be b8 38 fe b2 c0 39 2e 17 6e 39 d6 e1 89 39
       8.8093184e-05 0.00036754453 0.00022706084 0.00026298937
0000e0 d5 d2 9a 39 c1 02 65 39 26 2e 80 39 25 08 81 39
       0.0002953025 0.00021840168 0.00024448446 0.00024610866
0000f0 fe 82 e9 38 b3 d6 e8 38 6b d0 b9 39 58 f4 cb 3b
       0.00011134705 0.00011102613 0.00035441233 0.0062241964
000100 1c 4f 0d 3c de 9a 09 3c ee 3b ee 3b 01 c0 06 3c
       0.008624818 0.00839874 0.007270328 0.008224488
000110 89 92 0f 3c f5 8c f7 3b 2e 1f e1 3b e1 7c e4 3b
       0.008762964 0.007554645 0.006870172 0.0069728945
000120 40 fd 99 b8 4a f4 c3 b8 bd 17 4b b9 47 c0 29 b9
       -7.34278e-05 -9.343827e-05 -0.00019368432 -0.00016188725
000130 94 d3 8d b9 8b 2c 98 b9 32 ee 5c b9 2f 90 4e b9
       -0.00027051254 -0.00029024886 -0.0002106957 -0.00019699403
000140 cb 9b e2 b9 08 16 db 36 f8 f6 5b 36 b3 10 50 37
       -0.00043222154 6.5292734e-06 3.2777298e-06 1.2401654e-05
000150 4a 2c f9 36 47 2e 6d 37 cc 03 93 37 21 c9 9d 37
       7.425934e-06 1.4137076e-05 1.7525534e-05 1.8809516e-05
000160 fb 0d 87 37 66 28 11 38 02 49 8a 2d 62 c4 4b 2d
       1.6099764e-05 3.4608318e-05 1.5721206e-11 1.158282e-11
000170 39 ac 11 2e 8d 73 e6 2d 36 46 f6 2d 71 a7 14 2e
       3.3122147e-11 2.6199288e-11 2.7998142e-11 3.3800022e-11
000180 90 c6 6d 2e 4e 94 5d 2e 9e 1f ba 2e c0 71 b8 38
       5.406392e-11 5.0381303e-11 8.463917e-11 8.794991e-05
000190 0a d2 69 b8 77 67 91 39 28 b7 c3 b8 87 1b 0f 3a
       -5.5747143e-05 0.00027733642 -9.33244e-05 0.0005459119
0001a0 e9 bc 26 39 e2 0c 88 39 5a b3 9d 39 ef a4 15 ba
       0.00015901368 0.0002594954 0.00030079 -0.0005708476
0001b0 15 5d 75 b9 f3 18 5d b9 d1 29 68 b9 b0 28 52 b9
       -0.00023399697 -0.00021085497 -0.00022140822 -0.00020042318
0001c0 12 64 4f b9 03 72 71 b9 33 42 ff b8 de a6 e5 b8
       -0.00019778337 -0.00023026024 -0.00012171678 -0.00010950652
0001d0 40 56 e3 b9 f3 b0 86 39 6e 76 54 39 b5 9f 77 39
       -0.00043361075 0.0002569031 0.00020262014 0.00023615251
0001e0 89 63 3c 38 c7 17 b1 38 9a c9 aa b7 3c c5 c5 b8
       4.4915392e-05 8.4444466e-05 -2.0359457e-05 -9.43043e-05
0001f0 9a 0b 10 b8 99 c4 94 b8 33 04 bc 3b f6 35 dd 3b
       -3.434308e-05 -7.093809e-05 0.0057378053 0.0067508174
000200 57 20 d8 3b b9 53 2e 3b 58 87 ec 3b da 7a 98 3b
       0.006595652 0.0026600196 0.0072182827 0.004653317
000210 4c d5 86 3b 2b d5 5b 3a 3b 86 f0 bb 8f 2b 35 2d
       0.0041147824 0.00083859515 -0.0073402203 1.0298331e-11
000220 c9 ef f2 2c 70 b8 6e 2d d4 b1 5e 2d e0 8b 75 2d
       6.904675e-12 1.3569687e-11 1.2658725e-11 1.3957696e-11
000230 1c bf 96 2d 5f cd d3 2d 75 56 b3 2d cd 26 22 2e
       1.7137895e-11 2.4079126e-11 2.0388339e-11 3.6868997e-11
000240 c3 9e e3 39 ae a2 a2 39 77 fd 4a 3a 9b 44 29 b9
       0.000434151 0.00031020254 0.00077434577 -0.00016142653
000250 a2 d3 a7 3a 1a e1 da 39 6e e7 fc 39 1f 05 25 3a
       0.001280416 0.00041747914 0.00048237614 0.00062950136
000260 e8 6f a3 ba 2b 32 39 30 f5 c4 13 30 74 9e 93 30
       -0.0012469264 6.73739e-10 5.375818e-10 1.0740693e-09
000270 28 c0 74 30 c2 13 8c 30 72 3b ab 30 1d 98 f5 30
       8.9039753e-10 1.0191956e-09 1.2458783e-09 1.7869329e-09
000280 ac a9 da 30 e4 24 3f 31 f9 72 38 39 b3 6e 3a 39
       1.5909811e-09 2.7815128e-09 0.00017590438 0.00017779581
000290 60 81 8f 39 93 54 23 39 7f c9 8e 39 7d 61 7b 39
       0.00027371477 0.00015576398 0.00027234477 0.00023973543
0002a0 a3 9c f3 38 fb 0b cf 38 2c b3 ad 39 47 4f f6 b6
       0.00011616319 9.872761e-05 0.00033130625 -7.3406004e-06
0002b0 9a a8 76 b6 c2 07 88 b8 51 a1 38 b8 4d b7 c3 b8
       -3.6754996e-06 -6.48643e-05 -4.4019256e-05 -9.332467e-05
0002c0 d5 52 f3 b8 ad cb ec b8 65 c2 ea b8 fe 89 5c b9
       -0.000116025716 -0.000112912945 -0.00011194198 -0.00021032241
0002d0 07 c5 05 b3 f5 d1 93 b2 0d da 90 b3 f9 2a 21 b3
       -3.114567e-08 -1.720853e-08 -6.745186e-08 -3.7524817e-08
0002e0 37 fd 84 b3 9f 4b b0 b3 71 a7 d3 b3 10 8f 9a b3
       -6.1927885e-08 -8.209394e-08 -9.8559106e-08 -7.197207e-08
0002f0 b0 cb 3d b4 ae 9c c7 2c c5 d9 86 2c 9e ea 20 2d
       -1.7676098e-07 5.673315e-12 3.8326863e-12 9.1470425e-12
000300 57 aa f8 2c 46 81 18 2d 18 71 3d 2d ca 7b 89 2d
       7.0674955e-12 8.668904e-12 1.0768518e-11 1.563007e-11
000310 9d 39 6e 2d 1b c9 e0 2d b0 d3 82 3a c8 f3 93 3a
       1.3541526e-11 2.555516e-11 0.0009981301 0.0011287862
000320 b6 d5 c3 3a 39 b3 fb 39 64 c9 f7 3a bb 6d 9e 3a
       0.001494101 0.00048007982 0.0018904624 0.0012087146
000330 1c a1 8d 3a 0b 51 4d 3a c5 d9 95 ba e0 da ea 38
       0.0010805461 0.0007832206 -0.0011432698 0.00011198758
000340 31 79 ca 38 2f 8a 5f 39 9e 0e 12 39 04 99 90 39
       9.654684e-05 0.00021318415 0.0001392909 0.00027579826
000350 18 0d 8f 39 00 6c 46 39 74 42 34 39 d6 e2 dd 39
       0.0002728484 0.00018922985 0.00017190893 0.0004232141
000360 88 4f 1c 39 7c eb e7 39 b5 1a 0b 39 ce 3a d2 39
       0.00014906947 0.00044235203 0.00013266022 0.00040098134
000370 4f 88 cd b8 86 46 93 39 4f cf cd 38 4f 5c b9 38
       -9.800551e-05 0.0002809057 9.813776e-05 8.838681e-05
000380 1e e0 4d 3a 9e b9 de 2a 99 9a b2 2a 91 26 52 2b
       0.00078535255 3.956392e-13 3.1726425e-13 7.466051e-13
000390 c3 f7 39 2b 51 df 39 2b 8a 41 64 2b 0d 86 c1 2b
       6.606904e-13 6.6035117e-13 8.1092826e-13 1.3750681e-12
0003a0 18 cb c0 2b af 6a 1a 2c 1d 57 0c b0 7f 22 96 af
       1.369879e-12 2.1943938e-12 -5.10555e-10 -2.7309352e-10
0003b0 e3 c0 42 b0 da 5d fe af 5b de 40 b0 a9 e4 76 b0
       -7.08509e-10 -4.6269016e-10 -7.016518e-10 -8.9819224e-10
0003c0 ec 82 9d b0 dd c1 57 b0 1a 34 08 b1 09 83 7f b8
       -1.1460464e-09 -7.849204e-10 -1.982022e-09 -6.0918774e-05
0003d0 1c 2d dc b8 70 a5 36 b9 74 c5 3c b9 cd 0b 87 b9
       -0.0001049882 -0.00017418503 -0.00018002634 -0.00025758
0003e0 1e 19 9c b9 30 c7 65 b9 a7 74 55 b9 3b 95 e0 b9
       -0.00029773352 -0.00021913345 -0.0002035672 -0.00042835795
0003f0 96 29 85 39 85 fd a6 39 b6 27 6f 39 dc ab 8b 39
       0.0002539872 0.00031850874 0.0002280761 0.0002664019

lstm.weight_hh_l0 f4 [150, 50]
000000 74 85 99 a5 4d c1 c2 a8 78 af e5 26 2e 66 03 27
       -2.66317e-16 -2.1622158e-14 1.5937628e-15 1.8235294e-15
000010 6a 5e cc 2d ae cb 57 2d 6e cb 82 ad bf 13 5d 2d
       2.3234043e-11 1.2266561e-11 -1.486963e-11 1.256678e-11
000020 a0 d2 18 2d a8 e4 bc aa 3e 36 82 a6 31 3d 3a 2b
       8.686968e-12 -3.355417e-13 -9.035264e-16 6.6165395e-13
000030 08 58 cf aa d3 8d 9a 2d 5f f2 df ac fc ca e9 a5
       -3.683167e-13 1.7570756e-11 -6.36495e-12 -4.0556605e-16
000040 10 15 45 2d 46 ca 07 28 c9 5d 76 2d 78 3d fd 2a
       1.120283e-11 7.5378665e-15 1.40043055e-11 4.498448e-13
000050 2a b3 2f a9 a7 f9 c1 a5 ab 0d e6 ac 78 86 2d 2c
       -3.9013206e-14 -3.3649334e-16 -6.5385106e-12 2.4659424e-12
000060 01 61 aa ad 5e 54 29 25 38 e5 5b 27 cd 9c 1a 2d
       -1.936984e-11 1.4686998e-16 3.0516615e-15 8.788703e-12
000070 10 7d 6f 2d 7c 4f e9 ab 93 8b 99 ad 1a eb a7 ac
       1.36133466e-11 -1.6577707e-12 -1.745607e-11 -4.772527e-12
000080 5f 05 cc 26 21 f4 be a5 96 52 18 2d b9 f8 40 a4
       1.4156799e-15 -3.3125174e-16 8.658537e-12 -4.184404e-17
000090 a7 d4 51 ad 1d 50 29 ad 39 aa 82 2d 62 fc 15 aa
       -1.1927493e-11 -9.6243265e-12 1.4854883e-11 -1.3321421e-13
0000a0 e5 1b 67 2c 26 44 3b 2d 85 c8 46 ad 20 ab 9a 25
       3.284256e-12 1.0644851e-11 -1.1299521e-11 2.68307e-16
0000b0 0c cc 6d ad f9 17 ac 2c 5d 21 dc 25 d7 83 8b 2d
       -1.3517198e-11 4.8911955e-12 3.8186524e-16 1.5861019e-11
0000c0 c1 10 bf 2d f4 e7 98 2c e0 22 32 2a 56 e0 13 2c
       2.1721626e-11 4.345852e-12 1.5821676e-13 2.1014488e-12
0000d0 f3 33 b9 2a 4a 6a 80 aa 2f 64 0b b1 40 74 95 b0
       3.2898649e-13 -2.281112e-13 -2.028411e-09 -1.0874217e-09
0000e0 62 06 b5 30 9a c8 cb b0 de 12 5d b0 f0 a5 27 2e
       1.3171297e-09 -1.4827208e-09 -8.0426144e-10 3.8118786e-11
0000f0 54 d3 b3 29 a8 68 00 af e5 dd 6c 2c 84 01 e8 b0
       7.9858564e-14 -1.1678714e-10 3.3660793e-12 -1.6880652e-09
000100 5d 0e 85 30 3d bb 13 28 64 d1 95 b0 03 a4 3d ab
       9.681106e-10 8.20074e-15 -1.0900689e-09 -6.73739e-13
000110 e9 02 ac b0 ab 69 8b ae 97 4a 6e 2c f9 da 42 29
       -1.2515474e-09 -6.3397586e-11 3.386324e-12 4.3266582e-14
000120 95 df 5b 30 fb f6 84 af 72 b1 e6 30 91 49 b0 a8
       7.9989465e-10 -2.418615e-10 1.6785136e-09 -1.957183e-14
000130 5e e1 bf aa 12 4e 53 b0 d9 45 a3 b0 b8 8f 1e 2f
       -3.4084796e-13 -7.68723e-10 -1.1879663e-09 1.4421075e-10
000140 f1 00 d4 30 4a 94 eb 2f 85 80 48 aa 75 ef 0c 29
       1.5425298e-09 4.2851617e-10 -1.7808158e-13 3.129394e-14
000150 0f fc 5b b0 e4 bf 54 29 f4 08 d6 30 18 d8 72 30
       -8.002993e-10 4.7239895e-14 1.5573094e-09 8.8346175e-10
000160 79 a9 c7 b0 c3 15 ce ae d1 78 aa af 06 8a 8d b0
       -1.4527323e-09 -9.371661e-11 -3.1008665e-10 -1.0298329e-09
000170 b4 d7 a6 30 e0 c4 23 a9 17 e7 a3 30 a3 90 0f b0
       1.2139396e-09 -3.6364032e-14 1.1925491e-09 -5.222864e-10
000180 5a b6 96 a9 9c 43 eb b0 a7 21 03 b1 a5 a8 3b b0
       -6.692971e-14 -1.7117716e-09 -1.9082138e-09 -6.826986e-10
000190 4a 46 a6 28 f8 aa d8 a7 b2 f2 c8 29 46 ab f0 a7
       1.8460185e-14 -6.013741e-15 8.923885e-14 -6.6799077e-15
0001a0 35 d5 1e 2d c4 03 b2 2c e5 05 ce ac e7 00 b9 ac
       9.028602e-12 5.0594823e-12 -5.8555266e-12 -5.2581164e-12
0001b0 04 e4 d0 2b 72 21 5c 2a 9e 02 f3 a6 37 d9 be ab
       1.4842576e-12 1.9551529e-13 -1.6862222e-15 -1.3560601e-12
0001c0 aa 1d 02 ac 76 f1 9b 2b a1 4b 68 2d 1d 31 bc a7
       -1.8490578e-12 1.1080431e-12 1.3204466e-11 -5.223373e-15
0001d0 22 d0 8a 2b a1 ae 5b 28 bc d2 8b 2c ad dd b5 ab
       9.863258e-13 1.2194809e-14 3.974014e-12 -1.2922351e-12
0001e0 2f 32 c6 a9 b6 9f bb 26 ee a1 d8 2c 1d be a9 aa
       -8.801672e-14 1.3019021e-15 6.157067e-12 -3.0152348e-13
0001f0 a6 1a 10 ad 55 54 4b a6 b6 a6 d3 a7 78 5e 93 2c
       -8.1913695e-12 -7.0544064e-16 -5.8745013e-15 4.1884794e-12
000200 59 f6 d1 2c f0 b8 bf ab 5e 3c cb ac 1f ac 1e ac
       5.9674874e-12 -1.3622697e-12 -5.776309e-12 -2.2548697e-12
000210 35 4d 9a a7 71 ed 4a 25 f2 c7 d5 2b 2c 4d b0 27
       -4.2827294e-15 1.7601155e-16 1.5190056e-12 4.8933483e-15
000220 6f ea 41 2d 8e e6 07 ac 48 0a b4 2b 48 84 96 ac
       1.10228346e-11 -1.9312637e-12 1.2792623e-12 -4.2779426e-12
000230 94 27 15 2a 58 37 b1 2a b2 57 22 2c 1e 7e c0 a6
       1.324759e-13 3.1479918e-13 2.3070265e-12 -1.335686e-15
000240 c8 37 c3 ac 23 42 02 ac f9 cd 88 a7 c6 02 97 ac
       -5.5484263e-12 -1.8510824e-12 -3.79709e-15 -4.291986e-12
000250 95 b8 00 2d f2 18 c7 ac 75 61 17 a8 bd 13 03 aa
       7.316943e-12 -5.6586897e-12 -8.4033165e-15 -1.1641985e-13
000260 d1 67 c7 a8 e2 22 5f 28 a3 f7 0d 2f 88 66 97 2e
       -2.2138461e-14 1.2386551e-14 1.2911854e-10 6.884898e-11
000270 64 18 b7 ae dc cb a1 2e 03 dc 56 2e f0 4b 02 ac
       -8.326209e-11 7.357645e-11 4.8853376e-11 -1.8516265e-12
000280 7a b5 b2 a7 f1 ca 8e 2c 60 a3 13 ac 0f 95 d8 2e
       -4.960168e-15 4.0584138e-12 -2.0980648e-12 9.849021e-11
000290 5c d5 21 ae b0 c9 f4 a5 3d 90 8a 2e de b1 2d 29
       -3.6796663e-11 -4.2463922e-16 6.301135e-11 3.8567992e-14
0002a0 f7 fe ab 2e 62 0b 30 2c 80 92 50 aa 65 4e 2f a7
       7.8214706e-11 2.5017423e-12 -1.8524939e-13 -2.4328626e-15
0002b0 9d c6 22 ae 90 3c 76 2d 9e 64 ed ae 78 53 a2 26
       -3.701094e-11 1.3996929e-11 -1.07953854e-10 1.1263632e-15
0002c0 e4 7b a7 28 e5 6d 59 2e 93 80 a7 2e 2e c6 24 ad
       1.8594454e-14 4.9437694e-11 7.61712e-11 -9.366325e-12
0002d0 f4 ea d5 ae 47 b1 ec ad 8b e1 25 28 bb 6d 0f a7
       -9.7278546e-11 -2.690882e-11 9.208247e-15 -1.9904722e-15
0002e0 69 21 56 2e ee 62 b5 a6 be a8 98 ae ed 69 6d ae
       4.868764e-11 -1.2586213e-15 -6.9421344e-11 -5.3981642e-11
0002f0 c8 62 b8 2e f7 9c 4b ab 60 91 a2 2d 8c bc 83 2e
       8.384898e-11 -7.233792e-13 1.8481827e-11 5.990683e-11
000300 b4 9a 8d ae 7e b7 11 27 0b 6f a6 ae 1a 69 f3 2d
       -6.4394184e-11 2.0222264e-15 -7.568531e-11 2.7672576e-11
000310 94 2c 7d 27 9a 2c c6 2e 4b 95 04 2f 89 b5 e4 2d
       3.513497e-15 9.0119204e-11 1.205837e-10 2.6001217e-11
000320 4c 31 b5 b3 d8 5c 0f b5 dc 29 45 b4 55 f8 b9 33
       -8.437436e-08 -5.3406757e-07 -1.8362283e-07 8.659905e-08
000330 2c eb a1 b9 11 dc 1c b9 5e 27 49 39 0e 4f a6 b9
       -0.0003088353 -0.000149593 0.00019183519 -0.00031720888
000340 e4 7c 2d b9 79 b0 29 37 db 6e a3 b3 b3 fe dc b8
       -0.00016545091 1.0114273e-05 -7.6104435e-08 -0.00010537859
000350 f3 5a be b8 68 b3 9c b9 b3 ca 8d 39 38 51 39 31
       -9.0768466e-05 -0.00029888307 0.00027044638 2.696721e-09
000360 66 4b 75 b9 71 d2 ad 34 a4 f7 95 b9 7c 35 8e b8
       -0.00023393109 3.2376877e-07 -0.00028604 -6.78105e-05
000370 06 03 c2 b4 14 9b db b2 75 9e 85 39 9a eb 25 b8
       -3.6137516e-07 -2.5565477e-08 0.00025485797 -3.9558487e-05
000380 ed bf 81 39 d0 db 66 32 7e 0c e1 33 5e d9 b0 b8
       0.00024747793 1.3437742e-08 1.0479651e-07 -8.432822e-05
000390 02 26 3d b9 f8 c0 0d b8 d7 90 b5 39 82 4c da 37
       -0.00018038604 -3.3796736e-05 0.00034630924 2.6023252e-05
0003a0 4b 81 4d 33 1c 17 b4 b2 b4 e0 2d b9 be b0 20 33
       4.7847873e-08 -2.0965267e-08 -0.00016582274 3.741365e-08
0003b0 54 1c 86 39 88 89 51 39 cb 79 8b b9 1a 93 d6 b8
       0.00025579578 0.00019983028 -0.0002660289 -0.00010231715
0003c0 6e 09 b8 b8 6a 8d 45 b9 a0 30 4c 39 e8 7a a6 32
       -8.77556e-05 -0.00018840065 0.0001947307 1.9380835e-08
0003d0 d6 13 3d 39 4a f8 ce b8 9e 2d 06 33 32 80 6f b9
       0.00018031834 -9.869093e-05 3.1240795e-08 -0.00022840573
0003e0 32 00 d7 b9 1e 30 bd b9 17 20 0f b3 c5 a8 99 b4
       -0.0004100814 -0.0003608474 -3.3323968e-08 -2.8621267e-07
0003f0 30 86 a6 b3 e3 60 1e 33 33 73 09 b9 26 a2 42 b8
       -7.754386e-08 3.687536e-08 -0.00013108253 -4.6404217e-05

lstm.bias_ih_l0 f4 [150]
000000 d0 29 5c af 0f 1b 77 32 f3 48 bd af b8 ad 86 b0
       -2.0023738e-10 1.4383445e-08 -3.4430733e-10 -9.799157e-10
000010 3b 13 cc 3a b7 7f 45 3a 24 20 23 3a dd c1 09 3e
       0.0015569696 0.00075339846 0.0006222746 0.13452859
000020 a2 c5 09 3a 12 89 fe 35 d6 54 59 2d 65 79 26 3b
       0.0005255585 1.8964367e-06 1.2353859e-11 0.0025401947
000030 ab ac 09 3a 9f 56 a6 3b bc 39 f3 3d 96 30 de 2d
       0.0005251865 0.005076244 0.11876246 2.5260054e-11
000040 89 ac d5 3b f0 7f 28 30 f9 c0 49 3a aa d9 fa 38
       0.006520812 6.1299854e-10 0.00076962967 0.00011961472
000050 6a ca dd b2 b8 19 03 2c f3 2d 9d 3c fd 2d a9 38
       -2.5819833e-08 1.8630496e-12 0.01918695 8.067114e-05
000060 dd 92 0a 3b d9 9b 46 ac 53 f7 2a b1 c0 0d a6 3a
       0.0021144666 -2.8224005e-12 -2.4878843e-09 0.0012668893
000070 92 ee 47 3a 7e 64 c0 38 a0 47 29 3a 83 b1 cb 38
       0.00076267973 9.1739916e-05 0.00064575113 9.7128584e-05
000080 cd 07 24 2f 3c b9 de ae 95 a9 01 3a 50 24 a9 2f
       1.4918485e-10 -1.01282954e-10 0.0004946229 3.0766723e-10
000090 72 2c 50 3d 23 3d 73 3a 93 ba c2 3b 3a a2 84 3b
       0.050823636 0.00092788244 0.0059426515 0.004047659
0000a0 b5 a2 f3 39 87 d4 13 3b b8 7d 34 3c 0b 5c 0f ae
       0.00046469798 0.0022557096 0.011016302 -3.2596186e-11
0000b0 ed c6 dc 39 24 1b 82 3a 71 b6 a7 ae d5 89 55 3c
       0.0004210988 0.0009926301 -7.626689e-11 0.01303335
0000c0 58 f9 7a 3a 7c 6c 8e 3d 68 7e c2 b0 79 64 6e b4
       0.0009573898 0.069542855 -1.4151285e-09 -2.2202029e-07
0000d0 e7 f9 ac b0 6a 98 96 b1 c1 84 aa bb f2 89 0e bb
       -1.2585674e-09 -4.382902e-09 -0.005203814 -0.0021749702
0000e0 42 e3 cf ba 05 ce 9c be 60 8b 61 bb 29 ef 5c b9
       -0.0015860575 -0.3062593 -0.003441535 -0.00021069929
0000f0 58 6e e7 ae f1 bc 30 bc cc 51 1b bb 51 3a e9 bc
       -1.0524265e-10 -0.010787235 -0.0023699878 -0.02847019
000100 8c 3a a8 be e1 ab ae ad 20 f7 d1 bc 7c 74 bd b2
       -0.32857168 -1.985784e-11 -0.025630534 -2.2055467e-08
000110 11 4c 87 bb f0 03 87 ba 3c c1 8d b5 18 a9 d4 ae
       -0.004128941 -0.0010300856 -1.0561557e-06 -9.670681e-11
000120 4d b0 bc bd dc e7 87 ba 37 5b 0b bc e2 0f ad ad
       -0.09213314 -0.0010368782 -0.008505634 -1.9674876e-11
000130 e6 9f 52 b2 89 72 8b bb 0f e9 41 bb 5a 98 c5 b9
       -1.22599655e-08 -0.004255597 -0.0029588377 -0.0003768828
000140 67 c9 5c bb d8 22 b3 38 73 a9 3d b1 bd b1 56 ae
       -0.003368938 8.541875e-05 -2.759944e-09 -4.881583e-11
000150 1b fd 57 bb 39 05 93 b0 ef 83 6f be 34 7a ab bb
       -0.003295726 -1.0697142e-09 -0.23390172 -0.0052330736
000160 f2 02 de bc 3c 9b b9 bc 07 b7 87 bb a4 57 40 bc
       -0.027101014 -0.02265703 -0.0041416916 -0.011739645
000170 b9 cb 6e bd ad b7 ba ae f1 84 80 ba c2 7c 08 bc
       -0.058299754 -8.490928e-11 -0.0009805245 -0.008330526
000180 ed a3 a6 af 03 c6 b7 bd 4d ca 87 bb 1b c9 50 be
       -3.03117e-10 -0.089733146 -0.004143989 -0.20389216
000190 26 48 c3 b3 65 90 b7 38 2d 5e c4 34 08 71 89 36
       -9.093519e-08 8.7530156e-05 3.6576367e-07 4.0960767e-06
0001a0 12 99 bc bd 85 3e 45 bd 9f ba 81 3d c6 9c 46 bd
       -0.09208883 -0.048155326 0.06334423 -0.048489355
0001b0 cd 05 1c bd 62 95 24 3b 19 9c cb 36 e0 3e bd 3c
       -0.03809147 0.0025113453 6.0680436e-06 0.02310127
0001c0 8b 8f 6a 3c cc a8 99 bd e2 12 10 bd 65 a0 bd 35
       0.01431645 -0.075028986 -0.035174258 1.4128278e-06
0001d0 a1 cf 88 bc 42 d6 bd b7 65 33 94 bd f0 d7 65 3a
       -0.016700568 -2.2630327e-05 -0.07236365 0.0008767834
0001e0 dc 82 ea b8 ff e0 05 36 c5 59 79 bb dc 98 9d bc
       -0.00011182364 1.994951e-06 -0.0038047892 -0.019237928
0001f0 a1 db 92 3d ac 7b cb b4 48 68 f2 36 2a 94 35 bd
       0.07170797 -3.790168e-07 7.224302e-06 -0.044330753
000200 1e d9 54 bd 1f 59 23 3c 52 80 a8 3d d7 03 bd 3c
       -0.05196487 0.009969979 0.082276 0.02307312
000210 2f ca f7 b6 b9 8b 12 b7 2f db 20 bd 6a 13 74 37
       -7.384711e-06 -8.73481e-06 -0.03927153 1.45480535e-05
000220 55 a1 16 3b b7 d9 5e 3d fa 19 be bd 52 fa a5 3c
       0.0022984345 0.054406848 -0.092822984 0.020260964
000230 3c 0b a2 3b 55 c9 34 bd 74 d1 58 3d 3c 18 06 36
       0.004945187 -0.044137318 0.052934125 1.9981662e-06
000240 27 2f 5c 3d 60 b2 87 bc 39 bd ac 35 c8 e1 59 bd
       0.053755905 -0.016564548 1.287007e-06 -0.053193837
000250 1c 0a af bd a2 86 de 3c
       -0.0854685 0.027163807

lstm.bias_hh_l0 f4 [150]
000000 c3 29 5c af 10 1b 77 32 df 48 bd af b6 ad 86 b0
       -2.002372e-10 1.43834455e-08 -3.4430678e-10 -9.799155e-10
000010 3a 13 cc 3a b7 7f 45 3a 26 20 23 3a de c1 09 3e
       0.0015569695 0.00075339846 0.0006222747 0.1345286
000020 a2 c5 09 3a 3d 89 fe 35 a2 54 59 2d 63 79 26 3b
       0.0005255585 1.8964416e-06 1.2353814e-11 0.0025401942
000030 a4 ac 09 3a a0 56 a6 3b 3c 39 f3 3d 9a 30 de 2d
       0.0005251861 0.0050762445 0.11876151 2.5260061e-11
000040 68 ad d5 3b d2 7f 28 30 fd c0 49 3a a9 d9 fa 38
       0.006520916 6.129969e-10 0.0007696299 0.00011961471
000050 40 ca dd b2 a7 19 03 2c f3 2d 9d 3c 02 2e a9 38
       -2.5819759e-08 1.863046e-12 0.01918695 8.0671176e-05
000060 de 92 0a 3b d7 9b 46 ac 52 f7 2a b1 c4 0d a6 3a
       0.0021144669 -2.8224e-12 -2.4878841e-09 0.0012668897
000070 98 ee 47 3a 87 64 c0 38 96 47 29 3a 90 b1 cb 38
       0.0007626801 9.173998e-05 0.00064575055 9.712868e-05
000080 c2 07 24 2f 3d b9 de ae 94 a9 01 3a 47 24 a9 2f
       1.4918469e-10 -1.0128296e-10 0.00049462286 3.0766698e-10
000090 73 2c 50 3d 26 3d 73 3a 92 ba c2 3b 3c a2 84 3b
       0.05082364 0.0009278826 0.005942651 0.00404766
0000a0 a7 a2 f3 39 88 d4 13 3b ba 7d 34 3c 0c 5c 0f ae
       0.00046469757 0.0022557098 0.011016304 -3.259619e-11
0000b0 e2 c6 dc 39 24 1b 82 3a 74 b6 a7 ae d6 89 55 3c
       0.0004210985 0.0009926301 -7.626691e-11 0.013033351
0000c0 64 f9 7a 3a a2 70 8e 3d 68 7e c2 b0 78 64 6e b4
       0.0009573905 0.06955077 -1.4151285e-09 -2.2202028e-07
0000d0 e7 f9 ac b0 6a 98 96 b1 b9 84 aa bb f3 89 0e bb
       -1.2585674e-09 -4.382902e-09 -0.00520381 -0.0021749705
0000e0 49 e3 cf ba 9b e9 9c be 5d 8b 61 bb 2e ef 5c b9
       -0.0015860583 -0.30646977 -0.0034415342 -0.00021069936
0000f0 56 6e e7 ae f0 bc 30 bc cf 51 1b bb 65 3a e9 bc
       -1.05242634e-10 -0.010787234 -0.0023699885 -0.028470227
000100 82 be a7 be e2 ab ae ad 1c f7 d1 bc 7a 74 bd b2
       -0.32762533 -1.9857841e-11 -0.025630526 -2.2055463e-08
000110 13 4c 87 bb f1 03 87 ba 3e c1 8d b5 19 a9 d4 ae
       -0.004128942 -0.0010300857 -1.056156e-06 -9.6706816e-11
000120 7f d6 bc bd dc e7 87 ba 38 5b 0b bc e3 0f ad ad
       -0.092205994 -0.0010368782 -0.008505635 -1.9674878e-11
000130 e5 9f 52 b2 89 72 8b bb 0e e9 41 bb 5b 98 c5 b9
       -1.2259965e-08 -0.004255597 -0.0029588374 -0.00037688282
000140 69 c9 5c bb de 22 b3 38 76 a9 3d b1 c0 b1 56 ae
       -0.0033689386 8.54188e-05 -2.7599447e-09 -4.881584e-11
000150 1b fd 57 bb 3b 05 93 b0 4c 4c 71 be 38 7a ab bb
       -0.003295726 -1.0697144e-09 -0.23564261 -0.0052330755
000160 ea 02 de bc 38 9b b9 bc 07 b7 87 bb a1 57 40 bc
       -0.027100999 -0.022657022 -0.0041416916 -0.011739642
000170 ed cf 6e bd ac b7 ba ae f3 84 80 ba c3 7c 08 bc
       -0.058303762 -8.4909274e-11 -0.0009805247 -0.008330527
000180 ee a3 a6 af 15 ad b7 bd 4c ca 87 bb c5 c6 50 be
       -3.0311703e-10 -0.0896856 -0.0041439887 -0.20388325
000190 0a ee 9d 36 e7 ee b2 b6 ce 8a 46 36 37 ce 5b b7
       4.706676e-06 -5.3326253e-06 2.9585094e-06 -1.310143e-05
0001a0 8d 15 07 bd 6d f6 97 bc 1e ea 3d 3c 09 d5 be bc
       -0.032979537 -0.018550122 0.011591462 -0.023294942
0001b0 0c c3 10 bc fb 75 2f bb 0f 3f 33 b7 7b 56 50 bd
       -0.008835565 -0.0026773203 -1.0683913e-05 -0.050863724
0001c0 79 51 ba bc 17 f6 35 bb 2a 53 97 3d 8b 36 8e b6
       -0.022743927 -0.002776509 0.07388909 -4.2382794e-06
0001d0 b5 d3 91 bd 40 e1 a2 37 f5 2b b8 3b 99 f6 a4 bb
       -0.07120458 1.9416795e-05 0.0056204745 -0.0050342795
0001e0 9d 6d ae 39 e8 0a 51 b6 f3 0d 3a 3d 12 8b 57 3c
       0.00033269534 -3.1149775e-06 0.04542346 0.013155716
0001f0 01 5e 1b 3d 86 85 17 35 68 e0 af b7 cb 22 c1 3b
       0.037931446 5.6446186e-07 -2.0966123e-05 0.00589404
000200 69 4b cc bc 6f 43 a4 bb 8e 31 1c 3c 2f fa 1e bb
       -0.024938302 -0.0050129215 0.009533299 -0.0024258008
000210 c8 0b 20 37 c7 07 8d 37 46 4e d0 bb 8d 6c bd b7
       9.539486e-06 1.6812131e-05 -0.006356987 -2.2581104e-05
000220 d0 89 0f 3d 3b f4 55 bc ec 0c 4d 3d aa 67 d9 bc
       0.035043538 -0.013058717 0.05006115 -0.026538689
000230 7c 41 41 bd 09 07 e8 bb 87 01 5c bc a8 a9 98 b6
       -0.04718159 -0.007080917 -0.0134280985 -4.5497036e-06
000240 ab 1b a1 3c ee b3 ab bb c3 ac 8b b6 a0 7f ef bb
       0.019666513 -0.005239955 -4.162635e-06 -0.0073089153
000250 f5 51 2e bd 48 5f 9f bd
       -0.04255863 -0.07781845

fc.weight f4 [1, 50]
000000 f0 b9 25 b7 f6 ee f6 b8 41 09 48 b7 53 7a 93 37
       -9.878058e-06 -0.00011774704 -1.1923084e-05 1.7580727e-05
000010 e4 f8 d9 bd d6 d1 9f bd d5 47 90 3d f8 da 0c 3f
       -0.10643175 -0.07803695 0.07044951 0.5502162
000020 52 3c 56 3d c6 9f 8c bb 52 4a 6f b6 93 b9 d8 3d
       0.05230362 -0.0042915074 -3.5657035e-06 0.105822705
000030 10 bc 30 3d 6f 3b 16 3e d6 44 f2 be 98 b3 e9 b5
       0.0431481 0.1467111 -0.47318143 -1.7412121e-06
000040 05 78 31 3e 2f be 13 38 6b d1 95 3d ec 65 a3 3c
       0.1733094 3.5224653e-05 0.07315334 0.019946061
000050 fc aa 84 b9 15 06 33 b6 40 01 81 be da 5b bf 3c
       -0.00025304395 -2.6676619e-06 -0.25196266 0.023359228
000060 87 6a ea 3d 6f ef ad 35 77 07 fc 37 da 27 b5 bd
       0.114461 1.2959189e-06 3.0044217e-05 -0.08845492
000070 98 68 94 bd bf a7 90 3c 4b 69 92 bd e0 13 c8 3c
       -0.07246512 0.017658113 -0.07148989 0.02442354
000080 63 83 5d 37 68 97 f4 b5 38 58 4d 3d d0 24 31 b7
       1.3203217e-05 -1.8223482e-06 0.05013296 -1.0558593e-05
000090 5c cd a6 be c6 d5 9a bd c7 c7 22 3e e8 55 05 3e
       -0.32578552 -0.07560305 0.15896522 0.13021052
0000a0 e3 b2 8c 3d 92 6d ce 3d e1 b7 4f be 73 d9 27 36
       0.068700574 0.10079493 -0.20284988 2.5011511e-06
0000b0 77 ea 74 3d 1f 58 82 3d 34 80 99 36 cb cc 4a 3e
       0.059793916 0.06364464 4.57468e-06 0.19804685
0000c0 02 f3 9c 3d 7d 0b d9 3e
       0.076635376 0.42391577
