src/models/saved_models/dl_gru_model.pth (torch, 19258 bytes, 5 tensors)

lstm.weight_ih_l0 f4 [96, 9]
0.027366448 0.037747137 -0.01687273 0.046305858 -0.015258969 0.0020512207 -0.014356799 0.02499427
0.046638306 -0.056321792 0.0866116 0.020161292 0.06397051 0.0007081789 0.019887209 -0.06494695
0.026244977 -0.08146331 -0.036942437 0.035399493 -0.039988115 -0.0093103945 -0.03820349 0.062310793
-0.09614815 -0.077735856 -0.08244876 -0.038222313 0.017863043 -0.08387609 0.08434843 -0.06801985
0.06572219 0.009596619 -0.03490406 0.019583749 0.004383854 0.012743485 0.008046953 0.0056226575
0.008174008 0.004110352 0.0006763686 0.00631382 -0.014529759 -0.044338077 0.05994635 0.015226515
0.059170004 -0.066394 -0.10032309 -0.01951112 -0.048010398 0.14774732 -0.004106657 0.001448587
-0.0026382033 -0.00801373 0.026524246 -0.025409322 0.0098687345 -0.004750834 0.04757551 -0.014183954
0.026977943 -0.00698034 0.06228576 -0.040262394 -0.049210552 -0.055866726 0.044345085 -0.023958933
0.03873436 -0.039226454 -0.053844564 -0.046273783 -0.038074363 0.0067786905 -0.0024974283 0.02751954
-0.078128666 -0.004281552 0.0022098396 0.0018264974 0.002574341 0.0026447852 0.0024836694 -0.008331703
-0.0011609218 -0.0026807624 0.011173521 0.016185394 0.022268439 0.019680254 -0.0020728563 -0.01494417
0.025110032 -0.045845415 -0.07174466 -0.09388072 -0.06844041 0.016639663 -0.017642075 -0.07940612
0.0071315425 -0.05596028 -0.06007191 -0.006435704 -0.009920451 -0.0024191565 0.028085008 -0.00012720916
-0.00010326684 -0.014640889 -0.003198375 -7.36622e-05 0.0016885502 -0.051581334 -0.03156458 -0.043203022
-0.00091045664 -0.023676855 0.0011311001 -0.030565277 -0.021055847 0.0023321826 -0.021922715 -0.065826155
0.07578648 -0.02106013 0.074545905 0.012836052 -0.10004157 0.030321151 -0.08275489 -0.0012033333
-0.011104511 -0.021469599 -0.0003194942 -0.0014015469 0.0010724572 -0.008150279 0.01069922 0.0013129689
0.0055702496 0.0028266837 0.0037708047 0.021194277 0.02024409 -0.0051631914 0.034347493 0.03840311
0.07751093 -0.031577937 0.05283487 -0.03827859 0.022389743 0.012241939 -0.0007760455 -0.059402548
0.028191607 -0.05410145 0.0032868711 -0.027292384 0.009629195 -0.0002927094 -0.0068934634 0.03242805
0.0067379675 0.0003786409 0.008859948 -0.0044224164 0.03864715 -0.020862874 -0.03668848 -0.018747138
-0.040887162 0.06829109 0.12409731 -0.01318393 0.015339539 0.028824518 0.01834892 -0.014553814
0.02205714 0.00732564 -0.014507248 -0.069141686 -0.104338266 0.0050893966 0.006686487 0.0047273664
0.017871263 0.03029525 -0.0031679077 -0.011344846 -0.018181775 -0.033463486 0.02184282 0.025641894
-0.093574494 -0.029692784 0.0922541 0.060620293 0.028779803 -0.013543965 0.010817874 -0.010332124
-5.3365467e-05 9.683087e-05 0.0027654138 0.000495131 -0.00920498 -0.0013766346 -0.0010456207 0.018001856
0.020989133 -0.030185029 0.060513988 -0.055914667 -0.09197082 0.083955266 -0.08839272 -0.071741164
-0.20064297 0.0045451596 0.010417409 0.0034271395 -0.0055134236 -0.02034891 -0.011204753 0.009267602
-0.0029195973 0.008132025 0.001253549 0.0008372498 0.001031966 -0.0018053339 -0.005268711 -0.009763609
0.0005102673 0.00014284512 1.5223122e-06 -0.008790702 0.0024637177 -0.015718604 -0.023202084 0.009415628
-0.021153513 0.007523403 -0.047921814 -0.07898656 -0.0064922846 -0.020618679 -0.013962146 -0.06456385
00000000: 9a2f e03c be9c 1a3d ae38 8abc 36ab 3d3d
00000010: c100 7abc c66d 063b c838 6bbc c9c0 cc3c
00000020: cf07 3f3d aeb1 66bd 6c61 b13d 4b29 a53c
00000030: f902 833d 15a5 393a 80ea a23c e802 85bd
00000040: b5ff d63c 3cd6 a6bd f450 17bd 0fff 103d
00000050: 94ca 23bd a08a 18bc 437b 1cbd 9a39 7f3d
00000060: 52e9 c4bd fa33 9fbd e5da a8bd 008f 1cbd
00000070: 8455 923c 3ac7 abbd dfbe ac3d fe4d 8bbd
00000080: 5b99 863d 233b 1d3c 8ff7 0ebd 196e a03c
00000090: 6fa6 8f3b 0dca 503c 5ed7 033c 453e b83b
000000a0: 46ec 053c 22b0 863b 544e 313a 29e4 ce3b
000000b0: 3a0e 6ebc d89b 35bd 4e8a 753d a278 793c
000000c0: 3f5c 723d 94f9 87bd 3176 cdbd c9d5 9fbc
000000d0: 8da6 44bd 134b 173e 2391 86bb 84de bd3a
000000e0: b5e5 2cbb 054c 03bc 6049 d93c 3627 d0bc
000000f0: 79b0 213c e2ac 9bbb 8ade 423d d163 68bc
00000100: d900 dd3c 56bb e4bb 5a1f 7f3d 2eea 24bd
00000110: 0191 49bd 82d4 64bd 31a3 353d 8645 c4bc
00000120: eca7 1e3d ebab 20bd 1e8c 5cbd 9489 3dbd
00000130: ddf3 1bbd c71f de3b e5ab 23bb a970 e13c
00000140: ec01 a0bd 434c 8cbb f5d2 103b 1567 ef3a
00000150: 46b6 283b 2254 2d3b 0fc5 223b b281 08bc
00000160: 122a 98ba bbaf 2fbb 2511 373c 3b97 843c
00000170: 4d6c b63c 7c38 a13c c2d8 07bb 64d8 74bc
00000180: 8eb3 cd3c 67c8 3bbd ddee 92bd 8944 c0bd
00000190: 7c2a 8cbd e74f 883c 1d86 90bc ad9f a2bd
000001a0: b7af e93b 9b36 65bd f70d 76bd 99e2 d2bb
000001b0: 6389 22bc b68a 1ebb 8812 e63c 7363 05b9
000001c0: f690 d8b8 57e0 6fbc d49b 51bb 187b 9ab8
000001d0: 5852 dd3a f346 53bd dc49 01bd a7f5 30bd
000001e0: b6ab 6eba f7f5 c1bc 6c41 943a 0864 fabc
000001f0: 507d acbc 88d7 183b 4497 b3bc ddcf 86bd
00000200: f135 9b3d 4b86 acbc 86ab 983d 4e4e 523c
00000210: 98e2 ccbd 1064 f83c 657b a9bd 2ab9 9dba
00000220: b2ef 35bc 03e1 afbc c981 a7b9 1cb4 b7ba
00000230: b191 8c3a bf88 05bc c84b 2f3c ed17 ac3a
00000240: a486 b63b e23f 393b 9b1f 773b 9f9f ad3c
00000250: efd6 a53c fd2f a9bb f5af 0c3d 944c 1d3d
00000260: 0dbe 9e3d de57 01bd 6069 583d 03ca 1cbd
00000270: b26a b73c 6a92 483c 886f 4bba 1650 73bd
00000280: 16f2 e63c 7b99 5dbd 8c68 573b 4794 dfbc
00000290: c5c3 1d3c ca76 99b9 90e2 e1bb 46d3 043d
000002a0: 2bca dc3b 5284 c639 5129 113c ebe9 90bb
000002b0: 794c 1e3d 9ee8 aabc a946 16bd 9993 99bc
000002c0: 4c79 27bd 33dc 8b3d bb26 fe3d 6901 58bc
000002d0: b152 7b3c 6521 ec3c 7950 963c 1f73 6ebc
000002e0: 2db1 b43c ec0b f03b cfaf 6dbc 289a 8dbd
000002f0: 4daf d5bd f4c4 a63b 511a db3b 06e8 9a3b
00000300: c166 923c be2d f83c ac9c 4fbb bcdf 39bc
00000310: f2f1 94bc 0211 09bd b7ef b23c f30e d23c
00000320: fca3 bfbd 483e f3bc b8ef bc3d fc4c 783d
00000330: 9fc3 eb3c 82e7 5dbc 743d 313c 1248 29bc
00000340: bcd4 5fb8 ad11 cb38 f23b 353b aecb 013a
00000350: 7cd0 16bc 3170 b4ba 350d 89ba a178 933c
00000360: 67f1 ab3c 9846 f7bc 84dd 773d c706 65bd
00000370: 335b bcbd bdf0 ab3d 3e07 b5bd 08ed 92bd
00000380: 5a75 4dbe 90ef 943b c8ad 2a3c dc99 603b
00000390: f3a9 b4bb c2b2 a6bc 2494 37bc 24d7 173c
000003a0: b756 3fbb 2f3c 053c 204e a43a e27a 5b3a
000003b0: 0843 873a f4a0 ecba 27a5 acbb 8bf7 1fbc
000003c0: 75c3 053a b2c8 1539 4052 cc35 e006 10bc
000003d0: 5376 213b 4dc4 80bc 4c12 bebc 0244 1a3c
000003e0: 224a adbc e186 f63b aa49 44bd b5c3 a1bd
000003f0: 3bbd d4bb 81e8 a8bc 7cc1 64bc 0d3a 84bd

lstm.weight_hh_l0 f4 [96, 32]
-0.046260934 0.079732984 0.018754838 0.011684373 0.008526651 -0.03950755 -0.00028010306 0.056972887
0.012551932 0.01563509 -0.016443802 -0.0017856365 0.056481257 0.005988302 0.03386632 -0.0155723905
0.0130002145 0.034534745 0.010793994 0.010522285 0.027705586 0.09694117 0.06296727 -0.006533961
-0.043992177 0.012784176 -0.0037353167 -0.015639154 -0.001813987 0.0058056507 0.040388323 0.00016195452
-0.039320093 -0.050615266 -0.026076145 -0.028861811 0.120269775 0.04286771 0.07260135 -0.0015950246
0.026018558 0.0409384 -0.111480705 -0.0023935344 -0.013889464 -0.06093623 -0.06726761 0.1079482
0.018182147 0.03644907 0.13657041 0.006000625 -0.037987534 0.05640401 -0.025121752 -0.013572603
-0.07887998 0.03891861 -0.040133797 0.003001158 0.07365689 -0.055991426 -0.032507703 0.060744494
-0.048592586 -0.010104598 0.07043642 -0.04216406 -0.1043454 -0.05766888 -0.040359903 -0.049543865
-0.060881197 0.057569187 0.025712252 -0.028233051 -0.11253393 -0.041617423 -0.04353422 -0.036162823
-0.0840115 0.020021122 -0.10202294 -0.04563184 -0.08870504 0.06535565 -0.084218815 -0.040125743
0.07577676 0.07772149 0.068036824 -0.12044117 -0.08667766 -0.040526778 0.09728801 0.022698032
-0.09455398 0.0034640231 -0.040540695 -0.017391827 -0.0384638 0.07488134 0.026124341 -0.013932336
0.01960149 -0.046605602 0.049403954 0.01843233 0.031600073 -0.044225898 0.07856336 -0.011663073
-0.028611472 0.066714965 0.11302045 0.049752794 0.014669007 -0.042917483 0.057486262 0.07021056
-0.08520315 -0.0126588615 -0.061799183 0.020775782 0.029432286 -0.016118871 -0.0101609025 0.025385063
0.005596117 -0.004666316 0.0020295437 0.0031035074 -0.004821932 0.00204251 -0.006174311 -0.013609178
0.003907621 -0.012273136 -0.004741226 -0.00012957511 -0.005343 -0.0028624425 0.0027808791 0.006331537
-0.0068999496 -0.008376893 0.008873093 -0.0015014166 -0.006810492 0.004127394 -0.002468442 0.0026737351
-0.008291914 0.0043866117 0.009490763 0.0030131724 -0.01977381 -0.010456074 -0.011715503 0.0063096336
0.07988347 -0.023193035 0.03842778 -0.07191744 0.022495653 -0.070594765 0.06809133 -0.04847651
-0.03271597 -0.13409147 -0.002704115 0.09170193 0.072730705 -0.06896291 -0.00048572192 -0.018543633
-0.05084969 0.1133397 -0.0008365223 0.008957523 -0.03162714 -0.0736327 0.025586322 0.03969622
0.029982474 -0.0720624 0.11468373 -0.017903242 -0.06589263 -0.025815004 0.12313989 -0.011638353
-0.017739058 -0.039252073 0.0010217335 -0.041058894 -0.071797706 0.024234692 0.05455184 0.05170846
-0.039423782 0.06886982 -0.04668955 0.014142874 0.06545537 0.0500566 0.03542961 0.036784723
0.006029401 0.038498964 -0.04011095 0.00028634962 0.00039683818 -0.009474121 -0.06521668 -0.006097946
-0.014544029 -0.032938007 -0.028987585 -0.05404163 0.011174685 0.017067969 0.049505193 0.0046751797
-0.05765482 -0.11766264 0.007032244 0.04447347 -0.10577525 0.02253482 0.065262504 0.0034365754
-0.05349994 0.10729758 0.04898564 0.024280382 -0.081381366 0.052121546 -0.050451357 0.10063667
-0.027851222 0.053520158 0.029573273 0.009899018 -0.01812212 0.055745374 -0.047088243 -0.071557425
-0.027848639 0.09397683 -0.013982807 0.028708808 -0.03265027 0.02044255 0.051216062 0.018655581
00000000: 1b7c 3dbd 0c4b a33d bfa3 993c d06f 3f3c
00000010: 5eb3 0b3c abd2 21bd ccda 92b9 675c 693d
00000020: 9ea6 4d3c 2915 803c 27b5 86bc 050c eaba
00000030: e458 673d 8539 c43b 69b7 0a3d 5723 7fbc
00000040: dafe 543c 4e74 0d3d 4bd9 303c a965 2c3c
00000050: d3f6 e23c 1889 c63d fcf4 803d d61a d6bb
00000060: 2431 34bd b874 513c 37cc 74bb af1d 80bc
00000070: 4ec3 edba 543d be3b 3a6e 253d 56d2 2939
00000080: 1b0e 21bd f451 4fbd a49d d5bc 9b6f ecbc
00000090: 0050 f63d 0d96 2f3d 04b0 943d 2510 d1ba
000000a0: df24 d53c 06af 273d ff4f e4bd d8dc 1cbb
000000b0: a290 63bc 4598 79bd 9ac3 89bd f213 dd3d
000000c0: baf2 943c 9f4b 153d 1dd9 0b3e e4a0 c43b
000000d0: d198 1bbd e407 673d 22cc cdbc a05f 5ebc
000000e0: d48b a1bd 1f69 1f3d 5663 24bd 13af 443b
000000f0: 6cd9 963d 4457 65bd cc26 05bd 38cf 783d
00000100: 0509 47bd c18d 25bc f840 903d 39b4 2cbd
00000110: 0bb3 d5bd 3436 6cbd 6d50 25bd 82ee 4abd
00000120: 905e 79bd abcd 6b3d 80a2 d23c 0049 e7bc
00000130: 3078 e6bd 0877 2abd f050 32bd 781f 14bd
00000140: 390e acbd 5603 a43c 67f1 d0bd 74e8 3abd
00000150: fdaa b5bd 2fd9 853d ea7a acbd e45a 24bd
00000160: d930 9b3d 722c 9f3d e456 8b3d dca9 f6bd
00000170: 0f84 b1bd 68ff 25bd f03e c73d 39f1 b93c
00000180: 84a5 c1bd aa04 633b 000e 26bd 4e79 8ebc
00000190: 388c 1dbd 635b 993d b702 d63c 7444 64bc
000001a0: 4e93 a03c 84e5 3ebd cd5b 4a3d 66ff 963c
000001b0: 146f 013d 3726 35bd d4e5 a03d 7916 3fbc
000001c0: 9b62 eabc dba1 883d 4477 e73d 96c9 4b3d
000001d0: 4656 703c 3eca 2fbd b776 6b3d 8eca 8f3d
000001e0: fd7e aebd 1d67 4fbc 2421 7dbd f931 aa3c
000001f0: fa1b f13c b90b 84bc ea79 26bc 56f4 cf3c
00000200: a25f b73b e5e7 98bb 1802 053b 3764 4b3b
00000210: 4c01 9ebb a2db 053b e051 cabb 08f9 5ebc
00000220: 800b 803b 4315 49bc 495c 9bbb 8ede 07b9
00000230: 5514 afbb d197 3bbb 693f 363b c878 cf3b
00000240: f918 e2bb 3c3f 09bc 7360 113c 2ecb c4ba
00000250: 8c2a dfbb 173f 873b 96c5 21bb d539 2f3b
00000260: cfda 07bc 91bd 8f3b 257f 1b3c a578 453b
00000270: affc a1bc f44f 2bbc 62f2 3fbc 0bc1 ce3b
00000280: f299 a33d 52ff bdbc 7366 1d3d 7349 93bd
00000290: ce48 b83c fd93 90bd 7873 8b3d 4e8f 46bd
000002a0: 2e01 06bd 464f 09be 8537 31bb 39ce bb3d
000002b0: d6f3 943d 6d3c 8dbd 7ea8 feb9 d1e8 97bc
000002c0: c447 50bd a51e e83d 104a 5bba 93c2 123c
000002d0: 768b 01bd becc 96bd 689a d13c 8198 223d
000002e0: ce9d f53c 7495 93bd 4edf ea3d d2a9 92bc
000002f0: b7f2 86bd fd79 d3bc c430 fc3d caae 3ebc
00000300: 8051 91bc c8c6 20bd b0eb 853a 5f2d 28bd
00000310: ad0a 93bd d587 c63c c071 5f3d 40cc 533d
00000320: d57a 21bd 9f0b 8d3d 8b3d 3fbd 83b7 673c
00000330: 770d 863d 2608 4d3d a41e 113d 94ab 163d
00000340: 4892 c53b 17b1 1d3d 614b 24bd 3221 9639
00000350: b80e d039 5839 1bbc 5390 85bd 47d1 c7bb
00000360: 144a 6ebc 01ea 06bd 5f77 edbc c25a 5dbd
00000370: 0716 373c 20d2 8b3c f5c5 4a3d 4032 993b
00000380: 7627 6cbd 1cf9 f0bd bd6e e63b d029 363d
00000390: b2a0 d8bd f19a b83c 59a8 853d 2b38 613b
000003a0: c122 5bbd d5be db3d 2ba5 483d a7e7 c63c
000003b0: 46ab a6bd 677d 553d 15a6 4ebd 991a ce3d
000003c0: 3f28 e4bc f437 5b3d a643 f23c 7e2f 223c
000003d0: d774 94bc 4355 643d 9adf 40bd b38c 92bd
000003e0: d422 e4bc ed76 c03d 2518 65bc bc2e eb3c
000003f0: 4abc 05bd 2277 a73c efc7 513d 97d3 983c

lstm.bias_ih_l0 f4 [96]
0.024658067 -0.04339572 0.08301276 -0.06516426 0.04842401 0.15241645 0.1021315 -0.106014244
0.13497733 0.04120087 0.08801943 0.15145533 0.0018126207 -0.06404117 0.11846461 -0.041664954
0.046920285 -0.055823646 0.1522498 0.07057963 0.035747234 0.025505837 0.008318177 -0.052653886
0.059794106 -0.07813425 -0.012712897 -0.017264746 -0.06441024 0.14713757 0.037502974 0.09802713
-0.16231705 -0.11182492 -0.07439048 -0.001895635 -0.19869952 -0.004338249 -0.295795 -0.040946055
0.06621453 -0.030325897 -0.07390451 -0.033489276 0.01871619 0.10319244 0.10056694 0.012084874
-0.3234938 -0.053180747 0.041648407 -0.26005575 -0.22402374 -0.23664224 -0.233408 0.02624817
0.051578578 -0.13641344 -0.09943888 -0.15163192 -0.07641216 -0.17648031 -0.13722725 -0.19160861
0.19028229 0.050247572 -0.085399 0.030546257 -0.23095378 -0.01164814 0.15876321 0.032626253
0.058053005 -0.18492593 -0.0965062 0.11752659 -0.14247833 -0.06862504 0.1078368 0.04061697
0.13931197 -0.1505022 0.102761485 -0.05641234 0.06330275 0.15908033 -0.17896424 0.07155344
-0.1492597 0.14706635 0.06121266 0.044593673 -0.05702945 0.082141265 -0.111995876 0.013847882
00000000: b7ff c93c b6bf 31bd 9802 aa3d d774 85bd
00000010: 4158 463d 0f13 1c3e 522a d13d ff1d d9bd
00000020: 7f37 0a3e 3ec2 283d 8843 b43d 1b17 1b3e
00000030: 7595 ed3a 0428 83bd 939d f23d dfa8 2abd
00000040: 7c2f 403d 56a7 64bd 5fe7 1b3e 0e8c 903d
00000050: b16b 123d 9ef1 d03c f748 083c 9aab 57bd
00000060: aaea 743d da04 a0bd c149 50bc cc6e 8dbc
00000070: 84e9 83bd 3bab 163e b89c 193d 73c2 c83d
00000080: 7136 26be 7704 e5bd 095a 98bd f576 f8ba
00000090: e377 4bbe df27 8ebb 7172 97be 0db7 27bd
000000a0: 7c9b 873d 046e f8bc 3f5b 97bd 0d2c 09bd
000000b0: b252 993c 8f56 d33d 0af6 cd3d a3ff 453c
000000c0: fba0 a5be 0ed4 59bd 8597 2a3d 0726 85be
000000d0: 7b66 65be 5852 72be 8202 6fbe 6706 d73c
000000e0: 0f44 533d f7af 0bbe 9da6 cbbd 6645 1bbe
000000f0: fb7d 9cbd 41b7 34be 4d85 0cbe 0c35 44be
00000100: 5cd9 423e 66d0 4d3d ace5 aebd 253c fa3c
00000110: 267f 6cbe d7d7 3ebc d392 223e 1ba3 053d
00000120: fdc8 6d3d 395d 3dbe 0ba5 c5bd c8b1 f03d
00000130: d7e5 11be 498b 8cbd 8ad9 dc3d fb5d 263d
00000140: cca7 0e3e 401d 1abe 9d74 d23d a010 67bd
00000150: dfa4 813d f4e5 223e 6742 37be 9c8a 923d
00000160: 89d7 18be 9098 163e 20ba 7a3d dba7 363d
00000170: b697 69bd ae39 a83d 185e e5bd 3ae2 623c

lstm.bias_hh_l0 f4 [96]
0.11708334 -0.10793609 -0.036739886 0.05429472 0.07781035 -0.006408467 0.107214645 -0.028649539
0.047442902 0.07580111 0.0362454 0.09814151 0.08586626 0.06374206 -0.028859533 0.10188374
0.011043591 0.059663627 0.03095795 0.10897197 -0.063359894 0.05417224 -0.10215366 0.033226665
0.07015653 -0.07835421 -0.014028908 0.05225415 0.06753739 0.14117685 0.05835967 0.051448155
0.00082923006 -0.2676323 -0.01516671 -0.08627942 -0.08249027 0.070050456 -0.1669319 -0.02608799
-0.11209363 -0.04666323 -0.083794646 -0.16481745 -0.07464926 -0.10921705 -0.02665507 0.019408075
-0.14891429 -0.18518902 0.047727242 -0.13494194 -0.0059765643 -0.28644758 -0.17152502 -0.06679791
-0.146233 -0.13993876 -0.1781345 -0.027102096 -0.16615221 -0.088765286 -0.14382239 -0.121383786
-0.11041504 0.1616192 0.16045004 0.14929184 -0.11652659 0.09656492 -0.124303356 0.0931503
-0.0052729435 -0.1635706 -0.20200866 -0.15192471 0.019728594 -0.049144287 -0.092876524 0.1560692
0.001028434 0.073279805 -0.040621135 0.088768095 0.08082941 0.12801997 0.029774409 -0.017197171
0.16688137 0.0039264546 -0.09571625 0.080178596 -0.0077385306 -0.115599416 0.0026693451 -0.063054964
00000000: 64c9 ef3d 990d ddbd 907c 16bd 2464 5e3d
00000010: 085b 9f3d 1efe d1bb 5a93 db3d 70b2 eabc
00000020: 7d53 423d 9d3d 9b3d 0e76 143d 6afe c83d
00000030: a6da af3d 328b 823d d46a ecbc 6ca8 d03d
00000040: 2ef0 343c d961 743d 879b fd3c b22c df3d
00000050: d5c2 81bd b6e3 5d3d f035 d1bd af18 083d
00000060: 3aae 8f3d 2c78 a0bd 81d9 65bc 7308 563d
00000070: 0b51 8a3d aa90 103e 8d0a 6f3d 4dbb 523d
00000080: b060 593a 1a07 89be cb7d 78bc 44b3 b0bd
00000090: a9f0 a8bd 9d76 8f3d 32f0 2abe 7bb6 d5bc
000000a0: 5891 e5bd f121 3fbd 879c abbd e8c5 28be
000000b0: b6e1 98bd 30ad dfbd bc5b dabc affd 9e3c
000000c0: fd7c 18be 31a2 3dbe a47d 433d 382e 0abe
000000d0: 0ed7 c3bb 42a9 92be 41a4 2fbe 58cd 88bd
000000e0: 1bbe 15be 1b4c 0fbe e468 36be 3705 debc
000000f0: ce23 2abe 93ca b5bd 2d46 13be 1098 f8bd
00000100: 4821 e2bd 817f 253e 044d 243e f6df 183e
00000110: 7ea5 eebd d4c3 c53d c292 febd 96c5 be3d
00000120: a8c8 acbb 0d7f 27be 5cdb 4ebe 2792 1bbe
00000130: dc9d a13c 854b 49bd 0c36 bebd 9bd0 1f3e
00000140: 85cc 863a b913 963d 5962 26bd 0ccc b53d
00000150: e489 a53d ab17 033e 76e9 f33c 15e1 8cbc
00000160: f3e2 2a3e 7da9 803b e206 c4bd ad34 a43d
00000170: 8093 fdbb 63bf ecbd 2ef0 2e3b f622 81bd

fc.weight f4 [1, 32]
-0.08189094 -0.103319526 -0.105864294 -0.087684676 0.043178678 0.16391389 -0.15706222 -0.11003454
-0.12854244 0.00915427 0.03588102 -0.14505705 0.10125192 -0.14575791 0.15255682 0.017714368
-0.13085955 -0.06204881 0.07341843 0.15987392 -0.18814273 -0.06900845 0.15616623 -0.043317236
-0.12866925 -0.074634545 0.014095428 -0.05391613 -0.12967293 -0.17693906 0.066551514 0.15283741
00000000: 70b6 a7bd 3099 d3bd 61cf d8bd 0694 b3bd
00000010: 20dc 303d 0bd9 273e ebd4 20be ca59 e1bd
00000020: a1a0 03be cbfb 153c faf7 123d d689 14be
00000030: 2b5d cf3d 9041 15be db37 1c3e b91d 913c
00000040: 0c00 06be e526 7ebd 675c 963d fdb5 233e
00000050: 7da8 40be 4d54 8dbd 0aea 1f3e 6a6d 31bd
00000060: dfc1 03be ffd9 98bd 83f0 663c 29d7 5cbd
00000070: fbc8 04be 832f 35be 294c 883d 6981 1c3e
