src/models/saved_models/dl_lstm_model.pth (torch, 48076 bytes, 9 tensors)

lstm.weight_ih_l0 f4 [128, 9]
00000000: 3788 083e 1ef4 183e 4001 d5bc cc01 2b3e
00000010: 37e9 b6bc 2d6e 4e3d 8224 8abd e7f7 ef3d
00000020: e087 2a3e ab14 01be ba87 133e 7f84 e13c
00000030: 4bb3 f93d 02c1 9c3c 7814 a03d 8121 dfbc
00000040: 5f90 013e 1805 ad3c 43a9 74bd 89ce cf3c
00000050: 1f0e 6fbd d829 58bc f284 4bbd b8ea c13d
00000060: 4937 eebd 3482 74bd df8e 07bd 4041 e2bd
00000070: 40a3 123c 4443 37be 91ad 183e df5a 1fbe
00000080: 9c6d 003e c7c1 9f3c 69c3 87bd 2bed c53d
00000090: 26b5 b23c 3a00 043e 1962 683c 594d 58bd
000000a0: 6db6 253d 82a6 36bd 51b8 863d 6047 133e
000000b0: b400 bc3d 6206 87bd d6fe e53d 8c55 2f3d
000000c0: 9035 cf3d 40e0 c1bd ddd5 24be 8bb1 5ebd
000000d0: 4745 f7bd b7b9 223e e6a6 193d 5279 6c3d
000000e0: 3222 273d 5344 77bc 3440 f63d adaf 04be
000000f0: 466a 63bb 2274 03be 220d 193d 51d6 2dbd
00000100: e73b 673d a493 a4bc b3d7 fe3d a807 adbd
00000110: 3ee3 adbd 0057 adbd 6397 0b3e 481c 803d
00000120: fc37 243e 6781 1cbe 71b1 3abe 0a9a 15be
00000130: 7639 02be c805 7b3d 5461 573d df2f 0a3e
00000140: edd5 d0bd dda8 d3bd 358f a43d a205 89bd
00000150: c3b7 be3d a51a 2cbd 0e00 b23d b60d 01be
00000160: eb02 adbd 87a6 273d ea48 463d e151 ddbc
00000170: 20f2 e83d ab62 033e 2b64 ddbd fbcd 99bd
00000180: 542b 2d3e 1ec0 28bd f20f 31bd 17a5 1fbe
00000190: 6445 b2bd 0c12 663d a390 18bc 512f e6bd
000001a0: e5d9 9b3c 4883 d4bd bafd 06be cb40 a2bd
000001b0: a24d 17be f04b e8bd d8c6 263e 7c3a c33c
000001c0: 1171 333d 7605 28be cd79 f4bd 1cff 87bd
000001d0: 862d 833c 8473 23be 7fd7 aabd d63e e7bd
000001e0: cd4c 13bc 4cbe 98bd 2745 b8bc 9800 04be
000001f0: ec47 06be 10f2 e8bd 14ba 3cbd bbc6 fabd
00000200: f1e9 0c3e ee71 b9bc 6bc9 0f3e ff84 6b3d
00000210: 718f 06be 3411 e63d 0189 08bd 5a1c 3cbd
00000220: cb2f fdbd 7c1d 1cbe 1325 003d f277 94bc
00000230: da2e 443d 737c f9bd 5ea4 dd3d cce9 d9bd
00000240: 6a8c 86bc d252 4c3d eec4 d23d 3620 1d3e
00000250: a5ef 2f3e 5b4c fabd 64e8 743d 9b0a 6fbd
00000260: 19aa 07bb 1129 0bbe b4a8 193e 3fc6 0abe
00000270: b0d9 ab3d 2b1a 543d 392e 3f3d 2804 d5bd
00000280: eff6 163e 7714 db3c 5151 693c 8f22 26be
00000290: 1107 843d 9de8 11bd 37f1 b7bd 2b4a 0f3e
000002a0: 133c e63c 99b3 ddbd 0c1a cebd 7a03 84bc
000002b0: b05f b63d 6047 5abd 74d0 debd 3650 8ebd
000002c0: 5632 10be b068 523d 3358 fd3d c107 35be
000002d0: c900 0b3d a344 a83d 1843 ca3c 5742 89bd
000002e0: 607f a83d 1c83 a83d 9fa7 633d 263b 1ebd
000002f0: 37b4 5dbd aa13 f13c 7838 9ebc d093 24bd
00000300: 490f ff3d 6676 273e 7115 61bb c694 cabc
00000310: c880 913c db84 b23b 0bf3 303d cb6e 5c3d
00000320: 86f9 0dbe 6d33 38bd d760 033e 3c1b 9a3d
00000330: ab4e 263c ecd8 abbd ecc1 aebd cc35 0fbe
00000340: fd6e 5dbd a76e 413d fdbc c73d d73d 8b3d
00000350: 6eed 12be 5775 cfbd 69a9 04bd 775b 1d3e
00000360: b968 083d 7fbc 07bd 8366 a43d 77ca 58bd
00000370: 683e c9bd 2c8d 093e db01 83bd 16d3 9ebc
00000380: 4e23 20be 9a4b fd3d ce8d 103e 0b67 983d
00000390: bf91 debd 389b 22be 9fbf 02be 1c4b 123e
000003a0: 7ffd c83d e9ef 243e 8d69 963d 3210 ff3c
000003b0: 2115 013b 7adb debd b113 01be b298 0fbe
000003c0: 6893 613d c744 82bd 7701 8ebc fbe9 b2bd
000003d0: 2dc7 a6bc d81d e0bd 54d9 ccbd 43d3 8a3d
000003e0: 8245 1abd 6001 ef3d cec1 26bd 625b e3bd
000003f0: 91df a7bc c9a3 97bd 12a5 2dbd 81f0 1ebe
0.13333212 0.14936873 -0.026001573 0.16699904 -0.022328002 0.05039804 -0.067452446 0.117172055
0.16653395 -0.1260554 0.14407244 0.027529 0.121924005 0.019135002 0.07816404 -0.027237656
0.1265273 0.021120593 -0.059731733 0.025367038 -0.058363076 -0.01319357 -0.049687333 0.09468597
-0.116316386 -0.059694484 -0.033095237 -0.11047602 0.008950055 -0.17896754 0.1490996 -0.15562008
0.12541813 0.01950158 -0.066290684 0.09664377 0.021814894 0.12890711 0.014183545 -0.05280814
0.040457178 -0.044592388 0.06578124 0.14382696 0.091798216 -0.06593014 0.11230247 0.042806193
0.10117638 -0.094666004 -0.16097207 -0.054368537 -0.120737605 0.15891157 0.037512682 0.057732888
0.040804096 -0.015091973 0.120239645 -0.1295764 -0.0034700795 -0.1283727 0.03736604 -0.042440716
0.05645361 -0.020089932 0.12443485 -0.08448726 -0.08490609 -0.084638596 0.13631968 0.06255394
0.16036981 -0.15283738 -0.18231751 -0.14609542 -0.12717232 0.06128481 0.052583054 0.13494824
-0.10197053 -0.103349425 0.08035127 -0.066905275 0.093123935 -0.042017598 0.08691417 -0.12602887
-0.08447822 0.040930297 0.04840938 -0.027016582 0.11374307 0.12830608 -0.10810121 -0.07509991
0.1691106 -0.041198842 -0.043228097 -0.1559032 -0.087046415 0.056169555 -0.009311828 -0.11239494
0.019024799 -0.103766024 -0.13182727 -0.079225145 -0.14775708 -0.11342609 0.1628679 0.023831598
0.043809 -0.16408333 -0.11937294 -0.06640455 0.016012918 -0.15962034 -0.08341884 -0.11291282
-0.008990479 -0.07458171 -0.022493912 -0.12890851 -0.13113374 -0.11374295 -0.046075895 -0.12244936
0.13761117 -0.022637334 0.14041679 0.05749988 -0.13140656 0.1123375 -0.033333782 -0.045925476
-0.123626314 -0.15245622 0.031285357 -0.0181236 0.047896244 -0.1218194 0.10822366 -0.10640296
-0.016424377 0.04988367 0.102914676 0.15344319 0.17181261 -0.12221595 0.059791937 -0.058359724
-0.0020700751 -0.13589884 0.15005761 -0.13552187 0.0839113 0.05178277 0.04667494 -0.10401183
0.14742635 0.026743157 0.014240579 -0.1622412 0.0644666 -0.035622228 -0.08981555 0.13993137
0.028104817 -0.10825271 -0.10063562 -0.016114939 0.0890497 -0.053290725 -0.10879603 -0.06948893
-0.14081702 0.05136937 0.12370338 -0.17678739 0.033936296 0.082162164 0.024690196 -0.067021064
0.0822742 0.08228132 0.055579778 -0.038630627 -0.054126944 0.029428322 -0.019314036 -0.040180027
0.12454087 0.16353759 -0.0034345055 -0.024729144 0.017761603 0.0054479665 0.043200534 0.053816598
-0.13864717 -0.04497092 0.1282991 0.07524726 0.010150592 -0.08390984 -0.085330814 -0.13985366
-0.054060925 0.047224667 0.097528435 0.067989044 -0.14348385 -0.10129803 -0.032388125 0.15366922
0.033302996 -0.03313875 0.08027365 -0.05292746 -0.09826356 0.13432759 -0.06396838 -0.019387763
-0.15638468 0.123679355 0.14116594 0.07441529 -0.108676426 -0.15879524 -0.1276841 0.14286464
0.098139755 0.16107143 0.07344351 0.031135652 0.0019696432 -0.108817056 -0.12605168 -0.14023092
0.05507222 -0.063607745 -0.017334683 -0.087360345 -0.020358646 -0.10943192 -0.100023896 0.06778576
-0.037663944 0.11670184 -0.04071217 -0.11101414 -0.020492347 -0.074042864 -0.04239375 -0.15521432

lstm.weight_hh_l0 f4 [128, 32]
00000000: f6b5 283d 0ee7 ad3c 269e abbd f893 823c
00000010: 6e95 113e 2dbf da3d 1ec9 12be 5fdc 123e
00000020: a18a b83c 9993 9b3d bceb e63d c3f1 183e
00000030: cd55 f8bd 760f 213e 09e0 e1bd c275 0b3a
00000040: e885 e9bd 1adb 35bd e076 df3a f15a f4bc
00000050: 9e17 8cbc a9c1 343b b600 183e 1e64 943d
00000060: 909f bc3d 3fc2 6a3d 254b f13d 613f fe3a
00000070: f099 5b3b 65b1 cb3c 4395 23be d98d 02be
00000080: 4416 d83c c6c3 79bd fbfc a6bb 990e 0ebd
00000090: 0734 ab3c 24ea ef3d 739a 58bd 4480 0e3e
000000a0: e620 073e 6f97 04be 22f8 e0bd 234d 11be
000000b0: 5019 c5bd d708 94bd e74f ebbb e381 febc
000000c0: bdb4 a0bd e09e 4cbd 7f8c 89bd 53dd 323e
000000d0: 7dc5 8bbd 2eb1 f0bd a60e 7f3d 590d 4abc
000000e0: 6638 fa3d 840e e63d c154 1a3e c764 ecbd
000000f0: a9aa ee3d 05a9 193e 99bd a6bd 657c 1d3e
00000100: e9ff dc3d 17b7 bf3a 5ae6 813d 6a24 36bd
00000110: d210 05be a8b8 f23c d1bb 283d 4c49 c0bd
00000120: d7e8 8a3d aa30 01be cec6 033e 207c 183e
00000130: 6335 fc3c 5091 b6bd b39c 7c3d e16f 253c
00000140: 8eac c43c 340c 1d3d a2a0 ea3d acea 72bd
00000150: 9d4a cdbc b0dc ee3c 8338 9a3b 3136 f53d
00000160: c47e 8cbd ebda 8bb8 4057 4d3c ac2e c6bc
00000170: 6f52 c73d 41fb 6c3c 252c 14be cd07 5ebc
00000180: ce38 95bd f78b b03c 85ed a7bc 62ee 2abe
00000190: 1191 08bd 24dc 26bc c8b1 3abd 72ec 283e
000001a0: 012c 34bd a424 d63d c010 f43c 948c 1cbe
000001b0: 86ec 0f3d fb9f 0e3e caa3 d6bd 5ca2 cabd
000001c0: c4bf 2f3e 8955 143e 004d d3bd 0994 e33d
000001d0: f813 e6bc 3ec2 28be ec3d a73b e9b9 453d
000001e0: 9dd7 6abd f9c2 893d 6b6f 0fbe 9e39 e03d
000001f0: f446 1f3e 336d d23d 1d74 123d 5985 503d
00000200: 946a eebd a1d9 08bd b0d6 1cbc 0251 b1bd
00000210: 4cb9 d7bd 4b46 e23d fa2e ee3d aa4e 12be
00000220: 7627 463d 0a59 6d3d 096e 143e da1e b43d
00000230: 8c4b 153e c24d 6abd 038e cd3d 9701 f23d
00000240: ee06 17be a0f3 02be 7072 ef3c 3e97 bd3d
00000250: 1f52 a6bd 2f7b a73c c3eb 53bb 4f44 f73c
00000260: ef8c 98bd 0df1 bb3d d78e c33d bd0d c2bd
00000270: caf3 b23b 9759 8c3b e693 6c3d 565b 1a3e
00000280: 735f 2d3d da81 3cbd d7a4 173e 35f4 98bd
00000290: d156 34bd 1c0a 323b d12e 12be 5f79 0c3c
000002a0: ba20 e3bd c170 cb3c 5d66 eb3c 5124 0d3d
000002b0: c0ce 0ebe 3c9f 22be 2743 8f3d 1a68 0a3e
000002c0: aff8 26be 6e49 6a3d d9dd f7bd 59e6 353b
000002d0: 0d38 2f3e 6ac8 fc3d 601a edbd 47ed de3d
000002e0: ebe4 cc3d 3e9d 21bc 67c2 233e 9ddb 6fbd
000002f0: 5497 4cbd e36d c8bd 82c7 8a3c 8bbe 643d
00000300: cea6 4c3c 3e87 a8bd 6332 65bd 7701 523d
00000310: 930d 04be 7af3 c2bc d95d 63bb a96e 6dbd
00000320: fef4 673d 47a8 e93b 4510 cf3d a3e6 40bc
00000330: c788 bfbd 74a5 e93d 4b74 7f3c e4b8 01bd
00000340: 93e6 c6bd 9c31 0f3d f26f 1cbe aae1 2b3d
00000350: 6ac0 9b3d eb7e 0dbe 4489 b8bd 0146 cfbd
00000360: 3ff4 023e 8795 083e 9e93 e93b 9e62 133e
00000370: a775 59bd 7c0a 21be 048e 6c3d 23cc 603d
00000380: f5a5 1d3e 4e40 d5bb e348 e43d 8456 b73d
00000390: 31cc d33d a439 21be f5c5 023e ad9d 00be
000003a0: 6043 133e 7312 133b dbb2 08be 5ff6 563d
000003b0: 691d a9bc 8a6d 0fbe 75f0 36bd a262 523b
000003c0: 9595 ed3d 82d0 53bd a7fc cc3d 0980 153c
000003d0: 5ac3 7e3c 3e13 983c c173 c1bd 6ea7 febd
000003e0: 3661 16bd c442 15be 2b7c 68bd 0789 173c
000003f0: fd1b efbd d9d2 9dbd 0711 2abd 2778 d8bb
0.041189156 0.02122834 -0.08379774 0.015939698 0.14217159 0.10680995 -0.14334533 0.14341877
0.02252704 0.075965114 0.112754315 0.14935975 -0.1212574 0.15728554 -0.110290594 0.00053199765
-0.11402494 -0.044398405 0.0017048977 -0.02982852 -0.017101105 0.002758125 0.14844021 0.07245658
0.09210122 0.057314154 0.11781911 0.001939755 0.0033508502 0.024864862 -0.15974908 -0.12749423
0.026377805 -0.06097772 -0.0050960756 -0.03468189 0.020898832 0.11714581 -0.05288167 0.13916117
0.13196144 -0.12948392 -0.109848276 -0.14189582 -0.096239686 -0.072282486 -0.007181156 -0.031067794
-0.07846973 -0.049956203 -0.06716251 0.17467241 -0.06824777 -0.11752544 0.06226983 -0.012332284
0.122177884 0.112332374 0.15071394 -0.11542659 0.116536446 0.15005882 -0.08141632 0.15379484
0.107909985 0.0014626709 0.06342764 -0.04446832 -0.12994698 0.029629067 0.04119474 -0.0938898
0.06782692 -0.1261622 0.12868807 0.148911 0.030787176 -0.08914435 0.061672878 0.010097475
0.024008062 0.038341716 0.114564195 -0.05930583 -0.025059992 0.029157966 0.0047064438 0.11973227
-0.06860116 -6.668813e-05 0.012533009 -0.024192177 0.0973252 0.0144642005 -0.14469965 -0.013551665
-0.07286225 0.021551115 -0.020499 -0.16692498 -0.03334147 -0.010184322 -0.0455797 0.16496447
-0.043987278 0.104562074 0.029793143 -0.15288001 0.035137676 0.13928215 -0.10480459 -0.09894249
0.17162997 0.14485754 -0.10317421 0.1111222 -0.028085694 -0.16480348 0.005103817 0.048273
-0.05733453 0.06726641 -0.14007346 0.109484896 0.1555441 0.10274734 0.035755266 0.05090842
-0.11641422 -0.033410672 -0.00957267 -0.08658029 -0.105333894 0.110485636 0.11630054 -0.1428782
0.048377477 0.057946242 0.144951 0.08794947 0.145796 -0.057203062 0.10036852 0.118167095
-0.14748737 -0.12788248 0.029229373 0.09257363 -0.08121132 0.02044448 -0.003233657 0.03018394
-0.07448756 0.09176836 0.09548729 -0.094752766 0.005461191 0.004283141 0.057758234 0.15073904
0.042327356 -0.046022274 0.14808975 -0.07468454 -0.044028107 0.002716667 -0.14275672 0.008573859
-0.110902265 0.024834039 0.028735334 0.034458462 -0.13946056 -0.15881056 0.0699523 0.13516274
-0.16305803 0.057198934 -0.12102861 0.0027755706 0.17111225 0.123429134 -0.11577296 0.10885101
0.100046 -0.00986415 0.15992127 -0.05855905 -0.049949005 -0.09786584 0.016940836 0.05584578
0.012490941 -0.082289204 -0.055956256 0.05127093 -0.12895803 -0.02379774 -0.0034693389 -0.057966862
0.056630127 0.007130656 0.10110525 -0.011773738 -0.0935226 0.11408511 0.015591691 -0.031670466
-0.09711947 0.03495942 -0.15277079 0.041963257 0.076050594 -0.13817947 -0.09010556 -0.10120774
0.12788485 0.1333829 0.007128193 0.14393088 -0.053090718 -0.15726656 0.057752624 0.05488218
0.15395339 -0.00650791 0.111467145 0.089520484 0.10341681 -0.15744644 0.12770827 -0.12560149
0.1438117 0.0022441417 -0.13349478 0.05248105 -0.020643907 -0.1400663 -0.04466291 0.0032102247
0.11600796 -0.05171252 0.10009127 0.009124764 0.015549505 0.018563863 -0.094459064 -0.124342784
-0.0367138 -0.1457625 -0.05675904 0.009248978 -0.1167526 -0.077062316 -0.041520145 -0.00660612

lstm.bias_ih_l0 f4 [128]
00000000: 48a2 313d aeb3 843d 3ab6 c93d dbe8 e53d
00000010: 60b9 f83d 3233 a43d d657 063e 0254 023e
00000020: a761 15bd 7984 3c3c 01e8 9bbd 817f fcbd
00000030: e5c5 243e 0278 0dbe 0b32 cdbd 4357 1cbe
00000040: 97ec febd c38a 093d 99a8 9f3d d165 1dbe
00000050: f2a0 173c 5fc0 f8bd 82aa 383d 9d6d ca3d
00000060: 7edf 70bd 7b07 8cbd 1bad df3d 227b d6bd
00000070: 4836 e1bc b186 0cbe dd71 ef3d 3394 853d
00000080: 8499 73bd d44d f53d 6bb3 223e 9d60 863d
00000090: 9b48 03be 4d1a f8bc 1e68 123e 66fb 0e3e
000000a0: 057b 84bd 7b6a e33d 91c0 d0bd c873 683d
000000b0: 8ab3 183e dab2 d33c 483c 05be 9acf 843d
000000c0: f0fe db3d a7d0 ee3d c7f0 fabd 6688 1cbd
000000d0: 9a46 7bbc 5711 b7bc fe3b debc 8c9a 8bbd
000000e0: 485a 8f3d d201 be3d 5f61 1cbd b421 163e
000000f0: 0928 e83b 0320 523d d77e 193d 2a48 54bd
00000100: b29c 94bc c7cf 4dbc 588a 743d 2f3e b4bd
00000110: 7b2c b5bd 4fbe 36be 16ab a2bd 2fb8 383d
00000120: 2c21 0b3e 1589 38be 1e8e 62bd ba37 f43d
00000130: d098 d2bd 4f00 e73d f678 b9ba c605 36be
00000140: 9485 b13c fb91 cabd 8dd4 e13c 1213 1bbe
00000150: 6a3e 233e b6f9 aabd c76e fb3d 0a2c f1bd
00000160: c05e 0fbe eda1 7a3d 2827 e63d 78b3 cd3b
00000170: 0925 21be 3b85 67bd 8034 ecbd 4e11 6d3d
00000180: 7441 1f3d 0587 f03d 3e4f 293e fc41 b4bd
00000190: 3ab6 093e 4caf 063e 49c5 d33c 57b3 22be
000001a0: d79f 04be 7f9d 933d 43f7 153e 7211 d43d
000001b0: ec2f 2d3c 0d7a e9bd 4451 14be 833a acbd
000001c0: 9f95 453c 0d1f 883c 5d82 033e 1303 09be
000001d0: 2016 b33d 3f71 223e 624a 16be 5832 cbbd
000001e0: d4b6 25bd c8b7 2f3d e8ca 1a3e 78f7 363d
000001f0: dc42 033e 872b 1c3e c5f7 063e 8cdc 1bbe
0.043367654 0.06479584 0.0984921 0.11226054 0.121447325 0.08017577 0.13119444 0.12727359
-0.03647008 0.011506193 -0.076126106 -0.12329007 0.16091116 -0.1381531 -0.100193106 -0.15267663
-0.1244747 0.0335796 0.07795829 -0.15370871 0.009254681 -0.12146067 0.045084484 0.09884188
-0.05880689 -0.06837364 0.10921689 -0.104727045 -0.027491704 -0.13723256 0.116916396 0.065224074
-0.059472576 0.11977735 0.15888755 0.06561396 -0.12820666 -0.030285979 0.1429753 0.13963088
-0.064687766 0.11104294 -0.10192979 0.056751043 0.14912239 0.025842119 -0.13011277 0.06484909
0.10741985 0.11660891 -0.12252956 -0.038216017 -0.015336657 -0.022347135 -0.027128216 -0.06816587
0.06999642 0.09277691 -0.038178798 0.14661294 0.0070848507 0.05130006 0.03747448 -0.051826634
-0.018141124 -0.012561745 0.059702247 -0.08800923 -0.088463746 -0.17846034 -0.07942788 0.045097526
0.13586873 -0.18021043 -0.055311315 0.119246915 -0.10283053 0.11279356 -0.0014150429 -0.1777564
0.02167014 -0.09891125 0.027567172 -0.15143993 0.15941778 -0.0834841 0.122769885 -0.11775978
-0.14000988 0.06118958 0.11237937 0.006277498 -0.15736784 -0.056523543 -0.11533451 0.05787783
0.03888078 0.11744503 0.16534135 -0.08801648 0.1344842 0.13152808 0.025850909 -0.15888725
-0.12951599 0.07207774 0.14645104 0.1035489 0.0105705075 -0.114002325 -0.14484125 -0.08409598
0.012059598 0.016616369 0.12842698 -0.13380079 0.087444544 0.15863512 -0.14676812 -0.09921712
-0.04045756 0.042899877 0.15116465 0.0446696 0.12818474 0.1525098 0.13180454 -0.1522085

lstm.bias_hh_l0 f4 [128]
00000000: a327 d6bd 4685 88bc f402 a9bb 6be9 0b3c
00000010: c098 123e 59ef 2c3e cc51 52bd 6d76 8bbd
00000020: 7ee6 f13b d895 923c b662 fe3d 23ed 933d
00000030: ae6d 473d b412 523d f79b 0f3e c6cb ee3d
00000040: 141c ddbb 9ed6 04be a4f1 e53d 302a abbc
00000050: f542 06be 53f0 a7bc bce6 0f3e b6bd b0bd
00000060: 69bf 05bc 5e88 8c3d db96 f73d 6c12 90bc
00000070: c33a f2bd cc34 83bd caea 82bd 5da4 e63c
00000080: f95d dfbd c046 193e 1ee7 2e3d 70de 08be
00000090: 4515 bb3d 3082 8c3c 258d 313e af51 113c
000000a0: 796f 12bc e737 32be 742b 07be 8d40 243c
000000b0: 44c4 123e f143 ecbd 8c0e 333d d969 d7bd
000000c0: 0d66 02be dc85 91bd 202a ffbd bd49 1cbe
000000d0: 06ec 76bd 9b99 7fbc 4468 ca3d 344d 9a3d
000000e0: 0b0d e43b e878 00bd 843d 29bd 9385 0bbe
000000f0: 99f7 053e f98e 2a3e 2e3c 2dbe b62d 24be
00000100: 4029 34be d2bb aebc 7575 f7bb c221 debd
00000110: 2a0a b93d 5786 793b c661 bcbd 6286 3abe
00000120: f3c6 053e 8a5f 2d3e db40 ca3c a7e9 9cbd
00000130: f04e d73d 0dee c73d 68e2 0abd 7ab9 1d3e
00000140: 9429 0ebe 798e 58bc fd70 123e bcc8 d1bd
00000150: c592 7abd d96d aabd 4a36 80bd 38b7 183e
00000160: dfca ef3d 2c18 2dbe b1c3 d0bd f336 b63b
00000170: 0bd9 85bd 5acf d7bd b096 2abe 277d 0d3e
00000180: e811 df3d c7aa 3c3d 7bc9 2cbd 7dd3 35be
00000190: 96c8 76bc f550 9c3d e3f1 53bd 6367 1a3e
000001a0: ecd8 083d 10a8 54bc b7f7 ae3d 0343 cf3d
000001b0: 4b94 0abe 4bc4 403d 9ec0 19be 3e18 afbc
000001c0: d61d 3ebd 1630 033e 343e 35be 12b9 663d
000001d0: fd75 29be 4c4d af3d b7b0 5e3d 1935 99bd
000001e0: 4616 793d 9ca3 363e 6e47 d03d 4c9c 1bbe
000001f0: 9f09 18bd 99dd 2d3e e963 a73c 067a fb3c
-0.10456779 -0.016665112 -0.0051578227 0.008539538 0.14316082 0.16888179 -0.05134754 -0.06809697
0.007382213 0.017893717 0.12421171 0.072229646 0.048688583 0.051287368 0.1402434 0.116599604
-0.006747732 -0.12972495 0.1122773 -0.02089414 -0.1311148 -0.020500338 0.14052862 -0.086299345
-0.0081633115 0.068619475 0.1208932 -0.01758691 -0.11827614 -0.064065546 -0.06392439 0.028154546
-0.10906596 0.14968395 0.04270088 -0.13366103 0.09134916 0.017151922 0.17338999 0.008869573
-0.00893771 -0.17404138 -0.1320017 0.010025156 0.14332682 -0.11536396 0.043715045 -0.10518236
-0.12734242 -0.0710561 -0.124592066 -0.15262504 -0.060283683 -0.015600587 0.09883168 0.075342566
0.0069595627 -0.031365305 -0.04131843 -0.13625173 0.13082732 0.16656102 -0.16917488 -0.16033062
-0.1759386 -0.021329794 -0.0075518438 -0.108462825 0.09035142 0.0038074458 -0.09198336 -0.18215325
0.13064174 0.16930977 0.024689129 -0.07661753 0.10513103 0.097622015 -0.033907324 0.15402785
-0.13883048 -0.013217562 0.14300914 -0.10243365 -0.061175127 -0.08321733 -0.06260355 0.14913642
0.117086165 -0.16903752 -0.10193575 0.0055607497 -0.06535538 -0.10537596 -0.16659045 0.13817273
0.10892087 0.046061303 -0.042184334 -0.17756458 -0.015062472 0.07632629 -0.051744353 0.15078501
0.033409998 -0.012979522 0.085433416 0.10120203 -0.13533132 0.0470622 -0.15014884 -0.021373864
-0.046415173 0.12811312 -0.1769951 0.05632884 -0.16548915 0.08559665 0.054367747 -0.07480831
0.060812257 0.1783585 0.10169874 -0.15196341 -0.03711855 0.16979064 0.020433383 0.030697834

lstm.weight_ih_l0_reverse f4 [128, 9]
00000000: 3d0f 6b3b f41c 61bd bd87 32bd ce44 dd3a
00000010: 0c49 eb3d 6b03 4abd ffe6 41bd b877 9f3c
00000020: 0490 7bbd 4b06 123e cf59 fb3d 1530 c339
00000030: 63d1 f0bd 5b14 273d a8bf 0d3e 0329 463d
00000040: 3af4 813d b07a c8bd 6644 23be 85e2 5abd
00000050: 47dd 913c 22f4 2a3e 99a3 4b3d 8645 92bc
00000060: f374 efbc bdde 92bc c5dc 9fbd e20e 98bd
00000070: 50dc b63c cdb6 d83d 405a 0a3e d430 603d
00000080: 9ba3 02be 4b64 163e 2c25 1d3e cebf 84bd
00000090: d477 f73b 168f 163e 56df 53bd 8de5 9f3d
000000a0: cf93 fc3c 0299 bd3d 1b31 783d a324 273e
000000b0: e6b5 0e3e 0b37 02be 11a8 c73d 5096 30bd
000000c0: a02a cebd a2a7 a63c 755c 09bd 73f3 febd
000000d0: fd8b 29be 5a6b dfbd fa33 fd3c b7e7 f13d
000000e0: d68a ec3d 56f8 7a3d 430f 363e 8f0f 08be
000000f0: e48d bebd 3577 ba3d 6f23 11be 4304 263e
00000100: e465 0d3d 668b 50bd fa82 233e 2a76 b83d
00000110: 0148 1b3e 07d6 0c3e 73e6 80bc 68a1 253e
00000120: 2b66 f93c 8223 d13c 309e 8a3d 6ac2 fcbd
00000130: c404 bbbd 5fb5 273e 97f5 ccbd 6b76 c73d
00000140: e8ff db3d 6e72 f7bd 14ce 6fbb 7d01 3f3c
00000150: 8f55 dd3d f12d ebbc 244a 0b3e b07f 00be
00000160: 05ca 5d3d d06f 983d e753 82bd 8f26 71bd
00000170: ee06 e3bd b032 2b3d 778b 5c3d 140b 7bbd
00000180: df1a 093e f48c e0bc 727e e1bc 5959 fe3d
00000190: a0df b73c ac7b aa3d e947 bd3d 1358 eebd
000001a0: d03b 29bc 18a1 113e d122 e2bd 07c6 513c
000001b0: bf2d f33d 68ad 3e3c 8172 38bd b4d2 5d3d
000001c0: a812 16be 4411 083e d175 013e 2e25 62bd
000001d0: 7c1c 8dbd 7f54 afbc 91ed 3c3e fe1f 5abd
000001e0: 4f5f 873d 02e9 1abe b7be 8a3d 5fbd f73d
000001f0: e912 953d 1cb7 063c ada7 ab3c eea4 233e
00000200: 8eab ae3d eb47 f7bc e7af 04be 417a 0d3e
00000210: d038 58bd d8fd f83d 69de acbc fbd6 7ebb
00000220: fd7c 13be 5d65 96bd 93a6 e23b a502 34be
00000230: c9ba 33bd 0832 be3d 22a4 e83d ca80 f33d
00000240: b381 17bd 0a0b db3c 7e16 fbbd 81e3 c93d
00000250: 842d 363d fcdd 193e 4c07 27bc 3257 2c3e
00000260: c56b c93d c3b7 093e ebaf 84bc c474 03be
00000270: 7ff0 04be 5e85 1fbe 11bb a63c 823d 05be
00000280: 949a 73bd 420a 9c3d b7e1 163e 0065 53bd
00000290: 16e4 e13d 455e b8bc d910 35bd 9ded fbbc
000002a0: 9274 b5bd bde7 123d 40c4 51bc bc5e 95bd
000002b0: 3b8a f73d eee8 85bd bf01 d7bd 0ed2 953d
000002c0: e74a 523b e865 a6bd 9c2f 02be 197c 14bd
000002d0: e6d9 e3bd 279f 9f3d 8155 b0bc 6dff 953d
000002e0: 765c 8c3d c4e1 803b 6281 e8bc 8620 9fbd
000002f0: cf11 d43c 4f55 11be 2ce7 98bd 1ac1 1a3e
00000300: 7204 b7bc 9c7a 1d3e 6624 ef3d e984 c3bc
00000310: 09c0 02be 4f4b 1f3e 8b5a ca3c 2b6a 343e
00000320: 7531 17be d11d 443d a361 0ebe 51a2 07bc
00000330: 089a 0fbe 58da 14be 28d9 c63c 3edf 193e
00000340: e7a5 e13c 7df4 303b cea9 113e ba65 073d
00000350: d29b 9abd edef c83d 05b4 e53d aa06 0c3e
00000360: 8179 173e a80c 333e d5e5 52bd 21dd 203d
00000370: 0cd8 49bd a0d8 01bc 014c 1e3e 5b0e fabd
00000380: f5ee e73d d521 cebd 3823 87bb ef5b cfbc
00000390: c586 a6bd 53f1 163c 5e16 babd 3006 183e
000003a0: ac79 88bd 049a cd3d af08 afbc ab18 edbd
000003b0: 278d ea3d 49dc e0bc 8b20 4fbd d84d 693c
000003c0: f8fa f43b c3db 063d f848 abbc 6503 00bd
000003d0: f5a7 a03d 81de 873d ba17 0b3e 2a72 e23c
000003e0: 411d e0bc a109 aabc a0e5 93bc 2adc 19bd
000003f0: 5f29 45bd ad86 19bd cde8 843d 4bbd a73d
0.0035867237 -0.054959252 -0.04358648 0.0016881467 0.11488542 -0.049319666 -0.047339436 0.019466266
-0.06141664 0.14260213 0.12272989 0.00037229122 -0.11758687 0.040790897 0.13842642 0.048378956
0.06345411 -0.09789026 -0.1594406 -0.053438682 0.017805709 0.16694692 0.049716566 -0.017855417
-0.02923057 -0.017928476 -0.0780578 -0.07424714 0.02232185 0.105817415 0.1351099 0.054734066
-0.12757723 0.14686696 0.15346211 -0.06481896 0.0075521264 0.1470302 -0.05172666 0.07807455
0.0308322 0.092576995 0.060593706 0.1632257 0.13936576 -0.1271631 0.09748853 -0.0431121
-0.10066724 0.020343605 -0.03353544 -0.12448778 -0.16557308 -0.109091476 0.030908573 0.11811774
0.11549918 0.061271988 0.1777926 -0.13287185 -0.09304407 0.09104768 -0.14173673 0.16212563
0.034521 -0.05091419 0.15967932 0.09006913 0.15164186 0.1375352 -0.015734887 0.16174853
0.030444225 0.025529627 0.06768453 -0.12341769 -0.09131768 0.16377781 -0.1000778 0.09739383
0.107421696 -0.120823726 -0.0036591338 0.01165807 0.10807335 -0.02870843 0.13602501 -0.12548709
0.05414774 0.074432015 -0.06363659 -0.058874663 -0.11085306 0.041796386 0.05384394 -0.06128986
0.13389157 -0.027410962 -0.027526114 0.124193855 0.0224455 0.0832437 0.092422314 -0.116378926
-0.010329202 0.14221609 -0.11041797 0.012803561 0.1187396 0.011638023 -0.045031074 0.05415602
-0.14655554 0.13287836 0.126426 -0.05521124 -0.068901986 -0.021402596 0.1845 -0.053253166
0.066099755 -0.15127948 0.06774657 0.120966665 0.072789975 0.008222368 0.020953977 0.15980884
0.08528815 -0.03018566 -0.12957726 0.13816167 -0.052788556 0.12157792 -0.021102147 -0.0038885463
-0.14403148 -0.07343552 0.00691683 -0.17579134 -0.043879304 0.092868865 0.11359431 0.11889799
-0.036988925 0.026738662 -0.122601494 0.09857846 0.044477 0.15026087 -0.010194611 0.16830137
0.098350085 0.13449006 -0.016197165 -0.12837511 -0.12982367 -0.1557822 0.020352872 -0.13011745
-0.05947359 0.07619144 0.14734541 -0.051609993 0.11029832 -0.022505889 -0.04420552 -0.030752951
-0.08860125 0.035865534 -0.012803137 -0.0729346 0.12086912 -0.065385684 -0.1049838 0.073154554
0.0032088102 -0.08124906 -0.12713474 -0.03625116 -0.11125545 0.07794028 -0.021525146 0.07324109
0.06853573 0.0039331634 -0.028382007 -0.07769875 0.025887398 -0.14192699 -0.074659675 0.15112725
-0.022340987 0.15378803 0.11676864 -0.023867087 -0.12768568 0.15556072 0.024701377 0.17618625
-0.1476496 0.047879998 -0.13904433 -0.008278445 -0.14023602 -0.14536417 0.02427347 0.15026566
0.027544929 0.0027001195 0.14224932 0.033056 -0.075492516 0.09811387 0.112159766 0.13674417
0.14792444 0.17485297 -0.051488716 0.039273385 -0.049278304 -0.007925183 0.1545868 -0.12209769
0.11324874 -0.10065047 -0.0041240714 -0.025312392 -0.08131174 0.00921281 -0.090862975 0.1484611
-0.06663832 0.10039142 -0.021366445 -0.11576971 0.11452704 -0.02744879 -0.050568145 0.014239751
0.007476207 0.032924425 -0.020908818 -0.031253237 0.07844535 0.06634236 0.1358327 0.027642328
-0.0273577 -0.020756545 -0.01805383 -0.03756348 -0.048135158 -0.037481952 0.06489716 0.08190402

lstm.weight_hh_l0_reverse f4 [128, 32]
00000000: d138 003e 24b2 893d 7af2 c23d 10dc 0ebe
00000010: b0d3 d83d 327f fd3c 2a4c 1abe affe 173e
00000020: 5900 e73a 6ea5 8b3c f0c1 f83d f954 b33d
00000030: 704e 073e 7a08 0dbe 97ad 213e ee1b 233d
00000040: a98a 473b ee9b f0bd cf23 9cbd 9b0a 1a3e
00000050: 9d8a da3d f871 fa3d 6dbf 07bc acd5 91bd
00000060: 8f4a 1d3d cbd3 8ebd 52bf c1bd dc15 193d
00000070: 2cef f53d 80a3 ebbd bf76 0bbe ef29 6f3c
00000080: ccf4 5fbd af6c afbd 65a5 26bd c4bd 99bb
00000090: 772b 2ebd 1468 083e af90 c83d f3d2 423d
000000a0: 6d22 41bd d50b b4bc 4dba e73d 6b6d 8d3c
000000b0: 6f73 23be b9c9 283c e0d8 ad3d 384c 21bd
000000c0: 09af bfbc 38fa 8dbc fb7e d43d 1da0 073e
000000d0: 2045 f8bd 2d47 de3d 05b4 9d3d e548 4f3d
000000e0: 1d2d bdbd 5a64 bebd 2073 263e 2e7a 083d
000000f0: 178d 33bd 7fb9 22bd a2c0 eb3d 472d 46bd
00000100: 2a7f dd3d 4d07 61bd 445f 4c3d f001 193d
00000110: 0864 c7bd b414 7dbb 475e ce3c 6399 23be
00000120: bfa3 32bd 454f ed3c da1f 093e 02b4 fa3c
00000130: 6542 1cbe a1bb 28bd 450d 3a3e daed f6bc
00000140: cf9d ef3d c019 4f3c d7d0 d33d 0f81 81bd
00000150: 6ac3 1e3e 0bcc 3b3d 79ec 37bd 94e9 0a3e
00000160: 6235 9d3d e26e fdbd 64ea afbc 809d d93d
00000170: fd69 573d bf3a 3ebd c324 eebd 6041 e5bd
00000180: ff9e c03d ff95 9a3d 651b 1abe 8355 f1bc
00000190: 1d68 413d eeec 15be 4185 103e 82c9 b7bc
000001a0: 967b 74bd e5a7 163c f756 7c3d cd69 123d
000001b0: d83c 213e fc6a b43d b578 b1bc b68c 073d
000001c0: c548 123d 7d91 66bd 60da 0abe 8bd2 acbc
000001d0: ac24 51bd 6cb7 28be 3e8d 873d fe46 81bd
000001e0: e20a 293e 6640 823d 486f 843d 0ca5 133d
000001f0: ffbd 723d 5222 d23d b6f2 f23d ec62 67bc
00000200: 7299 30bd 30ad 263d f91c 91bd 0e4f f5bb
00000210: 800f 423d 63b6 963d d7e8 1dbe 03e8 743d
00000220: 4a3c 68bd eb2e cbbd cef7 84bd 0062 f1ba
00000230: 088b 9b3d 9165 0fbe 752c 363d fecf 173e
00000240: 6869 a6bd 1028 ef3c d78a 6dbd 565c 0c3d
00000250: 63f4 5b3d 2738 cfbd fb43 233d eb28 1e3e
00000260: 1da1 383c 093b eabd e95a 423a 741e c53c
00000270: c596 423d eb1e 3ebc 8ca4 f9bc 17e0 9ebd
00000280: ddd8 f43d f3b0 bebd 06d2 88bd 5160 fb3d
00000290: 72e1 9bbd 0238 88bc 5e65 80bd 7f93 26be
000002a0: e8af bc3d 30b0 b3bd a790 99bd fd44 08bd
000002b0: e512 5e3d d72f 163e 101a 183e 463e 083c
000002c0: 9d87 0fbe ce4c 8e3c 549e 203c 5bc5 0e3e
000002d0: 0ab9 fcbc 5e88 30be 1675 913d 1a00 3dbd
000002e0: 4a07 8c3d 2cb2 713d d0a2 8d3d fba1 b33d
000002f0: 879d 05be 67d3 18be 9728 2d3e 52c9 1c3e
00000300: 78b2 96bd 9fcb 1a3e 195a 383d e33f 5cbd
00000310: 023d d1bd 5ff8 cdbd 4b20 fd3d 22a4 bbbd
00000320: 342f 9ebd 10ad 1c3e 0b20 abbd e6f0 1d3e
00000330: 79b6 823d f19c bc3d fcc6 523d c0f4 23bd
00000340: 7ecb 733d 9ce5 163d 9fd1 acbd 4103 01be
00000350: 98f4 f0bd f9ba 0abc 859a 173d 1cb2 bcbd
00000360: 59cc 9c3c cdaf b13d c14f ad3d ba1f 3fbd
00000370: fd39 503d ae2a 0fbe 092c e03d b0bc fdbd
00000380: 02e8 d0b9 b16d 6ebd 6c97 06be 1e12 1dbe
00000390: 9d34 f4bd 37d1 08be 56ee f23d 1b65 76bc
000003a0: 2ab5 f4bd 40c3 643c 824f a5bd 67af e0bc
000003b0: 2672 0b3e 4717 0fbe 66d1 0ebe a787 053d
000003c0: d88b d53d ec1f 0dbe eeb0 2b3d cefc 2b3e
000003d0: 8ec2 8abc ede8 babd 4351 983d 614a c93d
000003e0: 6dce e8bc 5ee1 14be 4d73 91bb c34d c0bd
000003f0: 112f 0abe 4f56 e83d 17aa d73d 0efc a03d
0.12521674 0.06723431 0.09518905 -0.13951135 0.10587251 0.03094444 -0.15068117 0.14843248
0.0017624005 0.017046656 0.12146366 0.087564416 0.13213515 -0.13772765 0.15788876 0.039821558
0.0030447638 -0.11748491 -0.076240174 0.15043108 0.1067097 0.12228769 -0.008285386 -0.07120833
0.038401183 -0.0697399 -0.094603196 0.037374362 0.12008509 -0.115057945 -0.13619517 0.0145974
-0.054676816 -0.085656516 -0.040685076 -0.0046918113 -0.04252192 0.13320953 0.09793221 0.047564458
-0.04715197 -0.021978298 0.11314831 0.017264089 -0.15962003 0.010302001 0.08488631 -0.03937933
-0.023398893 -0.017331228 0.10375782 0.13244672 -0.121225595 0.108534195 0.077003516 0.050606627
-0.0923712 -0.09296484 0.16254854 0.033319645 -0.043835726 -0.039727684 0.11511351 -0.048383024
0.1081527 -0.054938603 0.04989554 0.037355363 -0.09735876 -0.0038617076 0.02519144 -0.15976481
-0.04361319 0.028968463 0.13391057 0.030603413 -0.15259703 -0.041194562 0.18169124 -0.030142713
0.117000215 0.012640417 0.103425674 -0.06323444 0.15504232 0.045848887 -0.044903252 0.13565665
0.076761976 -0.12374665 -0.02147407 0.10625744 0.052591313 -0.046442743 -0.116281055 -0.1119411
0.09405326 0.07548141 -0.15049513 -0.02945972 0.04721843 -0.14641163 0.14113332 -0.022434954
-0.059688173 0.009195303 0.061606374 0.03574543 0.15745866 0.08809468 -0.021664003 0.033093177
0.03571393 -0.056291092 -0.13559866 -0.021096488 -0.051060364 -0.1647622 0.06618737 -0.06312369
0.16508058 0.06359939 0.06466538 0.036046073 0.059263226 0.10260452 0.118627 -0.014122706
-0.043115087 0.04069251 -0.07085604 -0.0074862307 0.047378063 0.07359006 -0.15420853 0.059791576
-0.05669812 -0.09921058 -0.064925775 -0.0018416047 0.075948775 -0.14003588 0.04447599 0.14825436
-0.081255734 0.029193908 -0.057993736 0.034267746 0.053699862 -0.10118132 0.039859753 0.15445296
0.011268881 -0.11437041 0.00074140594 0.024062373 0.047507066 -0.011604051 -0.03047397 -0.077575855
0.11955426 -0.09311094 -0.06680684 0.1227423 -0.0761136 -0.01662827 -0.06269334 -0.16267203
0.09213239 -0.087738395 -0.07498293 -0.033268917 0.054217238 0.14666687 0.14853692 0.008315628
-0.14016576 0.017370608 0.009803373 0.13942473 -0.030849952 -0.1723952 0.071024105 -0.046142675
0.06837328 0.05900781 0.0691582 0.0877113 -0.13048373 -0.14924394 0.16910015 0.15311173
-0.07358259 0.15116738 0.0450078 -0.053771865 -0.102167144 -0.10057139 0.12359675 -0.09162165
-0.07723847 0.15300393 -0.08355721 0.15423927 0.0638246 0.09209622 0.051459298 -0.040028334
0.059520237 0.036840066 -0.084384196 -0.12598898 -0.117654026 -0.008467429 0.037012596 -0.09213659
0.01914041 0.086761095 0.084624775 -0.046661116 0.050836552 -0.13981125 0.10945899 -0.12389505
-0.0003984571 -0.05821008 -0.131437 -0.15338942 -0.11924098 -0.13361059 0.11861865 -0.015038754
-0.11948617 0.013962567 -0.080718055 -0.027427388 0.13617763 -0.13973723 -0.13947067 0.03260007
0.10427064 -0.13781708 0.04191678 0.16795656 -0.016938474 -0.09126458 0.074373744 0.0982864
-0.028418744 -0.14539096 -0.0044387938 -0.09389832 -0.13494517 0.11344587 0.10530489 0.078605756

lstm.bias_ih_l0_reverse f4 [128]
00000000: 9cf6 ba3c f47f 193e 303b 093d c188 3c3b
00000010: 38b4 51bd f87d f93c 5318 27be e611 29be
00000020: e5b5 38bc 9443 d6bd f99c 02be e847 11bd
00000030: b77a ba3d cc71 c73d aeba 5bbd 820e 98bc
00000040: 2447 333e ba7f 053d 8c75 e73d 0cda 82bd
00000050: 5759 22be 70d1 95bd cbf2 c23c 169f e9bc
00000060: e408 b3bd c696 283e 79d0 16be 584a a43c
00000070: 52bc a43d 3b94 53bd eeb3 8e3d fbed 123c
00000080: dbd6 ddbd 136e d0bd 4944 91bd 3d91 35be
00000090: 02e1 dd3d d017 1f3e 4e01 a5bd 7db0 9d3c
000000a0: 8fbe 8c3d c573 873d c801 d5bd 8421 e5bd
000000b0: 5b3a 293e d767 e43d e7c9 313e 9cc0 f13d
000000c0: 6f5b 1cbb ac4b f23d f5c1 41bc 45ae fe3b
000000d0: fa31 9abd e17f 153e 9db6 eebc acd4 1a3d
000000e0: 1669 07be f596 5f3d 1b98 8ebd 1ada 1abd
000000f0: a642 e8bb dc1f 763d 9bee bd3a 428b 203d
00000100: 2a37 e0bd 6f85 01be 1224 933d 8e39 88bd
00000110: 6f26 1bbe f020 87bd 452d 3bbe 3870 393d
00000120: 6c6a 9c3b 8162 353e 1afd b8bd defc acbd
00000130: a83d 483d 31e7 1bbd b770 153e cddf 093d
00000140: d27d 53bc 7a13 78bd 7262 e93d a3ca 99bd
00000150: 4d72 9e3d 42e3 f83d 1558 16be 0a77 14be
00000160: ef5c ddbd 801e bb3d e71c ddbd ec99 4b3c
00000170: fd2d 0d3d e10b 023d dc69 abbd 9f35 653c
00000180: 6b17 ec3d 08a3 af3d b007 2e3d eaeb 14be
00000190: 10d8 a83d 3a06 9ebd df98 0a3e 00f1 ab3d
000001a0: e8f9 bdbc 5fc5 ab3d 3986 a0bd 4619 cb3c
000001b0: aeeb 7dbc 0d18 533c 56eb 8e3d 3ae1 293e
000001c0: 2387 85bd 10d1 293e 858d 20bd 2a3c 353e
000001d0: 3fc7 013d 33f9 bd3c f004 51bd f1cc 9fbd
000001e0: 8c8f 28be 1170 cfbd 8c36 77bb 13b8 1b3e
000001f0: 617f d83d 2069 d73c ea05 35be afeb 073e
0.02282267 0.14990216 0.03350371 0.0028768035 -0.05119726 0.030455574 -0.16317873 -0.16510734
-0.011273836 -0.10462108 -0.12755193 -0.035468966 0.09105437 0.09738502 -0.05364483 -0.018561605
0.17507607 0.032592513 0.11301717 -0.063892454 -0.15854393 -0.07315338 0.023797413 -0.02851824
-0.0874193 0.16463766 -0.14727964 0.020054981 0.08043732 -0.051655035 0.069679126 0.008967872
-0.10831996 -0.10177245 -0.070931025 -0.17731185 0.108339325 0.15536427 -0.080568895 0.019249195
0.06872284 0.06613878 -0.1040073 -0.11188033 0.16526167 0.111526184 0.17362176 0.118043154
-0.002385821 0.118308395 -0.011826028 0.0077722394 -0.075290635 0.14599563 -0.029139811 0.037800476
-0.13223681 0.054587323 -0.069626056 -0.037805654 -0.0070880232 0.060088977 0.0014490666 0.039195307
-0.10948022 -0.12648557 0.07184614 -0.06651603 -0.1515138 -0.06598079 -0.18278988 0.045273036
0.0047734287 0.17713358 -0.0903265 -0.08446668 0.048886925 -0.03806228 0.14593779 0.0336607
-0.012908416 -0.06056545 0.1139573 -0.07509353 0.07736645 0.12152721 -0.14682038 -0.14498535
-0.10808741 0.09136677 -0.10796528 0.012426835 0.034467686 0.03174961 -0.083698004 0.013989835
0.11527904 0.085760176 0.0424878 -0.14543119 0.08244336 -0.077160314 0.13534878 0.083955765
-0.023190454 0.08387255 -0.07838101 0.024792325 -0.015498085 0.012884152 0.069784805 0.16589823
-0.06519916 0.16583657 -0.039197464 0.17698732 0.031684157 0.023190117 -0.0510301 -0.07802761
-0.16461009 -0.10128797 -0.0037721721 0.15206937 0.105711706 0.026295245 -0.17678037 0.132735

lstm.bias_hh_l0_reverse f4 [128]
00000000: 1477 ea3d 850d aebd 8c93 a43d 5299 1bbe
00000010: 12eb b5bd fa4a 76bd f70b 17be 66b9 3db7
00000020: e77f 393d cfb4 8a3d 5adf 233e c5ad c43d
00000030: 14fd 2bbe 8f8e 39bd 3176 da3d 81cd 33be
00000040: 463a aa3a 02eb 793d 2720 00be e06f 243e
00000050: 290b f3bd 587d f7bd 67db 00be 9cf6 89bc
00000060: 892a 8b3d 72ae 3b3d ec1c 96bd dda2 223e
00000070: ae42 adbd 0573 083e e1f9 563d 122f 47bd
00000080: 02e4 fd3d a792 573d abfe 10be e1a3 ab3d
00000090: 50da 283e 7c18 0ebe e906 e0bc 14c4 06be
000000a0: e81f 033e df78 de3d 8f15 fb3d b805 363d
000000b0: c2c1 10bd 1bb0 09bc d31c fcbd 5162 d93d
000000c0: b4b6 74bd b2fb 663c 5ef9 3bb9 42d8 7e3d
000000d0: 310f 0cbe 03e8 a1bc 1226 b83d eb8a edbd
000000e0: 6ed8 89bd 7a21 d3bd 1c5c 08be 63a0 213e
000000f0: 2629 253e 3b17 d73d 4ff4 1abe 1f76 df3b
00000100: 5461 1a3d 3b11 af3d 6e5e 333d 0106 d1bd
00000110: 146b d03b d73b 0bbe 4235 a23d e563 f83d
00000120: 29a4 92bd e11c 10be 2efd 0f3c ee4b c73d
00000130: dd4b e9bd fbff a93d 9e71 063e 0c1d 0fbe
00000140: f39d b53d f88e b23d 73a4 abbd 37c1 1f3e
00000150: ae14 a1bd 12bd 113e ff1a 13be 508d 1a3e
00000160: 323a 45bd 242c 19be 81de aa3d 797d 99bc
00000170: 4b5c 6c3d 13c1 9b3d 0b3f cf3c 119e 833d
00000180: fb0d 1cbe af44 25be d8d0 97bd 839e c7bd
00000190: 8e40 29be 184a aa3c 6136 e5ba 019b e5bc
000001a0: 9ba0 813a 17a2 cc3d 155a 90bd 446b b53b
000001b0: e3de b7bc 0d1d c33d 866a 37bc baf7 6a3d
000001c0: 7625 67bd fe97 053e 7a00 bb3c bb1e 1f3d
000001d0: c19c 9b3d 885a 2bbe ba5a b03d 45f7 1c3e
000001e0: ea17 eb3d d96f e03d 4c77 01be 43a8 1f3e
000001f0: 4945 4b3d 8976 33be 773d 1c3e c486 153e
0.114484936 -0.084986724 0.08035955 -0.15195206 -0.08882727 -0.060130097 -0.14750658 -1.1308444e-05
0.045287993 0.06772768 0.1600317 0.096034564 -0.1679576 -0.04530197 0.106670745 -0.17558862
0.0012987338 0.061015137 -0.12512265 0.16058302 -0.11867363 -0.12084454 -0.12583695 -0.016841225
0.06795222 0.04582066 -0.07329735 0.1588244 -0.08459984 0.13325126 0.052484397 -0.048628874
0.12397005 0.052630093 -0.14159648 0.08380867 0.1648953 -0.13876528 -0.027347045 -0.13160735
0.1280514 0.10862898 0.12259971 0.044439048 -0.03534103 -0.008403803 -0.12310185 0.106144555
-0.05974455 0.014098095 -0.00017926606 0.06221796 -0.1367767 -0.019763952 0.08991636 -0.11598762
-0.06730734 -0.103091195 -0.13316387 0.15783839 0.16128978 0.10502478 -0.15132259 0.006819501
0.037690476 0.08548208 0.043791227 -0.10206223 0.006360421 -0.13597046 0.07920314 0.12128428
-0.07160217 -0.14073516 0.00878839 0.09731279 -0.11391423 0.083007775 0.13129279 -0.13975924
0.08868017 0.087186754 -0.083809756 0.1560105 -0.078652725 0.14232281 -0.14365767 0.15092969
-0.048151202 -0.14958245 0.083432205 -0.018736588 0.057705205 0.07605185 0.025298616 0.06426633
-0.15239708 -0.16139482 -0.07412881 -0.097470306 -0.16528532 0.020787284 -0.001748752 -0.028028013
0.0009889783 0.09991854 -0.07048432 0.0055364687 -0.022445148 0.09527025 -0.011194831 0.057365157
-0.05643221 0.13046262 0.022827376 0.038847666 0.07598258 -0.16733754 0.08611055 0.15328701
0.114791706 0.10958833 -0.12643164 0.1559153 0.049626622 -0.17525686 0.15257822 0.1460219

fc.weight f4 [1, 64]
00000000: f08b e5bc 792f f03d 77d9 663b 2b8c bf3d
00000010: 0a6e d9bd b960 00be 3796 dd3c b331 2fbc
00000020: 79a2 cabd 3f85 83bd d07c af3d 569f b53d
00000030: 9bd4 b4bd a9ea 46bd c06a 11bc 3f3c 41bc
00000040: 47c0 d0bd b12f af3d 21a7 a3bd 0ffa a73d
00000050: 19b4 91bd fde2 07be 522f 293d 48c1 59bd
00000060: a83a bd3d 20f1 4cbd 4b8d 263c 0033 d03d
00000070: ce7d b7bd c2c2 76bd a48a 9f3d 246a e93d
00000080: 5894 6c3c 1265 b83d 79f8 ab3d 696d 823d
00000090: 48ed 52bc 12d4 e83d 9d99 4abd 9b07 8d3c
000000a0: 726c 3abd 2c1a 7a3b b3aa 8f3d a7c7 b53d
000000b0: 516b 283c c930 bb3d 3fc8 c23d e8a8 5d3d
000000c0: cd49 3abd a635 8a3d 9d29 c83d 4b86 e63d
000000d0: 0d0a d13c 4459 ce3d 8573 c0bd 68c6 093d
000000e0: 99b5 f1bd 5fa5 6f3d b525 42bb cd8d fbbc
000000f0: bf74 b83d 5c5f 51bc 3775 333d 6d24 9a3d
-0.028020829 0.11727805 0.0035224834 0.09352907 -0.106166914 -0.12536897 0.027049167 -0.010693002
-0.098942704 -0.06421899 0.08568728 0.088682815 -0.08829614 -0.048563633 -0.008875549 -0.011794149
-0.10192924 0.08554018 -0.07990862 0.08201992 -0.07114429 -0.13270183 0.041304894 -0.053162843
0.092397034 -0.050034642 0.010165523 0.101659775 -0.08959542 -0.06024433 0.077901155 0.11397198
0.014439665 0.09003653 0.08397002 0.063685246 -0.012873955 0.11368574 -0.049462903 0.01721554
-0.045513578 0.0038162572 0.0701498 0.08875971 0.0102794925 0.091401644 0.0951085 0.05411616
-0.04548054 0.06748514 0.09773562 0.11256083 0.025517488 0.1007562 -0.093970336 0.03363648
-0.11802215 0.05850732 -0.0029624526 -0.030707264 0.090066426 -0.012779083 0.043812957 0.07526479
