src/models/saved_models/dl_lstm_model.pth (torch, 48076 bytes, 9 tensors)

lstm.weight_ih_l0 f4 [128, 9]
000000 30 a6 fe 3d 81 65 12 3e 8e bb b6 bc 80 ed 25 3e
       0.124340415 0.14296533 -0.02230623 0.1620388
000010 32 1e 8f bc 3a 01 5d 3d f4 38 77 bd 44 6a f5 3d
       -0.017470453 0.053956248 -0.06035705 0.11983159
000020 f7 f8 2a 3e 29 01 fb bd 78 58 11 3e 42 67 de 3c
       0.16696535 -0.12256081 0.14193904 0.027148847
000030 bf dc f5 3d 52 21 9c 3c 2d b7 9d 3d 6c c1 d6 bc
       0.120049946 0.019058857 0.07700954 -0.026215278
000040 f5 26 fe 3d 58 0b ab 3c c6 1c 50 bd a0 1e 8c 3c
       0.12409774 0.020879433 -0.05080869 0.017104447
000050 94 ab 4b bd 8b 4a 58 bc 3b 1d 2c bd f9 68 ac 3d
       -0.049724177 -0.013201366 -0.042020064 0.084184594
000060 b7 25 d9 bd 90 40 52 bd e9 6a e6 bc 75 2f e0 bd
       -0.10602897 -0.051331103 -0.02812715 -0.10946552
000070 bc 72 07 3c 0d 44 36 be 01 5f 16 3e 6a e0 1e be
       0.008267101 -0.17799397 0.14684679 -0.15515295
000080 65 9c fb 3d 4b c3 90 3c 09 54 8a bd ed 00 bf 3d
       0.12285689 0.017671248 -0.0675431 0.093263485
000090 11 62 ac 3c c8 43 fe 3d 62 cd 65 3c d4 59 47 bd
       0.021042855 0.12415272 0.014026018 -0.04866965
0000a0 8b 74 21 3d 06 4c 24 bd 4a ed 82 3d a5 c3 0d 3e
       0.039417785 -0.040111564 0.063929155 0.13844164
0000b0 ea 58 b6 3d 30 46 83 bd 23 7b e8 3d d7 8c 36 3d
       0.08903678 -0.064098716 0.113516115 0.04456791
0000c0 99 d3 d3 3d b1 e3 ba bd 07 5f 20 be e2 2c 4d bd
       0.103430934 -0.0912546 -0.1566125 -0.05009163
0000d0 04 60 ec bd 5d 29 27 3e 91 01 01 3d 6b d2 4b 3d
       -0.11541751 0.16324373 0.031495634 0.049761217
0000e0 37 29 0a 3d 2e 49 ad bc bb 96 e3 3d d1 57 06 be
       0.03373071 -0.021153059 0.11112734 -0.13119437
0000f0 02 dd 33 bc 3e 48 07 be ca 9d ed 3c 2d f4 17 bd
       -0.010977985 -0.13211152 0.029005904 -0.0370981
000100 7c 41 3a 3d e7 c2 89 bc bb 07 df 3d d2 d0 9d bd
       0.045472607 -0.01681657 0.10890146 -0.07705845
000110 5c 31 9e bd e0 08 9d bd 06 11 fb 3d d2 93 5f 3d
       -0.07724258 -0.076677084 0.12259106 0.05458433
000120 6a a3 22 3e 74 ab 1c be de cf 3a be 6e 46 16 be
       0.1588265 -0.15299779 -0.18243358 -0.14675304
000130 57 1c 03 be e2 22 72 3d 78 c9 4d 3d 14 e9 06 3e
       -0.1280378 0.059115298 0.050240964 0.1317485
000140 cf 80 d5 bd 24 8a bf bd 61 62 9c 3d 7f 09 80 bd
       -0.10424959 -0.0935252 0.07635952 -0.06251811
000150 50 5c b5 3d 3a 1b 20 bd 49 fc a8 3d 2e 2e f0 bd
       0.08855498 -0.039088465 0.082512446 -0.11727558
000160 4b b9 a0 bd 50 3f 1b 3d 72 62 49 3d b6 3b a7 bc
       -0.07847842 0.037902176 0.04916615 -0.020414215
000170 a5 03 e4 3d 78 af 02 3e b9 3a cb bd 74 0e 88 bd
       0.11133508 0.12762249 -0.0992331 -0.06643382
000180 bd 6d 2d 3e 75 7c 04 bd ae 52 0b bd d5 8a 1b be
       0.16936393 -0.032345254 -0.034014396 -0.15189679
000190 0e c9 ab bd 97 90 6b 3d 80 20 c8 bb c4 38 dc bd
       -0.083879575 0.05751094 -0.00610739 -0.10753015
0001a0 8a 11 be 3c 25 42 c8 bd af ac ff bd 41 a7 93 bd
       0.023201723 -0.09778241 -0.12484109 -0.072096355
0001b0 da 25 11 be de 38 e3 bd fa 4c 22 3e 15 02 b4 3c
       -0.14174595 -0.11094831 0.15849677 0.021973649
0001c0 a4 ba 29 3d b0 de 23 be 9c 4f f0 bd c9 73 89 bd
       0.04143776 -0.16002917 -0.11733934 -0.067115374
0001d0 96 f5 58 3c 3c 80 22 be 3c 1e ac bd ef 24 e8 bd
       0.013242146 -0.1586923 -0.08404204 -0.113351695
0001e0 15 16 32 bc 4d a5 9b bd 3e e0 cb bc c4 b5 05 be
       -0.010869523 -0.07599888 -0.0248872 -0.1305762
0001f0 8e 8c 08 be 78 06 ee bd 97 b0 2f bd bd 83 ef bd
       -0.13334867 -0.116223276 -0.04289302 -0.11695049
000200 b5 9a 00 3e c2 d8 aa bc bd 1e 03 3e b8 84 57 3d
       0.12559016 -0.020855311 0.12804694 0.052616805
000210 c0 62 ff bd d5 f7 cd 3d 2b 9d ef bc 90 b8 18 bd
       -0.12470007 0.10057036 -0.029249748 -0.037285388
000220 f3 e2 e7 bd 2f 37 11 be 3b 97 b4 3c c2 eb 3b bc
       -0.11322584 -0.14181207 0.022044769 -0.011469783
000230 8e e1 1b 3d b3 00 e4 bd c6 1c c7 3d f5 71 c4 bd
       0.038056903 -0.11132946 0.09722285 -0.09592048
000240 a3 cd 53 bc c5 1c 57 3d da a1 d5 3d b9 6a 1e 3e
       -0.012927446 0.05251767 0.10431261 0.15470399
000250 62 62 31 3e d4 1f eb bd 69 85 85 3d e4 40 50 bd
       0.17322686 -0.1148068 0.065195866 -0.050843135
000260 d8 98 a1 3b f2 eb 09 be 66 ff 16 3e 43 87 0a be
       0.0049315505 -0.13468912 0.14745864 -0.13528161
000270 31 d6 a6 3d bb 26 4b 3d 9d ab 34 3d 5f 3e d7 bd
       0.081463225 0.049597483 0.044108976 -0.10509943
000280 23 9d 12 3e bb a3 c1 3c 04 b9 59 3c a4 34 26 be
       0.14317755 0.023637643 0.01328874 -0.16231018
000290 eb 7c 80 3d 53 fc 17 bd 35 9a ba bd 2a e8 0b 3e
       0.06273826 -0.03710587 -0.09111444 0.13662782
0002a0 42 e4 ce 3c 8f 9d e2 bd ee b0 d3 bd d7 84 88 bc
       0.025255326 -0.11065208 -0.10336481 -0.016664905
0002b0 54 f0 b2 3d 07 85 5d bd b4 65 e0 bd 29 f5 90 bd
       0.08737245 -0.054081943 -0.10956898 -0.070780106
0002c0 23 83 11 be b3 24 46 3d c3 3a f5 3d 4c 34 37 be
       -0.14210181 0.048374843 0.119740985 -0.17891043
0002d0 4e d6 08 3d 86 50 a5 3d 22 71 c5 3c 1f 37 87 bd
       0.033407502 0.08071999 0.024101797 -0.066023104
0002e0 21 b9 a4 3d 2a f3 a3 3d 24 39 5b 3d 35 e8 1f bd
       0.08043123 0.08005364 0.05352129 -0.03903981
0002f0 8f 6c 5e bd 06 8e f9 3c 7e 7e 8d bc aa 7f 1a bd
       -0.05430275 0.03046323 -0.01727223 -0.037719406
000300 78 b4 01 3e 9b 8e 29 3e 1c 83 2e 3a bc f3 a3 bc
       0.126665 0.16558306 0.000665711 -0.020013683
000310 73 b2 bc 3c 4f 37 36 3c 22 ce 10 3d df 5b 40 3d
       0.02303431 0.011121585 0.035352834 0.046962615
000320 0d 54 04 be 4e 76 18 bd 10 3d ed 3d a7 8f 91 3d
       -0.12922688 -0.0372222 0.115839124 0.07107478
000330 50 65 88 3c 64 f1 96 bd c4 62 99 bd db 98 05 be
       0.016649872 -0.0737026 -0.07489541 -0.13046591
000340 ea 64 50 bd 29 f1 32 3d 51 86 bc 3d 68 38 82 3d
       -0.05087749 0.04368702 0.09205306 0.06358415
000350 95 f9 09 be dd e8 c4 bd 28 e5 01 bd 24 19 16 3e
       -0.13474114 -0.09614728 -0.03171268 0.14658028
000360 db f2 01 3d 1c f4 00 bd 49 43 9f 3d 3b e1 4b bd
       0.031725746 -0.0314828 0.077765055 -0.049775343
000370 d7 a5 bf bd a1 85 05 3e a4 1a 71 bd aa a6 6e bc
       -0.09357803 0.13039257 -0.058863297 -0.014566103
000380 9f fb 17 be e6 5d f8 3d 09 1a 0f 3e 19 23 99 3d
       -0.1484208 0.12127285 0.13974775 0.074773975
000390 da 2e d6 bd 12 82 1d be ad b2 fa bd 19 d3 13 3e
       -0.10458155 -0.15381649 -0.12241111 0.14435996
0003a0 84 b5 cf 3d 0b aa 27 3e 57 80 86 3d 08 6d e0 3c
       0.10142043 0.1637346 0.06567448 0.02739574
0003b0 9a 36 8f 3b 37 e6 c7 bd 24 ad ea bd 3c ab 03 be
       0.0043705227 -0.09760707 -0.11458805 -0.1285829
0003c0 f4 48 47 3d 50 dc 57 bd 3b 93 0f bc 8e 39 ab bd
       0.048653558 -0.05270034 -0.00876313 -0.08360587
0003d0 67 fe 95 bc 75 31 d7 bd d5 a9 c2 bd cd b5 8b 3d
       -0.018309785 -0.1050748 -0.09505049 0.06821785
0003e0 07 4d 07 bd 3f 1a ee 3d 14 65 0e bd 76 a5 d3 bd
       -0.033032443 0.116261 -0.034764364 -0.103342935
0003f0 8d eb 9b bc 0a 36 93 bd da d8 24 bd 95 6f 1b be
       -0.019033218 -0.071880415 -0.04024587 -0.15179284

lstm.weight_hh_l0 f4 [128, 32]
000000 a7 b9 26 3d 03 99 9e 3c 44 a7 98 bd 81 c8 7e 3c
       0.040704396 0.019360071 -0.074537784 0.015550734
000010 96 00 05 3e e7 94 d5 3d 61 3a 0e be 9e 47 0d 3e
       0.12988505 0.104287915 -0.13889457 0.13796851
000020 12 2c af 3c 9c 94 86 3d 13 3d cd 3d 43 d2 0c 3e
       0.021383319 0.06571314 0.100214146 0.13752083
000030 76 61 ed bd be 53 1b 3e 4b 06 c3 bd 1e da b3 3a
       -0.11590855 0.15168664 -0.09522685 0.001372162
000040 ff 10 ca bd 99 04 2b bd da 29 a2 3a ab cc e9 bc
       -0.09866523 -0.04175243 0.0012372092 -0.028539976
000050 d2 b2 89 bc 2d 41 56 3b 3f a2 07 3e 09 1e 7a 3d
       -0.016808901 0.0032692656 0.13245486 0.0610638
000060 f8 c0 9f 3d eb 3d 65 3d d1 68 e1 3d f9 2c 74 3a
       0.07800478 0.055967253 0.1100632 0.0009314563
000070 fa b1 7e 3b 08 35 cb 3c 92 af 1f be ba 21 ff bd
       0.0038863407 0.02480556 -0.15594319 -0.12457605
000080 75 7e d5 3c f7 d8 71 bd f6 ed bf bb 82 63 0b bd
       0.026061276 -0.059044804 -0.0058572246 -0.034030445
000090 7f 55 9d 3c 40 ef ec 3d 3a 18 57 bd 5e d4 09 3e
       0.019205807 0.11569071 -0.05251334 0.13459918
0000a0 da be 05 3e b1 9f 00 be 68 4b c5 bd 14 93 0d be
       0.13061085 -0.12560917 -0.09633523 -0.13825637
0000b0 f7 ba c1 bd 53 51 93 bd 2d 38 ed bb b3 75 e9 bc
       -0.09459489 -0.07193246 -0.0072393627 -0.028498506
0000c0 22 f9 9b bd 41 d0 48 bd a3 99 88 bd 03 98 31 3e
       -0.07615878 -0.04902673 -0.06669929 0.17343144
0000d0 ab 72 8a bd fb 6a ed bd ee 4d 76 3d f4 0b 44 bc
       -0.067601524 -0.115926705 0.060132913 -0.0119657405
0000e0 e8 90 f2 3d b5 71 e2 3d 87 be 13 3e ce bd d9 bd
       0.11844045 0.11056844 0.14428149 -0.106319055
0000f0 6a 9f ec 3d 66 12 18 3e 40 99 a5 bd 95 fe 1b 3e
       0.11553843 0.14850768 -0.08085871 0.15233834
000100 9b 84 c9 3d cb 6f ac 3a 80 ed 5c 3d 6d 04 19 bd
       0.098397456 0.0013155875 0.053937435 -0.037357736
000110 05 7d f3 bd dd 04 c6 3c 34 7c 17 3d 38 d4 ab bd
       -0.1188908 0.02417224 0.036983684 -0.08390087
000120 28 d9 75 3d dc b1 eb bd 7b 43 f1 3d 50 9c 0d 3e
       0.06002155 -0.11508533 0.11780449 0.1382916
000130 b6 e9 c5 3c cb e0 a3 bd 73 1d 54 3d a5 16 b0 3b
       0.024159294 -0.0800186 0.051785897 0.005373793
000140 a3 53 8c 3c 90 a5 fd 3c 4d 91 d7 3d 1b f4 55 bd
       0.017129725 0.030962735 0.10525761 -0.05223475
000150 55 0f a3 bc 42 7e b9 3c ce b7 9d 3a 75 84 df 3d
       -0.019904772 0.022643212 0.0012032927 0.10913936
000160 55 a3 6f bd 63 49 04 3b 5b d0 fa 3b ad b1 88 bc
       -0.058505375 0.0020185343 0.0076542324 -0.016686285
000170 93 31 b4 3d 57 c3 5d 3c 01 40 0b be 70 e0 4a bc
       0.08798518 0.013535342 -0.13598634 -0.012382612
000180 9d a9 94 bd a0 7a b1 3c 13 4a ab bc ce 84 29 be
       -0.07258914 0.021664917 -0.020909345 -0.16554567
000190 d5 48 07 bd 66 b3 27 bc cc 20 3a bd e6 9d 25 3e
       -0.033028442 -0.010235643 -0.045441434 0.16173515
0001a0 89 d2 33 bd a0 2e d2 3d 15 1c e9 3c 8b 23 1a be
       -0.043901954 0.10262799 0.028455773 -0.15052621
0001b0 98 61 0d 3d cd da 0d 3e 1a d5 d2 bd e1 13 c1 bd
       0.0345169 0.13852997 -0.10294552 -0.0942762
0001c0 c0 d9 2a 3e f2 6b 13 3e f3 5b d2 bd 26 ca e2 3d
       0.16684628 0.14396647 -0.10271444 0.11073713
0001d0 d4 68 e5 bc 3a 67 27 be cf 9a b5 3b 02 88 3d 3d
       -0.028004088 -0.16347972 0.0055421363 0.046272285
0001e0 fb fc 62 bd 9b 33 88 3d 04 2a 0c be 92 4b d9 3d
       -0.055417042 0.06650468 -0.13687903 0.10610117
0001f0 a8 6f 1e 3e 86 0a d1 3d 6f 6e 12 3d eb bb 4f 3d
       0.15472281 0.10207085 0.03574985 0.050716322
000200 ea 5d e7 bd 9a f6 f7 bc 27 2a fe bb cd b0 a9 bd
       -0.112972096 -0.030268956 -0.00775649 -0.08285675
000210 25 84 c3 bd af 4c d7 3d e4 8b e8 3d 56 e0 0a be
       -0.09546689 0.10512673 0.11354807 -0.1356214
000220 4c b1 3e 3d bf 29 59 3d 50 ac 09 3e 50 47 aa 3d
       0.046555802 0.053018328 0.13444638 0.08314383
000230 8e 3a 0e 3e 4e db 64 bd 5b ba b7 3d 62 68 da 3d
       0.13889524 -0.055873208 0.08971091 0.10664441
000240 5e 55 0e be 6f 6d fb bd 39 fb e4 3c 9c 24 b8 3d
       -0.13899752 -0.12276732 0.027951824 0.08991358
000250 b9 88 9e bd 84 80 9d 3c 63 6d 08 bb 92 a3 cf 3c
       -0.077409215 0.01922632 -0.0020817153 0.025346551
000260 da c6 83 bd c7 23 b1 3d 13 7f af 3d 9a cc aa bd
       -0.06434412 0.08649402 0.08569159 -0.08339806
000270 1d 57 b2 3b b5 03 8b 3b 68 68 69 3d 37 64 15 3e
       0.0054425136 0.0042423853 0.056984335 0.1458901
000280 18 60 2c 3d df 3b 3c bd 01 01 13 3e 90 a3 98 bd
       0.04208383 -0.045955535 0.14355852 -0.07453072
000290 00 48 2e bd 47 61 2b 3b 33 d4 11 be ed 6b 0c 3c
       -0.042549133 0.002615051 -0.14241104 0.008570653
0002a0 54 b3 e1 bd e1 a3 ca 3c 5a 76 d2 3c c3 ec 0b 3d
       -0.11020532 0.024736347 0.0256912 0.03416134
0002b0 e3 6d 0d be 64 e0 21 be 7c 32 8d 3d 74 cb 05 3e
       -0.1381145 -0.15808254 0.06894395 0.13065892
0002c0 83 25 24 be 0a d4 67 3d 97 5e f6 bd 54 cd 25 3b
       -0.16029935 0.0565987 -0.1202976 0.0025299387
0002d0 62 73 2e 3e f0 ef fa 3d 1a 11 e9 bd 72 f9 d8 3d
       0.17036203 0.12252796 -0.11380215 0.10594453
0002e0 b5 01 c9 3d 58 5b 21 bc b5 ef 20 3e a2 ae 69 bd
       0.09814779 -0.009848438 0.15716441 -0.05705131
0002f0 b0 7a 4c bd e6 d5 c7 bd 5d da 88 3c f2 15 64 3d
       -0.04992169 -0.09757595 0.016705686 0.05568499
000300 23 97 70 3c 31 a1 98 bd 25 07 41 bd a3 32 4a 3d
       0.014684471 -0.0745262 -0.047125954 0.049364697
000310 80 a7 f3 bd b4 e0 a1 bc b8 63 32 ba a1 d5 4c bd
       -0.118971825 -0.019760467 -0.00068050204 -0.05000842
000320 35 50 55 3d 05 ec 9e 3b 10 bb b8 3d 0b 02 5f bc
       0.052078445 0.004849913 0.09020054 -0.013611327
000330 39 dc b0 bd 63 e1 dd 3d 72 23 6d 3c 6c 5f be bc
       -0.08635754 0.10834005 0.014473783 -0.02323886
000340 a3 ec b2 bd 76 d0 0b 3d f8 05 16 be c2 6d 2d 3d
       -0.08736541 0.03413435 -0.14650714 0.042341
000350 50 f7 8f 3d 98 63 04 be 2a 8c a8 bd cc f3 bb bd
       0.07029593 -0.12928617 -0.08229859 -0.0917736
000360 c1 cd f0 3d a1 1e 02 3e 53 1e e8 3b 12 6e 08 3e
       0.117579944 0.12706997 0.007083693 0.13323238
000370 d7 fc 45 bd 05 05 19 be e3 c6 6f 3d bb 62 4a 3d
       -0.04833683 -0.14943321 0.058539283 0.049410563
000380 fa 15 17 3e 85 58 85 bb 35 3e ce 3d c6 7e aa 3d
       0.14754477 -0.0040693902 0.10070459 0.08324961
000390 a7 c4 bc 3d 44 05 0e be c4 86 fb 3d c3 52 e3 bd
       0.09217196 -0.13869196 0.12281564 -0.1109977
0003a0 4d 81 00 3e 10 48 84 3a 10 43 fc bd d6 19 22 3d
       0.12549324 0.0010092277 -0.12317479 0.03957542
0003b0 06 1e 91 bc 50 1e 09 be 3a fd f3 bc 87 2e 1e 3b
       -0.017714512 -0.1339047 -0.029783834 0.002413662
0003c0 ee 8e db 3d 5e 0f 24 bd f6 32 ad 3d 94 1f 16 3c
       0.10720621 -0.040053718 0.08456986 0.009162802
0003d0 9f b0 48 3c e2 0c 8d 3c 0e 27 b0 bd b6 ca e9 bd
       0.012249141 0.017218057 -0.08601199 -0.11415617
0003e0 6d f8 00 bd 58 1d 02 be cc e5 39 bd 20 49 3f 3b
       -0.031486917 -0.12706506 -0.045385167 0.0029187873
0003f0 4e 9b d1 bd f7 16 87 bd 41 fe 19 bd f1 c7 e7 bb
       -0.102347 -0.06596177 -0.03759599 -0.0070733954

lstm.bias_ih_l0 f4 [128]
000000 4d 34 2f 3d b1 62 84 3d 00 9b c1 3d 28 a2 e5 3d
       0.042774487 0.064641364 0.09453392 0.112125695
000010 62 58 f7 3d e9 a2 a4 3d ec e3 02 3e d3 73 ff 3d
       0.120774046 0.08038885 0.12782258 0.124732636
000020 b3 f6 15 bd 3b cb 3b 3c 8d 43 96 bd 58 c9 fc bd
       -0.036612224 0.011462028 -0.07337103 -0.12343091
000030 aa 5b 24 3e 79 cc 0d be 9f 33 cd bd 78 e5 17 be
       0.16050592 -0.13847531 -0.100196116 -0.14833629
000040 cf 1c fd bd ae 0d 08 3d 3d fe 9e 3d a2 71 1d be
       -0.123590104 0.03321617 0.07763336 -0.15375379
000050 93 6f 1d 3c 78 9c f8 bd e4 bb 35 3d 42 66 c8 3d
       0.009609121 -0.12139219 0.04436864 0.09785129
000060 f6 60 73 bd 9f 12 8c bd 67 34 de 3d c1 dc d5 bd
       -0.05941864 -0.06839489 0.10849839 -0.10442496
000070 07 c1 df bc 6e b0 0b be 63 1f ef 3d c4 b5 85 3d
       -0.027313722 -0.13641521 0.116759084 0.0652881
000080 32 2b 75 bd 48 2a f4 3d 90 c2 1e 3e fe df 85 3d
       -0.059855647 0.11922127 0.15503907 0.06536864
000090 6e 8e 03 be fe c8 f9 bc a2 92 0f 3e 0f 9c 0b 3e
       -0.12847301 -0.030491348 0.1402078 0.1363375
0000a0 3f 93 84 bd 61 8f e1 3d 05 e0 d2 bd 7c 6a 66 3d
       -0.064733975 0.110136755 -0.102966346 0.056253895
0000b0 83 34 18 3e 3d 7a d1 3c ec 47 05 be b3 dc 6d 3d
       0.14863782 0.025570983 -0.13015717 0.058071803
0000c0 32 8d da 3d cd 22 ee 3d 35 23 fb bd ff 46 1d bd
       0.10671462 0.116277315 -0.122625746 -0.038397785
0000d0 97 11 80 bc 7d be b9 bc 66 93 e1 bc ec 05 8c bd
       -0.015633387 -0.02267384 -0.027536105 -0.06837067
0000e0 75 fe 8d 3d 6f 2d bd 3d d8 72 1c bd d0 62 15 3e
       0.069332995 0.092371814 -0.03819546 0.14588475
0000f0 e5 13 e2 3b 34 ba 50 3d 48 fa 18 3d ac 85 55 bd
       0.0068993443 0.050958827 0.03734806 -0.052129433
000100 82 a2 92 bc 56 b7 4b bc 66 f1 76 3d 49 f8 b3 bd
       -0.017899755 -0.012433847 0.06028881 -0.08787591
000110 28 4b b5 bd 10 af 36 be 1a ed 9e bd dd bb 3c 3d
       -0.088522255 -0.17840219 -0.07760067 0.046077598
000120 8d 29 0b 3e d4 f4 38 be ef 8d 63 bd ca 10 f4 3d
       0.13590069 -0.18062145 -0.05555528 0.11917265
000130 45 07 d3 bd e2 b3 e6 3d 74 5b 91 ba e4 94 34 be
       -0.10304121 0.11264779 -0.0011089877 -0.17634922
000140 d0 3a b2 3c f7 53 ca bd b8 42 e1 3c 3e ec 1a be
       0.02175656 -0.09879296 0.027497634 -0.15129182
000150 13 e2 22 3e 02 b7 aa bd 26 fa fa 3d 58 87 f1 bd
       0.15906553 -0.08335687 0.12254743 -0.11793393
000160 65 6f 0f be cf 88 7a 3d 5b 82 e6 3d d1 c1 cb 3b
       -0.14007337 0.061165627 0.11255332 0.006218173
000170 e8 11 21 be 7a c0 66 bd 9f f3 eb bd df 6d 6c 3d
       -0.15729487 -0.056335904 -0.115210764 0.05772197
000180 6f 90 1c 3d 2c 1a f0 3d 86 57 24 3e ed 5e b4 bd
       0.03822368 0.11723742 0.16049013 -0.08807168
000190 ef 07 09 3e 4f c8 06 3e f8 c2 ba 3c e5 f8 21 be
       0.13381933 0.13162349 0.022798046 -0.15817602
0001a0 50 cb 04 be e1 13 93 3d 82 1b 17 3e c6 cb d2 3d
       -0.12968183 0.07181526 0.14756587 0.10292773
0001b0 c0 52 2b 3c 8c 22 ea bd 5a 36 14 be b3 77 a7 bd
       0.010456741 -0.114323705 -0.14473858 -0.08177128
0001c0 70 2f 51 3c 53 c3 84 3c 14 20 03 3e 66 0d 09 be
       0.012767658 0.01620642 0.12805206 -0.13384017
0001d0 23 a7 b3 3d 9f 68 22 3e 44 9e 15 be 07 b4 cb bd
       0.08772113 0.15860222 -0.14611155 -0.09946447
0001e0 9b a1 28 bd 55 d3 2e 3d 4a 81 19 3e f8 95 36 3d
       -0.041169744 0.04268201 0.14990726 0.044576615
0001f0 0c 68 03 3e 21 ac 1c 3e c6 c6 06 3e bc b8 1b be
       0.1283266 0.15300037 0.13161764 -0.1520719

lstm.bias_hh_l0 f4 [128]
000000 38 5e d6 bd 97 2a 89 bc 3c 01 f6 bb f4 a5 0a 3c
       -0.104671896 -0.016743941 -0.0075074714 0.008462418
000010 96 d5 11 3e c3 1d 2d 3e a5 7d 5c bd a9 05 8c bd
       0.14241633 0.16905884 -0.05383076 -0.06837017
000020 02 d5 ec 3b 2a 0a 92 3c 6c 68 00 3e aa 31 93 3d
       0.007227541 0.017827112 0.12539834 0.07187207
000030 68 79 46 3d d7 4c 50 3d f0 50 0e 3e a3 88 dd 3d
       0.048455626 0.05085453 0.13898063 0.10817077
000040 ae 5f c7 bb 38 19 05 be 0f 3f e5 3d ad 04 ac bc
       -0.006084404 -0.12997901 0.11193668 -0.020998323
000050 66 be 05 be c1 d4 a7 bc 48 01 0e 3e ab 47 b1 bd
       -0.13060912 -0.020487191 0.13867676 -0.08656248
000060 6a 58 11 bc 5c 23 8c 3d 1d dd f5 3d 4f 49 8f bc
       -0.008871177 0.06842682 0.12005065 -0.017491011
000070 3c c9 f1 bd 9d b0 81 bd e5 23 83 bd b0 4e e7 3c
       -0.118059605 -0.063325144 -0.06403331 0.028235763
000080 bf c9 df bd a7 ae 18 3e 21 ba 25 3d 89 02 09 be
       -0.10927152 0.14910375 0.04046071 -0.13379873
000090 98 28 b9 3d 34 ad 8a 3c b7 94 2e 3e 39 04 e9 3b
       0.09040946 0.016928293 0.17048918 0.007111099
0000a0 1f 7c 13 bc d3 23 32 be 8c da 07 be a7 fe 1c 3c
       -0.009001761 -0.17396478 -0.13266963 0.009582198
0000b0 37 47 12 3e 2c a2 ec bd e3 02 2f 3d a6 eb d2 bd
       0.14284979 -0.11554369 0.042727362 -0.102988526
0000c0 8a 8e 02 be 2a f0 91 bd eb 5b ff bd fb 69 1c be
       -0.12749687 -0.07125886 -0.12468704 -0.15274803
0000d0 1b ed 77 bd 21 83 82 bc 45 f6 c6 3d 5a a8 98 3d
       -0.060528856 -0.015931668 0.09714941 0.074539855
0000e0 84 26 d2 3b fa 77 01 bd 62 2e 29 bd 21 7b 0b be
       0.006413283 -0.03160856 -0.041304 -0.13621189
0000f0 8a b8 05 3e e8 12 2a 3e ec 4d 2d be 9a 6d 24 be
       0.13058677 0.16608775 -0.16924256 -0.16057435
000100 0a da 33 be 2a af ad bc 9c b8 e3 bb 53 db dd bd
       -0.17563644 -0.021201689 -0.0069494974 -0.108328484
000110 0b e7 b8 3d 44 fb 7c 3b 90 9e b8 bd ce 69 39 be
       0.09028443 0.0038601914 -0.090146184 -0.18106768
000120 61 cf 05 3e 2b e9 2c 3e cd 35 c8 3c 44 0b 9d bd
       0.1306739 0.16885822 0.024439717 -0.07668164
000130 16 da d6 3d 5f a2 c7 3d a9 9b 09 bd cd f1 1e 3e
       0.10490815 0.09747767 -0.033595715 0.15521927
000140 1f 10 0e be 52 b0 56 bc 5e 5d 12 3e e7 7c d1 bd
       -0.13873337 -0.0131035615 0.1429343 -0.10228901
000150 9b ec 7b bd 24 2b aa bd af 96 80 bd 55 84 18 3e
       -0.06150494 -0.0830901 -0.062787406 0.1489423
000160 e0 a3 ef 3d fa 18 2d be a7 53 d0 bd a5 45 b4 3b
       0.117011786 -0.16904059 -0.101722054 0.0055014663
000170 86 b5 85 bd 17 6a d7 bd 97 75 2a be 29 53 0d 3e
       -0.065287635 -0.10518282 -0.1664642 0.13801254
000180 97 33 dd 3d 45 1d 3c 3d 02 89 33 bd 24 d7 35 be
       0.108008556 0.04592635 -0.043831833 -0.17757851
000190 bf 16 7a bc 5c 8e 9c 3d f3 22 5f bd 21 a1 17 3e
       -0.015264212 0.076443404 -0.05447669 0.1480756
0001a0 a1 fe 07 3d a8 1f 54 bc 14 6f b2 3d 07 ff cd 3d
       0.033201817 -0.012947001 0.08712593 0.10058408
0001b0 33 7f 0a be 03 10 3f 3d f8 9f 19 be 99 cc ae bc
       -0.13525085 0.04664613 -0.1500243 -0.021337794
0001c0 76 bc 3a bd 0e ae 02 3e 76 81 35 be dc 36 66 3d
       -0.045589887 0.12761709 -0.17725167 0.05620466
0001d0 02 e7 28 be eb 55 af 3d a2 7f 59 3d f7 e6 99 bd
       -0.16494372 0.085613094 0.053100236 -0.07514756
0001e0 13 5e 75 3d 29 37 36 3e c6 ce ce 3d 59 3a 1b be
       0.05990417 0.1779448 0.10098033 -0.15158977
0001f0 52 28 17 bd 4d 58 2e 3e 92 19 a6 3c 76 01 fc 3c
       -0.036903687 0.17025872 0.020275865 0.030762415

lstm.weight_ih_l0_reverse f4 [128, 9]
000000 72 a3 08 3b a7 7a 4b bd d3 e6 24 bd 95 5e 34 ba
       0.0020849374 -0.049677517 -0.040259194 -0.0006880549
000010 86 89 db 3d e3 63 3e bd 17 e5 38 bd 0e 2c 6a 3c
       0.1071959 -0.04648198 -0.045140352 0.01429273
000020 fe 14 6a bd 12 33 0f 3e 4d dd f6 3d b8 aa 3b b9
       -0.057148926 0.13984326 0.120539285 -0.00017897307
000030 5f 6c ee bd 3c 89 21 3d c7 ac 0a 3e 1d fa 3d 3d
       -0.11641764 0.039437518 0.13542472 0.046381105
000040 96 cd 79 3d b4 af c6 bd a6 16 1f be 19 f5 4e bd
       0.060987078 -0.097014815 -0.15535983 -0.050526712
000050 26 26 a4 3c e4 f1 2b 3e c0 2a 58 3d e6 88 58 bc
       0.020037722 0.16791493 0.052775145 -0.013216233
000060 9d b0 c4 bc 48 ad 45 bc d9 2e 92 bd 29 c2 93 bd
       -0.024009997 -0.012065239 -0.07137842 -0.072147675
000070 99 db a2 3c 46 81 cf 3d 21 ca 04 3e 64 ec 4e 3d
       0.019880103 0.10132079 0.12967731 0.05051841
000080 46 5a 02 be f2 a9 0f 3e 5d f5 15 3e d7 c0 8b bd
       -0.12729749 0.14029673 0.1464438 -0.06823891
000090 a9 53 d7 3b 85 89 10 3e 21 ef 45 bd 6d 4d 99 3d
       0.0065712524 0.1411496 -0.048323754 0.07485471
0000a0 69 5c f5 3c a8 9e b6 3d 01 5f 71 3d b4 48 21 3e
       0.029951291 0.0891698 0.058928493 0.1575039
0000b0 a0 7b 09 3e 36 fc 01 be 98 64 c5 3d f7 5a 33 bd
       0.13426065 -0.12693867 0.09638327 -0.043787923
0000c0 34 c9 cf bd a5 3b 9b 3c 3e 02 10 bd ee fc 00 be
       -0.10145798 0.01894934 -0.03515839 -0.12596485
0000d0 25 40 2b be 6f ec e3 bd 61 65 08 3d 92 ab f3 3d
       -0.16723688 -0.111290805 0.033299807 0.11897959
0000e0 c0 34 ef 3d d7 5f 86 3d db 58 37 3e d7 8c ff bd
       0.11679983 0.06561249 0.1790499 -0.12478035
0000f0 4f 43 ae bd f3 14 c7 3d 8c 29 08 be 5f 75 19 3e
       -0.08508932 0.097207926 -0.13297099 0.1498618
000100 96 6b 06 3d b1 8a 48 bd 4f 25 1b 3e 2d d0 b0 3d
       0.032817446 -0.04896039 0.15150951 0.086334564
000110 12 a0 13 3e 6a 3d 06 3e ec 2e 51 bc 99 ac 1c 3e
       0.1441653 0.13109365 -0.012767535 0.15300216
000120 7e 7d de 3c 88 47 bc 3c be 11 82 3d 20 13 f7 bd
       0.027159449 0.022983328 0.0635104 -0.12064195
000130 a9 93 b6 bd 8e c8 1c 3e 30 13 c6 bd c2 e6 b8 3d
       -0.08914883 0.1531088 -0.096716285 0.090283886
000140 46 14 cc 3d 3c 51 e3 bd 66 9d 7d bb 60 99 a8 3b
       0.09964804 -0.110994786 -0.0038698553 0.005145237
000150 34 45 c3 3d 87 92 c1 bc e0 b7 fd 3d 87 97 ec bd
       0.09534684 -0.02362944 0.12388587 -0.11552339
000160 94 fd 29 3d a3 ba 80 3d 0e 3d 7b bd 4f 14 69 bd
       0.041501597 0.06285598 -0.061337523 -0.056904133
000170 18 ca dc bd 61 3a 2c 3d ce 03 5d 3d 49 3f 6f bd
       -0.10780734 0.042047862 0.053958707 -0.058409963
000180 ec 84 07 3e 71 83 cc bc 9f 80 cb bc c4 be f5 3d
       0.132343 -0.02496502 -0.024841605 0.11999276
000190 79 21 ac 3c e6 94 a4 3d 61 1c b7 3d 4a 18 e9 bd
       0.021012055 0.080362126 0.0894096 -0.11381586
0001a0 c9 13 3a bc 63 ee 0c 3e f1 1e dc bd c0 3a 31 3c
       -0.011357256 0.13762812 -0.10748089 0.01081723
0001b0 6d a4 ec 3d 2b 88 32 3c f0 07 36 bd eb 9f 56 3d
       0.11554799 0.010896723 -0.044441164 0.052398603
0001c0 8b 0e 13 be f4 76 04 3e e7 d6 fb 3d 17 98 60 bd
       -0.14361016 0.12936002 0.12296849 -0.054832544
0001d0 86 6a 8b bd df 75 97 bc 5a 90 3c 3e e3 6e 49 bd
       -0.06807427 -0.018488823 0.18414441 -0.049178015
0001e0 6e 41 8e 3d bf a6 14 be 66 5b 94 3d d5 7b 00 3e
       0.069460735 -0.14516734 0.07243995 0.12547238
0001f0 35 60 a1 3d d7 64 76 3c e4 c6 a7 3c 20 4e 22 3e
       0.07879678 0.0150386905 0.02048058 0.15850115
000200 a4 21 ae 3d c9 2e ed bc 22 3a 02 be e1 e7 0d 3e
       0.0850251 -0.028952973 -0.12717488 0.13857986
000210 a8 5f 4c bd b5 79 fc 3d d9 19 8c bc 4e 8c 89 bb
       -0.049895912 0.12327901 -0.017102169 -0.004197634
000220 3b 01 13 be 4c a5 96 bd f3 c8 c5 3b 6a 9b 33 be
       -0.14355938 -0.073557466 0.006035918 -0.17539755
000230 93 53 37 bd 18 f2 b9 3d 17 67 e3 3d 7f b5 ed 3d
       -0.044757437 0.09079379 0.11103647 0.11606883
000240 3a a4 03 bd 77 c4 e2 3c d9 45 ec bd 8b 9b c1 3d
       -0.03213904 0.027681572 -0.1153676 0.094534956
000250 46 ac 3d 3d 47 ec 12 3e b4 81 86 bb 6d df 23 3e
       0.04630687 0.14347945 -0.0041048173 0.16003199
000260 8b 5c cb 3d ae ba 03 3e 74 c6 7e bc 84 97 f7 bd
       0.099297605 0.12864181 -0.015550245 -0.12089446
000270 30 c1 fa bd b0 f3 16 be 25 ab 9d 3c 2c e3 fb bd
       -0.12243879 -0.14741397 0.019246647 -0.12299189
000280 a4 01 67 bd d8 36 94 3d 56 2f 13 3e ac 6b 54 bd
       -0.05639805 0.07237023 0.14373526 -0.051860496
000290 f0 dc db 3d 17 b4 c1 bc ea 0b 39 bd 2b ca 04 bd
       0.107355 -0.023645444 -0.045177378 -0.032419365
0002a0 de c2 b6 bd c6 56 04 3d 54 2b 7d bc 4e 3e 90 bd
       -0.08923887 0.032309316 -0.015452225 -0.07043134
0002b0 29 d7 f5 3d 1c 08 80 bd b9 80 ce bd 7a 65 99 3d
       0.12003929 -0.06251547 -0.10083146 0.07490058
0002c0 53 33 e5 3b 44 5b 9b bd 40 f2 f6 bd 77 02 f8 bc
       0.0069946437 -0.07585767 -0.12057924 -0.030274613
0002d0 08 50 cf bd 2d e2 8f 3d e0 d9 9c bc 27 35 87 3d
       -0.101226866 0.070255615 -0.01914686 0.06601935
0002e0 bc 24 7c 3d fb 0f d4 3a 62 00 d5 bc 5e 56 8b bd
       0.06155847 0.0016179079 -0.02600116 -0.068035826
0002f0 c7 0c b1 3c 22 55 0f be 7e 0e 95 bd d7 a9 1b 3e
       0.021612538 -0.1399732 -0.07278155 0.15201508
000300 50 32 a3 bc 7d 61 1f 3e de d0 f4 3d a9 fc a4 bc
       -0.019921452 0.15564533 0.11953901 -0.020140009
000310 ce 8f fb bd 70 5d 23 3e ff f6 cd 3c c6 70 34 3e
       -0.12283288 0.15953612 0.025142191 0.17621145
000320 39 f8 14 be cb 64 4b 3d c8 40 0b be 6f d3 a7 bb
       -0.14547814 0.04965667 -0.13598931 -0.0051216404
000330 21 2f 0b be ae a0 0f be 6f 50 ee 3c ab e8 0d 3e
       -0.13592197 -0.14026138 0.029091088 0.13858287
000340 ed f7 db 3c dc c8 fd 3b 02 1f 06 3e ca c4 0f 3d
       0.026851619 0.0077448916 0.13097766 0.035099782
000350 6c 6c 85 bd f1 cb b6 3d 80 e4 d4 3d a7 5f 03 3e
       -0.065148205 0.089256175 0.103951454 0.12829457
000360 22 68 17 3e 87 2f 34 3e 76 bf 43 bd b3 12 31 3d
       0.14785817 0.17596255 -0.047790013 0.043230724
000370 7f 84 35 bd c7 84 1a bb 2b 71 23 3e ad c7 ea bd
       -0.04431581 -0.0023577677 0.15961139 -0.114638664
000380 5d 2b f5 3d 25 bb c7 bd 00 f7 6d bb bc 71 c8 bc
       0.119711615 -0.09752492 -0.0036310554 -0.024468295
000390 a6 3b a2 bd 17 f9 1a 3c 6c 48 b5 bd e1 33 15 3e
       -0.07921533 0.009458802 -0.08851704 0.14570571
0003a0 aa 89 84 bd 13 62 c8 3d 92 46 8b bc be 47 d9 bd
       -0.0647157 0.09784331 -0.017001424 -0.10609387
0003b0 42 76 d2 3d e5 16 ba bc f7 2f 30 bd 00 86 a7 3b
       0.10276462 -0.022715995 -0.043014493 0.0051124096
0003c0 31 ca 35 3b e4 56 b8 3c ae dc 7e bc e8 db b6 bc
       0.0027738924 0.02250237 -0.015555544 -0.022321656
0003d0 a3 c9 97 3d 0d f4 85 3d c1 e8 04 3e cc fa 0c 3d
       0.07411506 0.065406896 0.12979414 0.034418866
0003e0 a2 83 89 bc 58 7b 2f bc 1d 9c ef bb 9e 80 dd bc
       -0.0167864 -0.01071056 -0.0073123113 -0.027038869
0003f0 a1 d9 3c bd b3 fb 0f bd 0f 4b 88 3d c1 94 ac 3d
       -0.046105985 -0.03515215 0.06654941 0.0842681

lstm.weight_hh_l0_reverse f4 [128, 32]
000000 7d 32 ea 3d 17 6d 6d 3d 7d f9 b5 3d 34 03 07 be
       0.11435411 0.057965364 0.08885477 -0.13184816
000010 40 eb c6 3d c3 58 ef 3c 9e 1f 11 be 30 5b 0f 3e
       0.09712839 0.02921713 -0.14172217 0.13999629
000020 46 1e a8 3a ca bc 45 3c 15 3b e3 3d e6 03 9f 3d
       0.0012826405 0.012068937 0.110952534 0.077644154
000030 7b 54 f8 3d c6 b2 01 be 48 dd 1a 3e 4e 8f 18 3d
       0.12125488 -0.12665853 0.15123475 0.03724604
000040 8f 40 a1 3a 7d 86 dc bd 95 19 8c bd 5c 3c 10 3e
       0.0012302565 -0.10767839 -0.06840817 0.14085525
000050 6b 0e c4 3d d5 d0 ee 3d d2 36 fc bb 3a 7d 75 bd
       0.095730625 0.11660925 -0.007696965 -0.05993388
000060 db d9 0f 3d 28 87 84 bd 89 3e af bd b9 06 f2 3c
       0.035119873 -0.064710915 -0.085568495 0.029544221
000070 54 25 e6 3d 80 3a d6 bd d5 44 02 be 22 24 55 3c
       0.112375885 -0.10460377 -0.1272157 0.013009103
000080 fd 75 5b bd 6a 3a ab bd 0b d4 23 bd 89 c9 91 bb
       -0.05357932 -0.08360751 -0.03999714 -0.0044490737
000090 e1 17 2c bd 85 50 07 3e b2 05 c3 3d 25 b8 3f 3d
       -0.04201496 0.1321431 0.09522571 0.046806473
0000a0 b8 ab 3c bd af b9 8a bc 2a 6e e3 3d f9 14 8c 3c
       -0.0460622 -0.016934244 0.111049965 0.017099844
0000b0 53 87 20 be d4 48 28 3c 13 56 ac 3d 09 87 1e bd
       -0.15676622 0.01027127 0.08414855 -0.038703
0000c0 4b 7d b8 bc 16 80 83 bc 84 b5 cc 3d b1 c8 03 3e
       -0.022520682 -0.016052287 0.09995559 0.12869526
0000d0 a3 eb e8 bd 02 52 dc 3d 2b 78 9c 3d 92 0d 47 3d
       -0.11373069 0.10757829 0.07640108 0.048596926
0000e0 71 28 bb bd b9 8f bb bd 52 d7 1b 3e be 46 f3 3c
       -0.09138573 -0.09158272 0.15218857 0.029696818
0000f0 83 d4 2e bd 70 cd 20 bd 2e 5b e5 3d 87 0d 42 bd
       -0.042683136 -0.03925842 0.11199032 -0.047376182
000100 8a d0 d9 3d 79 c1 5c bd 73 f8 48 3d 60 ab 16 3d
       0.10635479 -0.053895447 0.049065065 0.03678453
000110 60 db c4 bd da 0f 7f bb 98 f4 ca 3c 4b 24 21 be
       -0.09612155 -0.003891936 0.024774835 -0.15736501
000120 d6 97 2b bd 12 fa d0 3c 31 7b 06 3e a4 59 f0 3c
       -0.04189285 0.025509868 0.13132931 0.029339619
000130 01 e9 18 be 2d 9d 26 bd b2 23 38 3e 50 8c f5 bc
       -0.14932634 -0.04067724 0.17982367 -0.029974133
000140 79 8c e6 3d 8a 3a 42 3c e8 bf cd 3d 46 38 7c bd
       0.11257262 0.011854777 0.10046369 -0.061577104
000150 2d 63 16 3e ba ab 39 3d 5a 36 36 bd 7f 30 01 3e
       0.1468627 0.045329787 -0.044485427 0.12616156
000160 24 cb 9b 3d 12 c9 f9 bd a7 9b 9e bc 15 dd c3 3d
       0.076071054 -0.12196554 -0.01936133 0.095636524
000170 dd 3b 52 3d ca 8c 3b bd 1d 63 e7 bd ca 56 e2 bd
       0.05132662 -0.045788564 -0.11298201 -0.1105171
000180 7d 6a b9 3d 2b 77 94 3d bf ea 14 be 5f 05 e9 bc
       0.09053514 0.07249292 -0.14542674 -0.028444944
000190 04 d8 3d 3d 91 5b 13 be 97 93 08 3e c3 db af bc
       0.046348587 -0.14390399 0.13337551 -0.021467095
0001a0 e1 c4 68 bd 15 a0 11 3c 58 d4 73 3d 66 a7 09 3d
       -0.056828383 0.008888264 0.05952868 0.03360691
0001b0 b4 8f 1a 3e e4 89 ae 3d e3 3c ae bc dd 8b 06 3d
       0.15093881 0.08522394 -0.021269267 0.032848228
0001c0 3f 8d ec 3c 47 01 53 bd d0 a4 04 be a4 ce 9d bc
       0.028875945 -0.05151489 -0.12953496 -0.019263573
0001d0 42 52 37 bd 09 77 25 be 1d c1 85 3d b2 e3 5d bd
       -0.04475618 -0.1615869 0.06530974 -0.054172225
0001e0 e9 d5 24 3e 4e 98 7e 3d a9 20 68 3d ae c7 f8 3c
       0.16097225 0.062156968 0.056671772 0.030368652
0001f0 64 75 6b 3d c8 7e cc 3d 6e 3a e5 3d c2 10 5e bc
       0.057485 0.09985119 0.11192785 -0.0135538
000200 a7 ae 22 bd f7 d8 1f 3d 06 58 8c bd 9d d6 bb bb
       -0.039717343 0.039025273 -0.06852727 -0.005732371
000210 a6 0b 42 3d 02 57 95 3d 16 ce 15 be 0c 68 62 3d
       0.04737439 0.07291986 -0.14629397 0.055275008
000220 b1 3c 50 bd 86 be b6 bd 4d b1 78 bd 28 82 41 ba
       -0.05083913 -0.08923058 -0.060715962 -0.00073817605
000230 4a f5 93 3d 97 a6 07 be 09 44 2a 3d 84 ed 13 3e
       0.072245196 -0.13247143 0.04156879 0.14446074
000240 af 51 94 bd be 18 cb 3c 9b 9e 57 bd d5 e1 f2 3c
       -0.072421424 0.024792071 -0.052641492 0.0296487
000250 f2 53 39 3d 07 d1 cb bd bf d7 26 3d 0d fa 13 3e
       0.045246072 -0.09951978 0.040733095 0.14450856
000260 4e 59 4e 3c 3f 26 e0 bd df 33 15 3b f4 59 99 3c
       0.012594534 -0.10944795 0.0022766513 0.01871965
000270 af 8b 31 3d 7c 2a 4e bc 1a cf df bc 91 64 98 bd
       0.043346103 -0.012583371 -0.027320433 -0.074410565
000280 34 d2 f3 3d f6 27 bd bd b9 11 88 bd 07 a9 fa 3d
       0.119053274 -0.092361376 -0.06644005 0.12239271
000290 e9 9a 9b bd 72 11 87 bc 92 01 80 bd d7 80 25 be
       -0.07597906 -0.01648781 -0.062502995 -0.1616243
0002a0 16 14 ba 3d de ac aa bd 41 4a 98 bd ad 8a 05 bd
       0.09085862 -0.08333753 -0.07436038 -0.032602955
0002b0 d1 33 5d 3d 4d be 15 3e 88 e6 17 3e 34 6a 0b 3c
       0.054004494 0.14623375 0.14834034 0.0085092075
0002c0 e0 1d 0e be 24 25 8f 3c 1c 31 21 3c ca ef 0d 3e
       -0.13878584 0.017473765 0.009838369 0.13861004
0002d0 66 af f1 bc 9d 03 30 be 40 f6 90 3d 9c e0 36 bd
       -0.029502582 -0.17188878 0.070782185 -0.044647798
0002e0 01 5a 8b 3d 9c 3c 71 3d d5 ae 89 3d a0 9a ae 3d
       0.06804276 0.058895692 0.067228 0.08525586
0002f0 ef a0 04 be 03 50 18 be 24 39 2c 3e b0 67 1c 3e
       -0.12952016 -0.14874272 0.16818672 0.15273929
000300 b0 53 8e bd 1e c0 13 3e 5b 84 35 3d e4 1a 55 bd
       -0.06949556 0.14428756 0.044315677 -0.052027598
000310 c6 c8 ca bd e9 70 c9 bd 01 33 f0 3d 9a 6a b1 bd
       -0.09901576 -0.09835989 0.11728478 -0.08662911
000320 c3 d2 8f bd 88 10 0e 3e ac 2b 9e bd 81 56 15 3e
       -0.070226215 0.13873494 -0.077231735 0.1458378
000330 35 ed 74 3d 6c 20 b1 3d 5d c3 52 3d df 23 22 bd
       0.05979653 0.08648762 0.051455844 -0.03958499
000340 fc 81 59 3d b6 88 02 3d 8d 4a 96 bd a8 2e f3 bd
       0.05310248 0.03186866 -0.07338438 -0.11874133
000350 5d 3e d9 bd dd d3 e0 bb 01 f5 0e 3d b3 c1 ad bd
       -0.10607598 -0.0068611936 0.034901623 -0.08484211
000360 af 94 8c 3c 02 5f a9 3d 5f c0 9e 3d f2 7b 20 bd
       0.017160742 0.082700744 0.077515356 -0.039180703
000370 65 58 4a 3d c3 7e 09 be 5f 1e d3 3d 3a d2 f2 bd
       0.049400706 -0.13427262 0.10308527 -0.11856504
000380 1e 95 1d 3a f6 3c 5b bd 82 d7 03 be d3 88 14 be
       0.0006011295 -0.053524934 -0.12875178 -0.1450532
000390 5d 71 e9 bd a8 0d 04 be c4 34 eb 3d 6b 74 80 bc
       -0.113985755 -0.12895834 0.114846736 -0.015680512
0003a0 e8 66 dc bd 13 1b 18 3c a3 df 98 bd 26 9e c1 bc
       -0.10761815 0.009283799 -0.0746453 -0.023634981
0003b0 c0 45 07 3e d0 5e 0b be 0e 2e 0d be 21 ec 04 3d
       0.13210201 -0.13610387 -0.137871 0.032451753
0003c0 b3 72 c9 3d 49 50 ff bd ba c3 21 3d 29 f7 1a 3e
       0.0983633 -0.12466485 0.0394933 0.15133347
0003d0 fe 52 3a bc 5a 7a b9 bd 99 39 98 3d 29 3b a9 3d
       -0.011372326 -0.0905654 0.07432861 0.08263237
0003e0 b2 9c d7 bc 25 24 0d be e3 b7 02 bb 72 68 ad bd
       -0.026319835 -0.1378332 -0.001994603 -0.08467187
0003f0 7a 14 07 be 10 26 db 3d bd 6c ce 3d b3 39 97 3d
       -0.13191405 0.10700619 0.10079334 0.07384052

lstm.bias_ih_l0_reverse f4 [128]
000000 87 92 b6 3c 60 36 19 3e 7b 83 09 3d 18 c4 29 3b
       0.022286667 0.14962149 0.033572655 0.0025904234
000010 c5 05 58 bd 57 f0 f8 3c 89 0a 25 be 53 99 29 be
       -0.052739877 0.03038804 -0.161173 -0.16562395
000020 c9 99 4a bc 82 59 d6 bd 76 40 02 be 78 f2 12 bd
       -0.012365767 -0.10466291 -0.12719902 -0.035875767
000030 9b cf b9 3d 91 40 c8 3d 37 b4 5d bd eb dd 99 bc
       0.09072801 0.0977794 -0.054126944 -0.018782577
000040 8e 01 32 3e b1 7f 04 3d a0 96 e6 3d 4d 0f 83 bd
       0.17383406 0.03234834 0.11259198 -0.06399403
000050 27 48 21 be 29 a7 95 bd e6 02 c0 3c cf c2 e9 bc
       -0.1575018 -0.07307274 0.023438882 -0.028535275
000060 a7 b9 b2 bd 31 c2 28 3e 26 38 16 be cc 0b fe 3c
       -0.087268166 0.16480328 -0.14669856 0.031011485
000070 13 64 a5 3d 62 87 53 bd 0a 48 8d 3d 67 80 0b 3c
       0.08075728 -0.051642783 0.06898506 0.0085145
000080 30 e0 dc bd 46 d1 d0 bd d8 9f 91 bd 74 ae 35 be
       -0.10784948 -0.10196166 -0.07110566 -0.1774233
000090 35 4d d9 3d ad 0e 1f 3e 9c 97 a5 bd dc ba 93 3c
       0.10610429 0.15532942 -0.08085558 0.018033437
0000a0 d9 00 8b 3d d0 bc 76 3d b7 6b d5 bd f4 88 e5 bd
       0.06787271 0.06023866 -0.104209356 -0.11207762
0000b0 98 e7 28 3e 33 18 e3 3d 7a 89 31 3e 8e 2c f1 3d
       0.16494596 0.110886 0.173376 0.11776076
0000c0 83 50 7c bb 5f e1 f0 3d 80 d5 42 bc f6 73 ed 3b
       -0.0038500137 0.11761736 -0.011891723 0.0072464896
0000d0 ad 3e 98 bd 27 17 15 3e 36 67 f1 bc ec 3b 0e 3d
       -0.074338295 0.14559613 -0.02946816 0.034725115
0000e0 c9 a1 07 be 58 c0 5e 3d dc a1 90 bd 3f e1 17 bd
       -0.1324531 0.054382652 -0.07062122 -0.037080046
0000f0 f6 e0 fc bb da a0 73 3d 8f 28 9c 3a 1e 82 1e 3d
       -0.007717247 0.059479572 0.0011913943 0.03869831
000100 41 9b df bd 48 67 01 be 76 0b 93 3d 11 d8 86 bd
       -0.10918284 -0.12637055 0.071799204 -0.0658418
000110 be 36 19 be 31 44 87 bd d9 c2 3a be 59 84 36 3d
       -0.14962289 -0.06604803 -0.18238391 0.04455981
000120 ec 80 a2 3b 36 68 33 3e f4 b5 b8 bd 3d 7e ac bd
       0.0049592163 0.17520222 -0.0901908 -0.084225155
000130 02 89 48 3d 3b 0b 1c bd 0c 90 15 3e a3 42 0a 3d
       0.048958786 -0.038096648 0.14605731 0.033754956
000140 58 7b 4e bc c6 c9 77 bd 81 8d e9 3d ef fd 99 bd
       -0.01260265 -0.06049516 0.11403943 -0.07519137
000150 7f da 9e 3d 5c 8d f8 3d 24 41 16 be 34 0e 15 be
       0.077565186 0.12136337 -0.14673287 -0.145562
000160 7f 5a dd bd 75 71 bb 3d 2a c9 d5 bd c0 ed 38 3c
       -0.108082764 0.091524996 -0.104387596 0.011287153
000170 3c 4c 0c 3d c8 01 00 3d 67 11 ab bd 46 b3 62 3c
       0.03425239 0.0312517 -0.083529286 0.013836687
000180 a0 ca e9 3d 8e 34 af 3d 1e fc 2d 3d b2 ff 14 be
       0.11415601 0.08554946 0.042476766 -0.14550665
000190 5a 00 a5 3d 88 20 9e bd 4c a0 0b 3e f7 97 a9 3d
       0.08056708 -0.077210486 0.13635367 0.08280938
0001a0 0f d4 c6 bc 53 b0 9d 3d dd eb 9f bd d4 cd c6 3c
       -0.02427104 0.07699647 -0.07808659 0.024268068
0001b0 b2 63 80 bc 2e 13 5b 3c 41 86 8d 3d 13 8e 29 3e
       -0.015672538 0.013371272 0.069103725 0.16558103
0001c0 25 59 84 bd e7 fd 28 3e a1 70 21 bd 4b c8 34 3e
       -0.064623155 0.16503106 -0.039414052 0.1765453
0001d0 07 8e f3 3c b9 65 be 3c 9f 1a 53 bd a3 b7 9d bd
       0.02973081 0.023241865 -0.05153906 -0.077010415
0001e0 34 5b 28 be 37 97 ce bd 81 62 00 bc ad bc 22 3e
       -0.16441041 -0.10087436 -0.007835985 0.15892287
0001f0 65 38 d9 3d b0 8f d5 3c 59 23 35 be e3 4e 07 3e
       0.106064595 0.026069492 -0.17689265 0.13213687

lstm.bias_hh_l0_reverse f4 [128]
000000 d6 1f e8 3d 2f 25 ae bd d6 9f a4 3d cf 98 1b be
       0.11334197 -0.08503186 0.08038299 -0.1519501
000010 6e d9 b8 bd 1e 7b 76 bd b9 09 15 be 1e 95 7a ba
       -0.090258464 -0.060176007 -0.1455449 -0.00095589634
000020 e8 9e 34 3d 98 35 7d 3d 2b f4 23 3e 51 52 c3 3d
       0.044096857 0.06181869 0.16011111 0.09537185
000030 64 e9 2b be 43 19 37 bd 0d 4d d9 3d 46 f5 33 be
       -0.1678825 -0.044701826 0.106103994 -0.17574033
000040 55 22 b0 3a 45 80 78 3d 8d 40 00 be 62 10 24 3e
       0.0013437966 0.060669202 -0.12524624 0.16021875
000050 fb 3f f2 bd 8d 4a f7 bd 49 2a 01 be 20 10 8c bc
       -0.118286096 -0.12074766 -0.12613787 -0.017097533
000060 17 3b 8b 3d 48 d6 3c 3d f0 47 99 bd 8b 25 2a 3e
       0.0679838 0.046102792 -0.07484424 0.16615884
000070 a7 64 ac bd f4 d9 07 3e 4e 51 54 3d 09 db 48 bd
       -0.084176354 0.13266736 0.05183535 -0.049037013
000080 e2 cd fb 3d 85 31 56 3d a6 18 11 be 84 46 aa 3d
       0.122951284 0.05229332 -0.14169559 0.08314231
000090 02 6c 26 3e a3 0e 0e be df 5c e4 bc cf 86 07 be
       0.16252139 -0.13872771 -0.027876316 -0.13235019
0000a0 a0 28 02 3e 4e 1a cf 3d 97 41 fa 3d a5 f5 33 3d
       0.1271081 0.10112439 0.122195415 0.043935437
0000b0 21 cc 10 bd 74 4a 11 bc ff 4d fc bd dd d0 d8 3d
       -0.035350922 -0.008867849 -0.12319564 0.105867125
0000c0 64 07 79 bd fc 9f 61 3c 16 2f 89 b9 80 70 7c 3d
       -0.060798064 0.013771053 -0.00026165758 0.061630726
0000d0 8f 7d 09 be fc ab a4 bc f4 5e b7 3d 28 b5 ec bd
       -0.13426803 -0.02010154 0.08953658 -0.1155799
0000e0 91 68 8a bd 8d 43 d3 bd 96 1f 07 be 05 55 1b 3e
       -0.06758226 -0.10315619 -0.13195643 0.15169151
0000f0 41 67 24 3e cb 96 d5 3d b0 c8 1a be 8d 03 d0 3b
       0.16055013 0.10429152 -0.15115619 0.0063480795
000100 df 66 1b 3d cb 48 af 3d 23 2f 33 3d 09 a1 cf bd
       0.037939902 0.08558806 0.043746125 -0.10138137
000110 85 72 06 3c cf 4c 0b be d7 ea a2 3d da e6 f6 3d
       0.0082060145 -0.13603519 0.079549484 0.1205575
000120 bf 40 92 bd 4c e6 11 be 19 23 12 3c be c5 c7 3d
       -0.071412556 -0.14248008 0.008919501 0.09754513
000130 4a 1f e9 bd eb e9 a9 3d 2a 91 06 3e 60 02 0f be
       -0.11382921 0.082965694 0.13141313 -0.1396575
000140 bf 38 b6 3d 7a af b2 3d e5 74 ab bd e4 a5 1f 3e
       0.08897542 0.08724876 -0.08371905 0.15590626
000150 d9 98 a0 bd e6 91 11 3e 1d 04 13 be d0 cf 19 3e
       -0.078416534 0.14215812 -0.14357038 0.1502068
000160 d9 3a 45 bd e7 fe 18 be 01 a9 b1 3d d6 be a2 bc
       -0.048151825 -0.14940988 0.08674813 -0.019866388
000170 94 79 6b 3d ab b7 9a 3d 3f 8a d0 3c a1 4c 83 3d
       0.057488993 0.07554563 0.025456546 0.064111
000180 17 80 1b be a3 40 25 be f2 9f 97 bd ea f1 c7 bd
       -0.15185581 -0.16137938 -0.07403554 -0.09762938
000190 bd 72 2a be fb b2 a9 3c 36 6e 69 b9 44 52 ec bc
       -0.16645332 0.020715227 -0.00022261668 -0.028847821
0001a0 f6 d1 0b b9 f7 41 bd 3d 39 c3 8f bd 95 7c a5 3b
       -0.0001333429 0.092410974 -0.07019658 0.0050502517
0001b0 f1 34 b9 bc f4 db c3 3d d9 dd 41 bc b4 e6 69 3d
       -0.022608252 0.09563437 -0.011832678 0.05710478
0001c0 02 fc 64 bd 8e ea 04 3e 8a 8b b8 3c 93 04 1e 3d
       -0.055904396 0.129801 0.022527475 0.03857858
0001d0 18 21 96 3d 55 3b 2b be 58 31 af 3d bd 75 18 3e
       0.07330531 -0.16721852 0.085543334 0.14888664
0001e0 eb 14 eb 3d ca e7 e0 3d 9a 45 01 be 01 84 26 3e
       0.11478599 0.1098171 -0.12624207 0.16261293
0001f0 ff de 4c 3d 3e 10 33 be 0b 52 1b 3e 91 e6 14 3e
       0.050017353 -0.17486665 0.15168016 0.14541079

fc.weight f4 [1, 64]
000000 12 a2 e5 bc 02 23 f0 3d e0 86 3a 3b 6a 97 bf 3d
       -0.028031383 0.11725427 0.002846174 0.09355052
000010 5d b2 d8 bd d8 cd 00 be 6c 47 dd 3c f2 98 30 bc
       -0.10580895 -0.12578523 0.027011596 -0.0107786525
000020 9d 5e ca bd fb b4 83 bd 73 33 b4 3d 28 38 b5 3d
       -0.09881327 -0.06431004 0.08798876 0.088486016
000030 72 9d b4 bd 39 08 46 bd da aa 17 bc 69 e2 46 bc
       -0.08819093 -0.048347685 -0.009257043 -0.012138941
000040 26 fb d1 bd 5c 92 ae 3d 65 2f a3 bd a9 02 a8 3d
       -0.10252981 0.085240096 -0.07968024 0.082036324
000050 80 90 92 bd ca 04 08 be 18 4e 29 3d 56 63 57 bd
       -0.071564674 -0.13283077 0.04133424 -0.05258497
000060 08 e4 bb 3d b5 17 4d bd 43 6d 3f 3c b8 9a d0 3d
       0.09174353 -0.050071437 0.011683765 0.1018576
000070 ad 2e b8 bd d2 d2 78 bd 1f 75 9f 3d 88 cd e9 3d
       -0.08993278 -0.06074793 0.07786011 0.11416155
000080 f2 ef 6b 3c 36 41 b8 3d 66 49 ac 3d a1 8e 82 3d
       0.014400469 0.08996813 0.08412437 0.063748606
000090 1a 57 56 bc a4 cd e8 3d 47 a4 4e bd bf 01 8d 3c
       -0.01308229 0.11367348 -0.050449636 0.017212747
0000a0 45 a8 34 bd a4 e2 3c 3b 7b a3 90 3d c0 f8 b4 3d
       -0.044105787 0.0028821612 0.070624314 0.08836508
0000b0 2c 2b 1d 3c 81 14 bc 3d 90 e3 c1 3d 64 f8 5c 3d
       0.0095928125 0.09183598 0.09467232 0.05394782
0000c0 bf 85 3d bd 90 fd 89 3d af 9e c7 3d 80 61 e6 3d
       -0.04627013 0.06737816 0.09747063 0.112490654
0000d0 cd cd c4 3c 92 e6 ce 3d 92 f1 bf bd 32 e3 08 3d
       0.024023915 0.101025715 -0.09372248 0.033419795
0000e0 45 df f1 bd 69 36 72 3d 6f 2e ec ba 08 66 1d bd
       -0.118101634 0.05913392 -0.0018019209 -0.038427383
0000f0 eb 5a ba 3d b8 9c 58 bc 23 26 32 3d 65 68 99 3d
       0.090993725 -0.013220958 0.0434934 0.07490615
