src/models/saved_models/dl_lstm_model.pth (torch, 134156 bytes, 9 tensors)

lstm.weight_ih_l0 f4 [200, 9]
00000000: 0bd2 4db2 9f72 0eb2 aa6b d6b1 7c42 e9b0
00000010: 071d 7a31 3d12 ec30 f4cd 06b1 6425 7c32
00000020: 0cec d0b0 afa3 ef3c fb4f 763c 51f4 313c
00000030: 76c0 653d 5089 e93c a167 823d dca2 323d
00000040: ed03 8d3c b9be a43c fe91 3939 1c27 61b7
00000050: 69c5 07b9 90e9 df39 dbcc 9238 8a96 233a
00000060: 56c0 a139 d646 fab8 dd70 c4b8 c4ad 7a3a
00000070: 632e 5839 2702 ec38 5d4b 033b 5a43 743a
00000080: b531 143b fe80 023b 9745 8d3a a09a 153b
00000090: de7d 203d 967a ab3c db15 753c 8e4b 9a3d
000000a0: 875f 213d 04b3 ae3d 35cb 673d 3a45 b83c
000000b0: e990 d13c 3c05 de3c dc04 5d3c fd27 203c
000000c0: 19df 4e3d 7324 d33c 770a 703d d9e7 233d
000000d0: 50b9 6a3c 5820 9d3c 7557 1e3a 28cd 8a3a
000000e0: 46cd b73a 15e4 203a dbc4 103b fab4 b93a
000000f0: a1c4 d13a 8711 ff39 3588 5fbb a0c4 793c
00000100: 5f8d ec3b e444 9d3b f303 ec3c 099f 5d3c
00000110: cc60 083d 2ec1 b93c 5a24 093c 3e0b 563c
00000120: b3b1 453d cf14 da3c c80b a53c cec7 bd3d
00000130: c11d 443d 80a5 d93d 8a98 943d 3b93 f13c
00000140: 2d1c 013d bba4 3d3b 325f 693a d94e a039
00000150: 2d54 be3b 716c de3a efac c93b e4c7 903b
00000160: e2c6 333b 7ef6 073c 61dd 503b ad1a a03a
00000170: 8030 383a 7b1d c83b 0cfb 303b 5872 e73b
00000180: fdf1 9a3b 98ec ab3a b127 2a3b 9071 79b6
00000190: 81e5 3fb5 f09a ac36 244b b836 fcf1 3836
000001a0: ebca ca36 6dcb c035 5e52 2037 7378 dd35
000001b0: 87f9 813b 2502 be3a 81f4 3f3a 5a1e f33b
000001c0: 4212 213b 31ce 023c 3123 c93b f338 7d3b
000001d0: d93a 353c 53e9 0db8 eae1 3bb8 ec2d 45b8
000001e0: fc7a 66b8 16a7 3ab8 0bbf 65b8 42f7 0fb8
000001f0: 26fe 35b8 5ad9 cdb7 9de4 073b b924 d63a
00000200: 174e bf3a 3d3e 723b 0c58 543b 125b 933b
00000210: a93c 563b a32f 5a3a 075a 2cbb 6c1b 8cb6
00000220: c38b adb6 b2db a9b6 d152 95b6 6940 74b6
00000230: c9b4 6cb6 32d8 67b6 8f80 0ab6 49ae 1bb6
00000240: 5bd4 95b6 c280 22b5 d697 da36 d183 ed36
00000250: 48f3 7736 5d2a 0237 1ba7 0b36 2f24 4d37
00000260: d20b 1836 e2b0 403a 64dd db3a dd46 253b
00000270: 4e7a b63a b422 783b 3dec 2a3b 8029 503b
00000280: 8900 283b 8732 d9ba 5777 d8b5 92c6 a3b5
00000290: 822e 0d35 0ed5 bc33 e3d7 ecb4 a3f0 b434
000002a0: 8bcf 16b5 6fec 9735 ae90 91b4 8464 a13a
000002b0: 6914 d43a e300 083b 1237 1a3b e614 603b
000002c0: 41db 583b e784 5f3b 0a45 1e3b 6114 02b9
000002d0: b7eb 553b e0c6 b23a 2d63 723a bcdd e13b
000002e0: 6626 373b dd9d f03b a8ce b83b 1a9b 893b
000002f0: 3c65 223c a3fa bf3a addc 0b3b 7777 4c3b
00000300: a191 003b 53b2 ae3b 26eb 803b 58ec 873b
00000310: c32f b63a 6f10 03bc cbfd db3b be6f 523b
00000320: a458 0f3b 95d0 523c f04f dc3b 7f21 723c
00000330: 38b8 233c 342e 5f3b 0ede 563b 92c6 84b6
00000340: 18f0 1fb5 00c9 df36 8f96 e136 1d2a 6e36
00000350: 67b9 0037 cafc 0336 674c 4037 024b 2736
00000360: 73a3 eab3 f4e7 92b3 7c10 88b3 4d49 f1b2
00000370: 5b31 2833 fa78 ea31 c02b b3b2 cb01 1134
00000380: 2779 5fb2 6d30 b239 2364 bd39 cbfb cc39
00000390: 46f1 9439 7b51 ff39 72c5 f439 10bf d039
000003a0: 93e6 9738 a719 f4b9 222f 4a3b 56b8 6d3a
000003b0: 30b2 9539 b9de c13b 06cf e83a 5f7f d83b
000003c0: 3415 903b 5e0a db3a 4f31 bc3b 1fa6 0a38
000003d0: 664b 9437 d93b acb6 28a2 eb36 a3f7 b936
000003e0: 6db6 1037 087c 7235 4856 20b8 71a7 fcb7
000003f0: 9dad c137 f179 4f37 e584 e4b6 f6ab 5436
-1.1980329e-08 -8.29155e-09 -6.2404597e-09 -1.6971877e-09 3.6396288e-09 1.7176444e-09 -1.9616637e-09 1.4676832e-08
-1.520108e-09 0.029252855 0.015033717 0.010861472 0.05609175 0.028507859 0.06367422 0.043612346
0.017213786 0.020110475 0.00017697361 -1.3420151e-05 -0.00012948144 0.00042707892 6.99998e-05 0.00062403886
0.00030851614 -0.00011934123 -9.367031e-05 0.0009562636 0.00020616646 0.00011253758 0.0020033934 0.00093178975
0.0022612636 0.001991331 0.0010778186 0.002282776 0.039182536 0.020932477 0.014958824 0.07533942
0.039397743 0.08530238 0.056590278 0.022493947 0.025581794 0.027102105 0.013489928 0.009775159
0.05050573 0.025774216 0.05860373 0.04001603 0.0143264085 0.019180462 0.0006040254 0.0010589706
0.0014022968 0.00061375025 0.0022089991 0.0014168315 0.0016004035 0.0004865045 -0.0034108285 0.015244633
0.007219001 0.004799472 0.028810477 0.0135266865 0.033295438 0.022675123 0.008370483 0.013064204
0.04826517 0.02662125 0.02014722 0.09266625 0.047879938 0.1062727 0.07255657 0.02948915
0.03152101 0.0028937298 0.000890243 0.00030576324 0.0058083744 0.0016969574 0.0061546485 0.00441836
0.0027431776 0.008298514 0.0031870233 0.0012214981 0.000702627 0.00610703 0.0027005104 0.0070631914
0.0047285543 0.0013116775 0.00259636 -3.7169993e-06 -7.1487017e-07 5.1440365e-06 5.492375e-06 2.755899e-06
6.043692e-06 1.436432e-06 9.555921e-06 1.6500838e-06 0.0039665136 0.0014496489 0.00073225057 0.0074193897
0.0024577533 0.00798373 0.0061382283 0.003863868 0.011061394 -3.383432e-05 -4.4794673e-05 -4.7011228e-05
-5.495081e-05 -4.4501467e-05 -5.4775777e-05 -3.4324134e-05 -4.3390457e-05 -2.4539117e-05 0.002073563 0.0016337849
0.0014595416 0.0036963366 0.0032401113 0.0044969404 0.0032689965 0.00083231385 -0.0026298778 -4.1755175e-06
-5.172072e-06 -5.0621684e-06 -4.450187e-06 -3.6396325e-06 -3.5271971e-06 -3.4547525e-06 -2.0638433e-06 -2.3198247e-06
-4.4652675e-06 -6.053707e-07 6.5145823e-06 7.078496e-06 3.6947476e-06 7.758467e-06 2.0809882e-06 1.2227377e-05
2.2656645e-06 0.00073505763 0.0016774354 0.002521924 0.0013921948 0.0037862482 0.002608075 0.0031763017
0.0025635085 -0.0016570844 -1.6127987e-06 -1.2202238e-06 5.259427e-07 8.7931866e-08 -4.4115504e-07 3.37027e-07
-5.618137e-07 1.1319188e-06 -2.7113623e-07 0.0012313281 0.0016180399 0.0020752482 0.002353136 0.0034192144
0.003308967 0.0034106316 0.0024150037 -0.00012405358 0.0032641718 0.0013639592 0.0009246346 0.006892888
0.0027946471 0.0073430375 0.0056398697 0.0041993978 0.0099118315 0.0014646839 0.002134125 0.0031199136
0.0019618052 0.0053313165 0.003934282 0.0041480474 0.0013899732 -0.007999524 0.006713604 0.003211006
0.0021872902 0.012867113 0.0067233965 0.014778494 0.009992652 0.0034054639 0.0032786164 -3.957023e-06
-5.95815e-07 6.6693174e-06 6.72305e-06 3.5489277e-06 7.672562e-06 1.9667664e-06 1.1461881e-05 2.49286e-06
-1.09262054e-07 -6.840847e-08 -6.335992e-08 -2.8089426e-08 3.9160437e-08 6.8240498e-09 -2.0858238e-08 1.350483e-07
-1.3007855e-08 0.00033986886 0.00036123497 0.00039097512 0.00028408522 0.00048698098 0.00046686415 0.00039815204
7.243189e-05 -0.0004655842 0.0030850847 0.0009068301 0.00028552255 0.005916443 0.0017761893 0.0066069807
0.004397059 0.0016711464 0.0057431827 3.3056476e-05 1.7678085e-05 -5.1329666e-06 7.0224232e-06 5.5422584e-06
8.625543e-06 9.0332514e-07 -3.822733e-05 -3.0118712e-05 2.3088238e-05 1.2366553e-05 -6.8104005e-06 3.1690556e-06

lstm.weight_hh_l0 f4 [200, 50]
00000000: 4425 ecae 4d03 a6af 5870 26af 969d 3032
00000010: 8455 8b30 463b 5630 9e7b 2bb2 750e 29b1
00000020: 700c a3b0 6352 2b32 4ff4 afb0 7efa 0eb0
00000030: f8df 4d32 1d16 dcaf aee8 f6b1 1fe4 6c2f
00000040: 6752 3930 ae5d 4ab2 de48 0c2f f4ce 4f32
00000050: cffe 3b32 2dff 41b2 bc3f fb30 fa9c cdaf
00000060: ac89 c72f 3ef9 8a31 472d ccb1 5172 1faf
00000070: 0ee7 1b2f 72dc 4fb2 c64d ecb1 27a1 32b2
00000080: d068 2830 79da a6b1 4bd9 9e31 b923 992f
00000090: 6939 802f fcc1 4e32 4cfe 25b0 c5cd acae
000000a0: 8fbc 3332 9af3 4ab1 077f 8a2f ba12 73af
000000b0: 90cb ce2e aa56 3a32 3b35 6b30 d6c2 01ae
000000c0: 0c46 4eb2 f968 1e32 3c33 c136 9a43 daba
000000d0: 3a40 61b7 e3ed f6bb 3594 f73a 6a87 f7ba
000000e0: e4ed da3b d11a 113b 3200 13bb fb37 eebb
000000f0: 8fb1 543a ebc9 27b9 5d67 33bc 5772 dcb9
00000100: b221 733b 4777 a838 f22d 5739 836c 1e3c
00000110: 07bd 1a38 2529 2fbc 1b1b 10bc 5dc6 073c
00000120: aa18 8939 c5fb f0b8 7c20 b4b7 063e f2ba
00000130: ac22 6f3b e486 50b8 7376 6b38 1eaf 3b3c
00000140: 9d70 793b 5191 f33b b6a3 103b 3ebf 1b3b
00000150: 9fa7 36ba 0f35 61b7 c38e 3439 5078 38bc
00000160: 3b1a 35b9 e3df aab7 2661 d2ba 4016 ab3a
00000170: c8ff 97b7 a743 09b9 8c56 8e38 866b 0abc
00000180: 7e55 3339 e566 87b7 aa48 2c3c 92b2 c3bb
00000190: 0352 42b2 91a9 1937 44c8 3934 fc2d ed38
000001a0: 3812 d3b6 a4c5 9437 a7e4 e4b8 8a55 08b8
000001b0: e6af dc36 99f1 ea38 c47e 78b7 d0da 6bb6
000001c0: edd4 0039 2c42 c0b6 d086 a2b8 54c8 5e34
000001d0: 09ec 8e36 c9be feb8 a665 8cb4 ad4a 0039
000001e0: 3162 f838 de14 f8b8 4cce 2337 9506 4bb6
000001f0: 5451 feb1 718e 3038 c22c 93b8 936f 13b5
00000200: 72af 6934 ad9d 00b9 c934 a1b8 708c edb8
00000210: 28fa 33b7 0483 5ab8 694b 1638 7010 a633
00000220: 4a8b 3d36 dcf0 0039 7e56 83b6 767c 83b4
00000230: b6cf a438 fd83 f8b7 0fc1 10b3 b432 94b5
00000240: a433 9e35 2a02 f738 23a3 7636 adc2 25b4
00000250: b4d8 ffb8 df02 d738 2fde 1eb4 4356 6c39
00000260: 2b11 d237 aa23 11b8 3426 83b9 3963 8639
00000270: eca6 0c38 ddb7 6bb9 0fa5 9339 c7b1 3eb6
00000280: 5813 11b9 4708 cfb7 3e50 30b9 ffea 55b8
00000290: 6290 4db8 affd ab36 cfd6 fd37 0e8e 1e39
000002a0: 08f2 06b6 9e70 4db9 23bb 92b8 5c0f f638
000002b0: 21e1 30b7 1228 adb7 4597 9034 3197 d838
000002c0: ce8d 0eb9 e017 6db5 784b 2ab6 5f43 4f39
000002d0: 893a 96b8 4fed 5038 b63b 93b9 1df0 d0b8
000002e0: 9666 46b7 788c 0535 559a b937 03c3 36b9
000002f0: b952 e5b7 aa97 a2b5 4f18 7bb9 3ef8 d2b8
00000300: bc30 4133 fef9 2ab7 2406 2a37 93c3 82b8
00000310: a9fe ce36 70c1 cab5 6dc7 4139 c2ab f935
00000320: df94 1e37 8d4c 2cbb 9442 87b8 2ce5 30bc
00000330: 60e5 3e3b 3179 43bb 3206 1c3c 4d7f 5d3b
00000340: fc74 5fbb cd9f 2abc 342a b63a 16fd 44b9
00000350: 1db5 7ebc 4def fbb9 0c60 ae3b 1c85 9038
00000360: 73ce 7d39 8e92 603c 6539 6638 f521 78bc
00000370: c9d6 4dbc a05a 403c 1d29 a739 3184 0fb9
00000380: 897d 10b8 3d48 33bb 7e16 af3b 8826 88b8
00000390: a9c6 bb38 171e 853c 43fe b33b 56a3 2d3c
000003a0: 23d6 5d3b a445 643b c775 81ba c234 b9b7
000003b0: 3ef1 5739 a2e4 82bc 508e 50b9 3462 ceb7
000003c0: 50ec f8ba d9eb 013b 1b58 e0b7 e7ad 21b9
000003d0: 5b06 9938 8faa 45bc 7cdf 4639 453c a3b7
000003e0: 3c25 743c 350b 0cbc c34b 8d36 332a a9ba
000003f0: a423 7e37 8e71 e7bb b8b1 bf3a 379a c7ba
-1.0738657e-10 -3.019757e-10 -1.5137525e-10 1.0280379e-08 1.0137886e-09 7.793698e-10 -9.981617e-09 -2.4600955e-09
-1.1863346e-09 9.972243e-09 -1.2802363e-09 -5.201527e-10 1.1983495e-08 -4.003348e-10 -7.185995e-09 2.154512e-10
6.741971e-10 -1.1779248e-08 1.2758813e-10 1.20960415e-08 1.0942769e-08 -1.1292099e-08 1.8280768e-09 -3.740082e-10
3.629571e-10 4.044664e-09 -5.942329e-09 -1.4501579e-10 1.4179255e-10 -1.2099109e-08 -6.877346e-09 -1.0397605e-08
6.126699e-10 -4.8560733e-09 4.6231086e-09 2.785592e-10 2.3323857e-10 1.2034885e-08 -6.038803e-10 -7.8582064e-11
1.0462045e-08 -2.953334e-09 2.5192312e-10 -2.2107374e-10 9.4039554e-11 1.084633e-08 8.5568147e-10 -2.9504253e-11
-1.2006705e-08 9.220678e-09 5.7578127e-06 -0.0016652227 -1.3425999e-05 -0.0075356825 0.0018888774 -0.0018884961
0.006681191 0.0022141228 -0.0022430536 -0.007269857 0.00081136165 -0.00016001581 -0.010949937 -0.0004204686
0.0037098941 8.0330814e-05 0.00020521114 0.009669426 3.6892507e-05 -0.010690962 -0.008795525 0.00828704
0.00026149052 -0.000114909875 -2.1472799e-05 -0.0018481619 0.0036489172 -4.971669e-05 5.613868e-05 0.011455325
0.0038061508 0.0074330945 0.0022070236 0.0023765112 -0.00069677265 -1.3423399e-05 0.0001721932 -0.0112591535
-0.00017271277 -2.0369835e-05 -0.0016050681 0.0013052896 -1.811971e-05 -0.0001309054 6.787208e-05 -0.008448487
0.00017102619 -1.6141168e-05 0.010515371 -0.005972215 -1.13109335e-08 9.158991e-06 1.7302324e-07 0.00011309606
-6.290411e-06 1.7735008e-05 -0.00010914477 -3.250459e-05 6.576988e-06 0.000112029906 -1.4811467e-05 -3.5145094e-06
0.00012286352 -5.7297493e-06 -7.749873e-05 2.074824e-07 4.259408e-06 -0.000121472 -2.615099e-07 0.0001223485
0.00011843851 -0.00011829448 9.763589e-06 -3.0253188e-06 -7.401619e-09 4.209433e-05 -7.017843e-05 -5.492413e-07
2.1763643e-07 -0.0001226577 -7.68691e-05 -0.00011327199 -1.07274755e-05 -5.2097268e-05 3.5833018e-05 7.732967e-08
2.8244272e-06 0.00012296758 -3.9141732e-06 -2.449121e-07 7.8588186e-05 -2.9625366e-05 -3.37032e-08 -1.1041616e-06
1.1786947e-06 0.00011778281 3.6751815e-06 -1.5437645e-07 -0.00012199712 0.00010252534 -1.4795727e-07 0.00022538849
2.5041945e-05 -3.460391e-05 -0.0002501473 0.00025632398 3.353406e-05 -0.00022479841 0.00028161003 -2.8415686e-06
-0.00013835484 -2.4680177e-05 -0.0001681456 -5.1002015e-05 -4.9010276e-05 5.12573e-06 3.0259978e-05 0.00015120974
-2.0108437e-06 -0.00019592277 -6.9966794e-05 0.00011733055 -1.0542834e-05 -2.0641866e-05 2.6932153e-07 0.00010327844
-0.00013595002 -8.832412e-07 -2.5375903e-06 0.00019766156 -7.1634604e-05 4.9812075e-05 -0.00028082513 -9.9629375e-05
-1.1825605e-05 4.975077e-07 2.2125585e-05 -0.0001742952 -2.7337448e-05 -1.2114081e-06 -0.00023946281 -0.00010059819
4.4980638e-08 -1.0190995e-05 1.0134219e-05 -6.2353116e-05 6.1689248e-06 -1.510647e-06 0.00018480206 1.8601934e-06
9.452196e-06 -0.0026290745 -6.449703e-05 -0.010796826 0.0029128417 -0.0029826874 0.009522961 0.00337978
-0.0034096828 -0.010414076 0.0013898076 -0.00018786298 -0.01554611 -0.00048052744 0.0053215083 6.8912486e-05
0.00024204869 0.013706816 5.4889726e-05 -0.015144815 -0.012563416 0.011740357 0.00031883354 -0.00013686788
-3.444919e-05 -0.002735629 0.0053432574 -6.492162e-05 8.953858e-05 0.0162497 0.005492957 0.010598024
0.003384956 0.0034831548 -0.0009877019 -2.2078286e-05 0.00020593868 -0.015978161 -0.00019889441 -2.4602843e-05
-0.0018991325 0.0019824414 -2.6743908e-05 -0.0001541894 7.296792e-05 -0.01206459 0.00018966006 -1.945918e-05
0.0149014555 -0.008547594 4.2109473e-06 -0.0012906253 1.5147878e-05 -0.0070630973 0.0014625108 -0.0015228455

lstm.bias_ih_l0 f4 [200]
00000000: 8f7b 9534 c781 dd3d d030 803a d69b a63b
00000010: 702f 143e a4ec d23d 1758 b03b 7d9c 663d
00000020: e18f 383e 930c 163c 1aea 353c 3249 8437
00000030: 03ae 723c 0465 89b9 eb31 053c 8484 cc37
00000040: 9ee2 ae37 bf04 223c 4e73 2537 de2d 323c
00000050: e02d 3d3c 80a9 723c 985a c03c 23d8 0038
00000060: ef50 3436 0ba6 fc39 b597 223c 6e07 9bb8
00000070: dc64 8ab8 deb6 5e3c 2a95 0e3b a815 ac3b
00000080: 0790 203e e69f 1d3a c034 8e3d 2586 e535
00000090: 362d 6137 d25e 9a3c d322 2038 f65a 3235
000000a0: 2b6e a03e 978b 74b9 403c 3135 7bee a136
000000b0: d812 1134 cfc2 073c 0ae1 033b 88b2 9eb4
000000c0: 1c79 233c 6efe 4e3b 745f 9f34 72ad 35bd
000000d0: 04f7 49ba 03f8 6e3b 6b93 7cbd ceec 26bd
000000e0: 7222 3b3b 1a25 babc 4d6e a2bd 3c7e 7c3a
000000f0: 0c39 b1bb e099 ee36 aa4a e93b f38f 8cb9
00000100: 6302 73bb 633d d837 ee24 4337 86f3 063c
00000110: 0000 5236 72bc 1e3c 30c2 823b cb49 1b3b
00000120: 218e 2ebc e363 8037 d878 4236 5fca 0dba
00000130: ebc1 88bb ea32 7fb8 8bc5 48b8 af4b 023c
00000140: 0422 9f39 c9da 903b 49cb 8abd 482f c0b9
00000150: cf2d 02bd eccf e735 ee87 6e37 9185 c03b
00000160: e3ff 9d37 0edc 0135 d27f 22be aa58 c5b9
00000170: 83e4 4635 cba8 f9b5 6e0c 4bb6 7b2c 7f3b
00000180: f4c8 bdba c629 a3b4 0b11 123c 26a3 1c3b
00000190: af8e 44b7 b36d afbd f37a 1f3d 52af 9bbd
000001a0: b7d1 b03d 23a6 72bc 62db 8a3d 55a5 1cbb
000001b0: 436e 853d c2fa 94bd 70dc 14bd bd00 3f3a
000001c0: ab35 ddbd 70a4 f83a 050e 263d 6e4c 92b9
000001d0: 5906 7cba 2db3 c83d 1560 7fb9 8ef5 d2bd
000001e0: 2016 a7bd 808a ac3d 38cd d3bc 265b 0d3a
000001f0: ab92 1b38 47cc b4bc f8e7 583d d129 a13a
00000200: 7c53 56ba 0255 da3d bb97 123d e2b9 943d
00000210: 6571 6fbd 0199 eb3c 1ede 5c3c 0fe6 a337
00000220: 16c2 3cba d82d d2bd a457 453a d400 1e38
00000230: 4320 81bd ce35 873c f56d e837 4f0c 003a
00000240: 1e48 d9b8 9f1a a4bd ca99 1fbb 4815 ec38
00000250: a8c6 d63d bdeb 70bd 7e7d 9534 7198 db3d
00000260: 4b2a 803a 0f40 aa3b d1a0 123e fdee d03d
00000270: 94b8 b33b 3d00 653d af4a 363e 1836 183c
00000280: f286 353c a64e 8437 cdf4 7a3c 6867 89b9
00000290: 648e 063c c75f cc37 e7e7 ae37 a4ee 283c
000002a0: 4480 2537 548a 3a3c c748 423c 7901 7c3c
000002b0: 5900 c03c cedb 0038 c953 3436 c1d0 fd39
000002c0: d0c2 223c c103 9bb8 1663 8ab8 617f 673c
000002d0: 4ac8 0f3b 8730 b03b 8aab 1e3e 666e 1e3a
000002e0: d71d 8e3d 6b8e e535 d43d 6137 bb11 9f3c
000002f0: 3926 2038 b257 3235 1aee 9d3e fe94 74b9
00000300: 443f 3135 f70c a236 307a 1234 2de9 0a3c
00000310: 0dde 033b 11b2 9eb4 d556 2b3c d90f 523b
2.7843313e-07 0.10815769 0.0009780172 0.005084495 0.14471221 0.10299042 0.005381595 0.056301583
0.18023635 0.009158271 0.011103177 1.576971e-05 0.014811995 -0.0002620594 0.008129577 2.4380402e-05
2.0847943e-05 0.009888827 9.861613e-06 0.010875193 0.011546582 0.01481092 0.023480698 3.071887e-05
2.68692e-06 0.00048188897 0.009923865 -7.39236e-05 -6.599139e-05 0.013593404 0.002175639 0.005251605
0.15679942 0.00060129014 0.06943655 1.7100871e-06 1.3421572e-05 0.018844042 3.8179405e-05 6.6442533e-07
0.3133405 -0.00023321655 6.6025314e-07 4.8259367e-06 1.3511033e-07 0.008286192 0.0020123147 -2.9559692e-07
0.009977605 0.0031584757 2.968551e-07 -0.044354863 -0.00077043497 0.0036463744 -0.061664026 -0.04075318
0.0028554467 -0.02272277 -0.079311945 0.00096318475 -0.005408412 7.110866e-06 0.0071194964 -0.0002681013
-0.003708028 2.5777792e-05 1.1631504e-05 0.008236771 3.1292439e-06 0.009688484 0.003990434 0.0023695107
-0.010654003 1.5305302e-05 2.8978593e-06 -0.0005408879 -0.0041735074 -6.0844155e-05 -4.7867692e-05 0.007952615
0.00030352187 0.0044206125 -0.06777055 -0.0003665632 -0.031781968 1.7271354e-06 1.4217554e-05 0.0058752974
1.8835015e-05 4.8376467e-07 -0.15869072 -0.00037640828 7.4093276e-07 -1.8601071e-06 -3.0256592e-06 0.0038936425
-0.0014479444 -3.039151e-07 0.008915196 0.0023900955 -1.17157315e-05 -0.08565845 0.038935613 -0.07601799
0.0863375 -0.014810118 0.06780125 -0.0023902257 0.065151714 -0.07274391 -0.036343038 0.0007286182
-0.10801252 0.0018969905 0.040540714 -0.00027904235 -0.0009613983 0.097998 -0.00024354488 -0.10300742
-0.08158517 0.08424854 -0.025854692 0.00053923053 3.7091475e-05 -0.022070063 0.052955598 0.0012295787
-0.0008175892 0.10660745 0.035789233 0.07262017 -0.05845775 0.028759481 0.013480691 1.9538244e-05
-0.0007200552 -0.1026265 0.0007528013 3.7670907e-05 -0.063049816 0.016505148 2.7707758e-05 0.00048846466
-0.00010360799 -0.0801289 -0.002435314 0.00011257321 0.104871094 -0.058818568 2.784472e-07 0.10722435
0.0009778229 0.0051956247 0.14319159 0.102018334 0.00548465 0.05590843 0.17801927 0.009290241
0.011079537 1.577225e-05 0.015317154 -0.0002620772 0.0082126595 2.4363295e-05 2.0850404e-05 0.010310803
9.864631e-06 0.011385519 0.011858172 0.0153812105 0.023437666 3.0722287e-05 2.687086e-06 0.00048411454
0.009934142 -7.391675e-05 -6.598809e-05 0.014129491 0.002193945 0.0053768787 0.15495124 0.00060436723
0.06939285 1.7103279e-06 1.3425441e-05 0.019417634 3.818257e-05 6.643778e-07 0.3084572 -0.00023325157
6.60297e-07 4.8294855e-06 1.3641761e-07 0.008478445 0.0020121366 -2.9559354e-07 0.010457714 0.0032052903

lstm.bias_hh_l0 f4 [200]
00000000: 8f7b 9534 4a89 dd3d d030 803a d69b a63b
00000010: f02a 143e f0e8 d23d 1758 b03b 5d9b 663d
00000020: a2b0 383e ba0c 163c 1aea 353c 3249 8437
00000030: 82a2 723c 0465 89b9 eb31 053c 8484 cc37
00000040: 9ee2 ae37 b5b6 213c 4e73 2537 e22d 323c
00000050: e02d 3d3c 87a6 723c 985a c03c 23d8 0038
00000060: ef50 3436 0ba6 fc39 5c97 223c 6e07 9bb8
00000070: dc64 8ab8 71cb 5e3c 2a95 0e3b a815 ac3b
00000080: 4893 203e e69f 1d3a 7f38 8e3d 2586 e535
00000090: 362d 6137 3c55 9a3c d322 2038 f65a 3235
000000a0: c24c a03e 978b 74b9 403c 3135 7bee a136
000000b0: d812 1134 cfc2 073c 0ae1 033b 88b2 9eb4
000000c0: be7a 233c 6efe 4e3b 745f 9f34 72ad 35bd
000000d0: 04f7 49ba 03f8 6e3b 6b93 7cbd ceec 26bd
000000e0: 7222 3b3b 1a25 babc 4d6e a2bd 2c7e 7c3a
000000f0: 0c39 b1bb e099 ee36 a345 e93b f38f 8cb9
00000100: 4102 73bb 633d d837 ee24 4337 76ec 063c
00000110: 0000 5236 72bc 1e3c 30c2 823b d532 203b
00000120: 218e 2ebc e363 8037 d878 4236 5fca 0dba
00000130: 0ac2 88bb ea32 7fb8 8bc5 48b8 31f4 013c
00000140: 0422 9f39 c9da 903b 49cb 8abd 482f c0b9
00000150: f12d 02bd eccf e735 ee87 6e37 6985 c03b
00000160: e3ff 9d37 0edc 0135 67e2 22be aa58 c5b9
00000170: 83e4 4635 cba8 f9b5 6e0c 4bb6 7f2c 7f3b
00000180: f4c8 bdba c629 a3b4 af0f 123c 26a3 1c3b
00000190: af8e 44b7 0cb8 c33d 6d1d 18bd 91f3 92bd
000001a0: 84e6 c9bd 0991 453c cf21 8f3d 8808 d43c
000001b0: 506b 50bd 5c70 85bd 2eae 493d bd00 3f3a
000001c0: 49b7 cbbd 70a4 f83a 49cd 573d 32e5 8fb9
000001d0: 5d06 7cba 0024 b63d 1560 7fb9 0f0e d6bd
000001e0: 8457 a5bd 562e b03d 5313 1aba 265b 0d3a
000001f0: ab92 1b38 c05b c4bc cb8d 873c a8ee a03a
00000200: 7c0c 52ba 5ab5 ec3d 80b5 3d3d 8ba9 943d
00000210: 3b0d 403d bed7 e13c cdf9 95bd 0fe6 a337
00000220: 16c2 3cba d153 ddbd a457 453a d400 1e38
00000230: 2fe9 f8bc e98e 873c f56d e837 4f0c 003a
00000240: b7a9 c4b8 4fbd a7bd 3ab8 36bc 4815 ec38
00000250: 269e ca3d a7ca 81bd 7e7d 9534 7398 db3d
00000260: 4b2a 803a 0f40 aa3b 5db1 123e c2ee d03d
00000270: 94b8 b33b ebff 643d 4d4b 363e 6436 183c
00000280: f286 353c a64e 8437 2edd 7a3c 6867 89b9
00000290: 648e 063c c75f cc37 e7e7 ae37 4bb3 283c
000002a0: 4480 2537 568a 3a3c c748 423c 61f5 7b3c
000002b0: 5900 c03c cedb 0038 c953 3436 c1d0 fd39
000002c0: 01c3 223c c103 9bb8 1663 8ab8 7869 673c
000002d0: 4cc8 0f3b 8730 b03b 1ca5 1e3e 666e 1e3a
000002e0: fb1f 8e3d 6b8e e535 d43d 6137 a711 9f3c
000002f0: 3926 2038 b257 3235 d964 9e3e fe94 74b9
00000300: 443f 3135 f70c a236 307a 1234 2de9 0a3c
00000310: 0dde 033b 11b2 9eb4 3656 2b3c d90f 523b
2.7843313e-07 0.108172014 0.0009780172 0.005084495 0.14469504 0.102983356 0.005381595 0.05630051
0.1803613 0.009158308 0.011103177 1.576971e-05 0.014809253 -0.0002620594 0.008129577 2.4380402e-05
2.0847943e-05 0.009870221 9.861613e-06 0.010875197 0.011546582 0.014810211 0.023480698 3.071887e-05
2.68692e-06 0.00048188897 0.009923782 -7.39236e-05 -6.599139e-05 0.013598309 0.002175639 0.005251605
0.15681183 0.00060129014 0.069443695 1.7100871e-06 1.3421572e-05 0.018839471 3.8179405e-05 6.6442533e-07
0.31308562 -0.00023321655 6.6025314e-07 4.8259367e-06 1.3511033e-07 0.008286192 0.0020123147 -2.9559692e-07
0.0099779945 0.0031584757 2.968551e-07 -0.044354863 -0.00077043497 0.0036463744 -0.061664026 -0.04075318
0.0028554467 -0.02272277 -0.079311945 0.0009631838 -0.005408412 7.110866e-06 0.007118897 -0.0002681013
-0.00370802 2.5777792e-05 1.1631504e-05 0.008235088 3.1292439e-06 0.009688484 0.003990434 0.002444436
-0.010654003 1.5305302e-05 2.8978593e-06 -0.0005408879 -0.004173522 -6.0844155e-05 -4.7867692e-05 0.007931755
0.00030352187 0.0044206125 -0.06777055 -0.0003665632 -0.031782094 1.7271354e-06 1.4217554e-05 0.0058752787
1.8835015e-05 4.8376467e-07 -0.15906678 -0.00037640828 7.4093276e-07 -1.8601071e-06 -3.0256592e-06 0.0038936434
-0.0014479444 -3.039151e-07 0.008914872 0.0023900955 -1.17157315e-05 0.095565885 -0.037137438 -0.07175363
-0.098584205 0.012058505 0.0698887 0.025882974 -0.05088359 -0.065155715 0.049238376 0.0007286182
-0.09947068 0.0018969905 0.05268601 -0.0002744585 -0.00096139853 0.08893585 -0.00024354488 -0.104519
-0.08073333 0.08602588 -0.00058775133 0.00053923053 3.7091475e-05 -0.023969531 0.016547104 0.0012278156
-0.00080127246 0.115580276 0.04631567 0.072589 0.046887618 0.027568694 -0.07323036 1.9538244e-05
-0.0007200552 -0.10807002 0.0007528013 3.7670907e-05 -0.030384628 0.016547637 2.7707758e-05 0.00048846466
-9.37762e-05 -0.081904046 -0.0111523215 0.00011257321 0.09893446 -0.06337481 2.784472e-07 0.10722437
0.0009778229 0.0051956247 0.14325471 0.102017894 0.00548465 0.055908125 0.17802162 0.0092903115
0.011079537 1.577225e-05 0.015311522 -0.0002620772 0.0082126595 2.4363295e-05 2.0850404e-05 0.010296653
9.864631e-06 0.011385521 0.011858172 0.015378327 0.023437666 3.0722287e-05 2.687086e-06 0.00048411454
0.009934188 -7.391675e-05 -6.598809e-05 0.014124267 0.0021939455 0.0053768787 0.15492672 0.00060436723
0.069396935 1.7103279e-06 1.3425441e-05 0.019417597 3.818257e-05 6.643778e-07 0.30936316 -0.00023325157
6.60297e-07 4.8294855e-06 1.3641761e-07 0.008478445 0.0020121366 -2.9559354e-07 0.010457566 0.0032052903

lstm.weight_ih_l1 f4 [200, 50]
00000000: d597 2cb3 3076 7938 e2ef 5636 06fb 7838
00000010: fe98 99b8 7778 7438 8b3f 54b8 b0d4 52b8
00000020: c4bd b238 516e 8638 9054 abb7 06bf 03b6
00000030: 73f8 a138 d75b 8ab6 6562 dbb7 e4dc 5635
00000040: d3ee 2136 6868 8eb8 be09 aeb4 1f94 9438
00000050: 3563 9538 7c91 63b8 e462 5eb7 7a85 d9b5
00000060: 19fd f233 8d1a a737 b488 3ab8 5059 2b35
00000070: 0045 8db5 9d1a a0b8 1ad0 14b8 0302 78b8
00000080: 759a a9b8 d74b c8b7 92da c8b7 efb3 f433
00000090: ac49 d735 3ade a738 3d2e 19b6 375b c0b2
000000a0: 4c76 ddb8 3511 81b7 d6db 9833 230c 7cb5
000000b0: 7b7a 8c35 27d7 8b38 34ff 6db6 b38d ddb3
000000c0: 8761 95b8 8650 4c38 d4fe 78b5 373d 0e39
000000d0: 7dd9 9438 3268 ae38 a8c3 96b8 a184 fc38
000000e0: 4462 75b8 613f 15b9 531f b9b7 c1e6 9d38
000000f0: b46a 37b9 495c 0eb8 d004 4138 8e87 96b8
00000100: e83e 80b8 2b96 1537 4003 2d38 6561 1fb8
00000110: 5aa5 bcb6 2536 b837 9583 7938 563c 99b8
00000120: 0ec1 62b9 3bf4 efb7 6522 4036 20e1 7938
00000130: fce8 e4b8 5c38 6c37 3648 9ab7 5831 44b8
00000140: b814 93b8 9004 2eb8 1f3a c6b7 6c80 80b8
00000150: 7547 41b9 7965 1d36 c86a ff37 073c 0c38
00000160: 8cd5 20b8 0448 99b4 c525 fa39 53c9 76b8
00000170: e6ad 0136 2095 45b7 86a2 8637 8047 9638
00000180: ee5c b8b8 5932 0fb6 d5ba b6b7 d9ce 6638
00000190: 87ab 27b2 ecb0 8a34 f4fe b832 fbf3 be36
000001a0: 57ae a9b3 d9ef 3935 a3ca afb6 16cc b1b5
000001b0: 22ad 9333 7f5d b736 d86f 35b5 f806 7134
000001c0: 1bb9 ef36 5469 9334 1fed 62b6 ca86 1c35
000001d0: d59c 67b4 24b6 e0b6 2554 0234 5333 ed36
000001e0: ffc4 d136 dc45 d0b6 250a 1635 a08a 8c34
000001f0: e418 0433 4bfc e735 9422 46b6 25b2 beb2
00000200: 0c2d dbb2 6644 f5b6 8cdd 59b6 0b68 bbb6
00000210: efb6 88b4 bae7 0fb6 33a3 eb35 1697 fd32
00000220: d4e8 e7b4 65f3 f136 f3db 1734 3cb9 4e32
00000230: 0ede 9536 4ea7 a4b5 7792 b532 3ce3 4eb4
00000240: afdc bd33 23e7 cd36 8328 8434 f2cf 1932
00000250: bea1 eab6 1d07 9f36 9b3e 21b4 9f7e 1839
00000260: 5bca 4637 a8ff d038 57bb 28b9 0afe 1239
00000270: 4346 b0b8 ef93 01b9 2ae9 2d39 c88d e238
00000280: 1935 83b8 2bf2 d7b6 c04a fd38 e0f6 66b7
00000290: 410e 28b8 0bfc 2f36 81ff 0337 5e09 e1b8
000002a0: f5dd b3b5 0439 e538 248c f138 877e bbb8
000002b0: c179 55b8 1c66 b4b6 9770 ee34 ad86 3638
000002c0: 1bcd c2b8 6a80 2136 dd6f 84b6 efed fab8
000002d0: 7d18 8cb8 10b5 cab8 d1ac 2cb9 b709 4fb8
000002e0: 450f bfb8 2df8 d234 9b87 b336 aa0f 0139
000002f0: c48a fbb6 c26e 6cb2 21c1 10b9 3da6 1bb8
00000300: 652c 9f34 c97b 3eb6 8efe 7036 4ca6 e538
00000310: dabb 72b7 103f c3b4 1c7d e6b8 3b81 ad38
00000320: aa2d d7b1 dca1 6bb3 c814 71b2 d84c 6435
00000330: 56b2 ec33 2cb0 1033 328c 59b5 9e2a 30b4
00000340: 05e1 0ab4 1148 5a35 eaf5 b9b3 00e8 0fb3
00000350: b273 8f35 d6d0 1cb3 8b26 18b5 047e 7732
00000360: d8fb 3b33 7feb 87b5 75dd 2532 a7f4 8f35
00000370: 06ce 7735 ab26 7fb5 b897 2434 0a66 cab2
00000380: 8c2f b732 861d a334 6854 f3b4 9a48 4db2
00000390: df3d 5132 b4bb 93b5 8103 0eb5 1c54 64b5
000003a0: e9b8 b833 b4bf c5b4 bcc0 cd34 fd86 8932
000003b0: 88a9 a232 dcf7 9035 3186 22b3 c7e2 c1b1
000003c0: b8f0 6c35 3db3 6bb4 cf73 7932 c217 90b2
000003d0: f211 ce31 9c96 7435 7456 9833 4548 1bb1
000003e0: d01b 8eb5 1504 4635 4598 94b0 7b45 fbb2
000003f0: d49f b9b1 8bf6 c534 fa47 6133 de34 3231
-4.018496e-08 5.9476297e-05 3.2028115e-06 5.936159e-05 -7.3241055e-05 5.8286325e-05 -5.0603918e-05 -5.0265982e-05
8.523048e-05 6.410166e-05 -2.0424166e-05 -1.9631711e-06 7.7233555e-05 -4.123412e-06 -2.6152653e-05 8.004265e-07
2.4129884e-06 -6.790535e-05 -3.2417114e-07 7.08478e-05 7.1233524e-05 -5.425651e-05 -1.3255256e-05 -1.6206607e-06
1.1315041e-07 1.9920315e-05 -4.447317e-05 6.383243e-07 -1.05254e-06 -7.634352e-05 -3.547976e-05 -5.912968e-05
-8.087318e-05 -2.3877174e-05 -2.3943638e-05 1.1394865e-07 1.604019e-06 8.0045735e-05 -2.282569e-06 -2.2393221e-08
-0.00010560136 -1.5386011e-05 7.1180395e-08 -9.3894977e-07 1.0466459e-06 6.668112e-05 -3.54643e-06 -1.03168894e-07
-7.1230395e-05 4.8712383e-05 -9.2758023e-07 0.0001356498 7.0977e-05 8.3163744e-05 -7.189001e-05 0.000120410004
-5.850407e-05 -0.00014233358 -2.2068305e-05 7.529325e-05 -0.0001749199 -3.3941385e-05 4.6019268e-05 -7.1778064e-05
-6.115233e-05 8.916056e-06 4.124944e-05 -3.799926e-05 -5.622086e-06 2.1959722e-05 5.948877e-05 -7.306847e-05
-0.00021624958 -2.8604749e-05 2.863025e-06 5.957589e-05 -0.00010915284 1.4079818e-05 -1.8391856e-05 -4.6775996e-05
-7.0133654e-05 -4.1489082e-05 -2.3630504e-05 -6.127436e-05 -0.00018432534 2.3453888e-06 3.0448093e-05 3.3434506e-05
-3.8345854e-05 -2.855087e-07 0.00047711856 -5.883847e-05 1.932372e-06 -1.1776836e-05 1.6049726e-05 7.165875e-05
-8.791113e-05 -2.1337967e-06 -2.1783091e-05 5.5028915e-05 -9.75968e-09 2.583323e-07 2.1536358e-08 5.6908443e-06
-7.901388e-08 6.9266895e-07 -5.2389964e-06 -1.3246924e-06 6.8767136e-08 5.4647094e-06 -6.759051e-07 2.2447409e-07
7.144304e-06 2.745752e-07 -3.3814647e-06 5.831067e-07 -2.1570607e-07 -6.696924e-06 1.2137805e-07 7.0691253e-06
6.2516187e-06 -6.2070158e-06 5.5894117e-07 2.6177895e-07 3.0756283e-08 1.7284268e-06 -2.9524426e-06 -2.2199922e-08
-2.551544e-08 -7.3095316e-06 -3.2464477e-06 -5.5851465e-06 -2.5465076e-07 -2.1443543e-06 1.7556362e-06 2.9521782e-08
-4.3196508e-07 7.2106945e-06 1.4142988e-07 1.2032896e-08 4.4663966e-06 -1.2267644e-06 2.1137778e-08 -1.9267912e-07
8.8411404e-08 6.136384e-06 2.4616392e-07 8.953053e-09 -6.9925727e-06 4.7393974e-06 -1.5017069e-07 0.0001454302
1.1848834e-05 9.9658326e-05 -0.00016091518 0.00014018282 -8.405421e-05 -0.00012357508 0.00016585426 0.000108029286
-6.256457e-05 -6.4356914e-06 0.000120779034 -1.3766548e-05 -4.0067596e-05 2.622374e-06 7.867698e-06 -0.00010730581
-1.3401137e-06 0.00010930191 0.00011517879 -8.9404224e-05 -5.089655e-05 -5.376305e-06 4.4412874e-07 4.3517608e-05
-9.288845e-05 2.4065616e-06 -3.946929e-06 -0.000119652475 -6.6802815e-05 -9.665836e-05 -0.00016467577 -4.9361694e-05
-9.110434e-05 3.929612e-07 5.3504023e-06 0.00012308234 -7.4965374e-06 -1.3762191e-08 -0.00013804856 -3.71097e-05
2.964836e-07 -2.8384259e-06 3.5910957e-06 0.00010950546 -1.4468062e-05 -3.6367464e-07 -0.00010990558 8.273354e-05
-6.262515e-09 -5.486241e-08 -1.4032771e-08 8.504844e-07 1.10220455e-07 3.368784e-08 -8.104281e-07 -1.6406781e-07
-1.2934113e-07 8.13162e-07 -8.659465e-08 -3.3505785e-08 1.0688002e-06 -3.6511516e-08 -5.66805e-07 1.4405945e-08
4.376838e-08 -1.0126822e-06 9.6546175e-09 1.0725533e-06 9.2314474e-07 -9.505117e-07 1.5328885e-07 -2.3562297e-08
2.1325626e-08 3.0382597e-07 -4.532369e-07 -1.1949078e-08 1.2179469e-08 -1.1006982e-06 -5.290422e-07 -8.5059014e-07
8.601803e-08 -3.6833592e-07 3.8324458e-07 1.6010285e-08 1.8936376e-08 1.0800973e-06 -3.784061e-08 -5.642821e-09
8.8267143e-07 -2.1951287e-07 1.4520039e-08 -1.677461e-08 5.997429e-09 9.111625e-07 7.093777e-08 -2.259655e-09
-1.0587919e-06 7.376669e-07 -1.0811695e-09 -2.9251842e-08 -5.402379e-09 3.6873493e-07 5.2452357e-08 2.593246e-09

lstm.weight_hh_l1 f4 [200, 50]
00000000: 9006 9eb6 85b1 0a38 a11a f534 d5c3 5f37
00000010: 013f 45b4 1383 2bb4 9e6e 86b7 941c 0fb8
00000020: ee3c 0c34 b5f2 5038 234c 4538 203d bc37
00000030: 70cb eb33 b5c4 2f35 b33b 3a38 cec4 88b5
00000040: c594 09b2 765d 9332 b8ef 2435 8b94 fd31
00000050: bc4a 5eb8 4e30 b0b3 5124 05b6 2659 0db8
00000060: 7e71 77b8 a050 e335 17d2 0036 15a5 5d33
00000070: aaf9 88b5 7da4 9ab7 f6c9 2638 0c30 9e37
00000080: d944 5eb3 18bb f437 d263 2a38 792e 5c31
00000090: c53c 06b8 1615 b6b4 57f9 6f35 6e91 0933
000000a0: 15ff bf33 2d01 0bb5 a8c4 28b5 a7a3 0bb8
000000b0: b475 70b3 e774 3bb8 ee49 bfb2 d8d3 29b7
000000c0: b0e5 2e38 22f6 5235 c36b 6cb8 6448 0139
000000d0: b7a2 a036 0efa bf38 1ce5 2ab6 6707 c9b5
000000e0: 9e5c dfb8 7d2c 01b9 bca9 2835 6232 1139
000000f0: b5ea 0839 bfd5 f938 f867 3435 4044 2137
00000100: 6585 0239 3e12 72b7 8df6 34b4 ddb8 9634
00000110: 71eb 3337 4712 65b4 5db5 2db8 c3a8 08b6
00000120: c09c 13b8 8500 2fb9 ebba f2b8 0903 36ba
00000130: 94a5 0f38 2c9e 1736 4f37 72b7 883f e5b8
00000140: c0ed 0739 c377 e038 72c8 81b5 0cec f538
00000150: 0a93 0c39 7022 3731 5e0a e3b9 10f4 10b7
00000160: b985 3c37 1e6a 31b4 7c56 8333 aa4d 02b7
00000170: 2804 0db7 37ac 16b9 450f 89b4 f2e2 0ab9
00000180: c449 e8b4 8084 3cb8 fe0b 0839 fdcf 1b37
00000190: 7c69 99b4 b0ac 2236 59a1 2635 8c42 6935
000001a0: ef55 fd33 25dd 87b3 96a3 88b5 aa84 29b6
000001b0: df2e 8bb3 dfa4 8336 97c0 7936 5440 c835
000001c0: af0b 6633 300c f6b3 889b 6b36 d8f0 f5b3
000001d0: 8840 e6ae a718 1eb2 7fb0 6bb3 3c76 04b2
000001e0: cc36 9bb6 649b c733 2b1e e233 7e72 11b6
000001f0: e3a7 aab6 56d6 9836 f2ee c5b4 e48a c2b3
00000200: 63d3 f7b3 17bd a1b5 b6fa 4936 c975 a835
00000210: 47e7 57b1 3bb8 0d36 d0a3 4c36 8316 2131
00000220: bf04 08b5 28c2 ae34 13b9 8f34 e4c4 a1b2
00000230: ef55 59b3 0b8e 95b2 a469 d5b3 ac64 19b6
00000240: 75fb bb32 0a0e 69b6 0feb 2630 d2f1 4ab5
00000250: 9f02 5636 64dd 9033 b93b 7ab7 9a82 9038
00000260: d229 e235 aaf7 1638 10b2 54b5 1407 8bb4
00000270: b453 33b8 edf0 92b8 4338 c834 0f63 be38
00000280: 2a3c b438 c197 6538 658b 2f34 cff8 0936
00000290: 6a9c ab38 f67a 54b6 571c 01b3 1331 7a33
000002a0: 9806 0436 28dc aab0 2f37 afb8 e884 0ab5
000002b0: 04ed dbb6 fba3 a3b8 efa6 cbb8 e9d9 dab8
000002c0: 0d9f da36 9719 aa34 42ec 54b6 4899 45b8
000002d0: d215 a338 d2c7 4638 0eb3 35b4 293c 8438
000002e0: 3141 a738 c0d0 e631 b8d9 ecb8 b415 d8b5
000002f0: c2e5 2a36 5e1a 7a33 a4ab 7234 4c16 b4b5
00000300: ccf6 ccb5 9e0d 9ab8 2e52 0cb4 f578 afb8
00000310: 66c1 a8b3 863a d3b7 54d1 a738 cc20 0936
00000320: 9115 33b3 0cb4 cf34 58d0 0332 535f 1834
00000330: 0c1b 4633 642d b8b2 351d 31b4 55eb d7b4
00000340: 4860 f1b2 d73f 2135 dd15 1a35 4ad7 8134
00000350: ff34 7232 0457 f0b2 c75a 1235 4809 6fb2
00000360: 3b3d a9ae 07e5 18b0 7c63 cf31 ea0b 8bb1
00000370: 8061 42b5 25d4 f432 8efe 9cb2 9e28 b5b4
00000380: e170 4db5 2c93 6635 5e2a 80b2 ad16 21b2
00000390: e635 6eb2 1ca3 52b4 d1a1 fd34 0927 5c34
000003a0: 4342 c4b0 cf88 b634 e71e 0035 f565 482f
000003b0: c636 0631 83c6 2c33 760a f532 6f6e 19b2
000003c0: 8f56 c3b2 3c19 04b3 8e56 2fb3 8514 c2b4
000003d0: 7796 1832 ba8a 10b5 9b9c 3eaf 1955 20b4
000003e0: ecc2 0535 93d7 aa32 a58e 70b2 3ea4 1834
000003f0: a560 ef31 48ec 5133 adfa 1732 8633 8eb0
-4.709531e-06 3.3067092e-05 4.565418e-07 1.33374315e-05 -1.8369975e-07 -1.59733e-07 -1.6025555e-05 -3.4120472e-05
1.3060682e-07 4.9817103e-05 4.7039368e-05 2.243981e-05 1.0980045e-07 6.5478827e-07 4.4401455e-05 -1.0190067e-06
-8.008276e-09 1.7155553e-08 6.14436e-07 7.3801565e-09 -5.2998526e-05 -8.204425e-08 -1.9839683e-06 -3.3700046e-05
-5.8995087e-05 1.6936283e-06 1.9195775e-06 5.1605713e-08 -1.0205451e-06 -1.8434826e-05 3.9765575e-05 1.8857441e-05
-5.175102e-08 2.9174189e-05 4.0624123e-05 3.204063e-09 -3.2004686e-05 -3.3915484e-07 8.9397275e-07 3.2030066e-08
8.94053e-08 -5.1783246e-07 -6.287105e-07 -3.3292596e-05 -5.5986405e-08 -4.4693148e-05 -2.2268946e-08 -1.0122509e-05
4.1698746e-05 7.8589267e-07 -5.6367146e-05 0.00012329366 4.787314e-06 9.154166e-05 -2.5465333e-06 -1.4977821e-06
-0.0001065072 -0.00012318972 6.2831873e-07 0.00013847047 0.00013057406 0.000119130586 6.720652e-07 9.6122385e-06
0.0001244746 -1.4428571e-05 -1.6853501e-07 2.8074183e-07 1.0724049e-05 -2.1333936e-07 -4.1415322e-05 -2.0363811e-06
-3.5193516e-05 -0.00016689494 -0.000115742754 -0.00069432013 3.4248063e-05 2.2592822e-06 -1.4437202e-05 -0.000109314045
0.00012963172 0.0001070346 -9.669586e-07 0.000117264775 0.00013406217 2.664958e-09 -0.00043304538 -8.639894e-06
1.1236808e-05 -1.6523015e-07 6.115894e-08 -7.766686e-06 -8.405223e-06 -0.0001436927 -2.552935e-07 -0.0001324525
-4.326704e-07 -4.4946093e-05 0.00012974438 9.287146e-06 -2.857522e-07 2.4240398e-06 6.207461e-07 8.68961e-07
1.1796862e-07 -6.326653e-08 -1.0180399e-06 -2.5260183e-06 -6.481218e-08 3.9232978e-06 3.7215993e-06 1.4919883e-06
5.3561674e-08 -1.14574846e-07 3.510826e-06 -1.1452511e-07 -1.0470652e-10 -9.202416e-09 -5.4875724e-08 -7.710295e-09
-4.625739e-06 9.294925e-08 1.05294326e-07 -2.1673327e-06 -5.0859394e-06 4.554905e-06 -3.6867965e-07 -9.059093e-08
-1.1540285e-07 -1.2050467e-06 3.0097267e-06 1.2551255e-06 -3.1418084e-09 2.1117874e-06 3.049372e-06 2.344138e-09
-5.0670855e-07 3.2551293e-07 2.6770485e-07 -1.8832402e-08 -5.0602406e-08 -1.7410477e-08 -9.937801e-08 -2.2857375e-06
2.1884015e-08 -3.4727877e-06 6.0724487e-10 -7.560276e-07 3.189001e-06 6.745793e-08 -1.49150665e-05 6.8907815e-05
1.6850483e-06 3.5993442e-05 -7.923527e-07 -2.5895918e-07 -4.275488e-05 -7.0066984e-05 3.729384e-07 9.078357e-05
8.594275e-05 5.4739186e-05 1.6348856e-07 2.0559416e-06 8.18305e-05 -3.1662034e-06 -3.0060928e-08 5.8252294e-08
1.967337e-06 -1.24317e-09 -8.354929e-05 -5.160241e-07 -6.554301e-06 -7.8029894e-05 -9.710888e-05 -0.00010435639
6.5154222e-06 3.1683587e-07 -3.1727982e-06 -4.7111214e-05 7.77651e-05 4.7392976e-05 -1.6922078e-07 6.305456e-05
7.9753234e-05 6.717613e-09 -0.0001129391 -1.609957e-06 2.546571e-06 5.823164e-08 2.2600449e-07 -1.3417534e-06
-1.5271012e-06 -7.3458286e-05 -1.3068413e-07 -8.36718e-05 -7.8582886e-08 -2.5180412e-05 8.002171e-05 2.043368e-06
-4.16963e-08 3.8687756e-07 7.6725755e-09 1.4190782e-07 4.6125066e-08 -2.144106e-08 -1.6495035e-07 -4.0218097e-07
-2.8099876e-08 6.0070073e-07 5.7401286e-07 2.4184766e-07 1.4098304e-08 -2.7979247e-08 5.4521337e-07 -1.3913741e-08
-7.696107e-11 -5.5622745e-10 6.035803e-09 -4.046787e-09 -7.2412513e-07 2.850181e-08 -1.8276548e-08 -3.374343e-07
-7.653271e-07 8.589584e-07 -1.4920428e-08 -9.376589e-09 -1.3865678e-08 -1.9617113e-07 4.724266e-07 2.0503298e-07
-1.427971e-09 3.3999683e-07 4.7728685e-07 1.8226116e-10 1.9530702e-09 4.0227416e-08 2.8526511e-08 -8.930882e-09
-2.274035e-08 -3.0756595e-08 -4.0824084e-08 -3.6150246e-07 8.881776e-09 -5.3846054e-07 -1.7336037e-10 -1.493212e-07
4.983001e-07 1.9888637e-08 -1.4002272e-08 1.4215854e-07 6.9668027e-09 4.88765e-08 8.846354e-09 -1.0346504e-09

lstm.bias_ih_l1 f4 [200]
00000000: 22d0 34b9 84bb 583a 0823 0a38 ba62 e8b8
00000010: d7a2 6537 49b8 13b6 8c62 983a 6b75 4e3a
00000020: 5021 a636 734a 4a3c 4c4f 973b 7ffc ff3a
00000030: 124e 9eb5 4861 8734 637b df3a dcec 9c37
00000040: 4231 3630 8947 54b3 7a75 07b6 206d 8933
00000050: 66e5 2a3a 928a 68b5 9ab6 4db8 0765 0b3d
00000060: a4ce 9a3b 6553 113f 743f a1b8 d0ba fcb5
00000070: 4e56 9a37 cc50 553a 82b0 303b 5198 8f39
00000080: f853 9eb2 b4cc aa39 e6f3 ac3b 09b5 96b1
00000090: edcc 9d3e 685c 3ab7 7e09 0337 faf4 a634
000000a0: 1c12 4a36 803c d6b5 48d9 4135 cea7 503c
000000b0: a274 dd33 e336 973b 9224 d030 acfb f93a
000000c0: d66f 543b 4ba1 71b8 444e fcb9 0d7a 22ba
000000d0: 41d3 0b38 a812 18ba 6268 5d37 8c28 12b6
000000e0: edff b4ba f7e5 f8b9 c9dd a136 f038 31bb
000000f0: 1bca 36ba 8456 cbba 9cc8 a0b5 9ef8 09b5
00000100: 0a4f 65b9 b164 9d37 5e52 ab2f 98c4 f5b1
00000110: e438 2fb6 fcae 8133 d87d cdba b2b0 60b5
00000120: 1e6e 5db8 e579 2ebc 2367 9839 67db 93be
00000130: a146 adb8 9010 07b6 53cc 9a37 8a4e 95ba
00000140: 6c74 5aba 94b6 52ba fc82 ec30 84ce b3b9
00000150: e525 d4ba eccc beb0 548e fabd db28 5cb7
00000160: 98b1 0537 5260 b034 a932 4536 a2e0 b3b5
00000170: 56cb 9e35 3c26 8ebb 5efd ed33 3cde 5eba
00000180: 1f27 93b0 437a 1cbb 4674 7aba 2566 f9b8
00000190: 78fc bb3c 087a 65bd 388c 1ab9 34e0 06bd
000001a0: faa1 44b9 70e1 1c39 b653 843d 28be 5b3c
000001b0: e668 a337 9614 80bd fa6d 9dbd 56e3 d13c
000001c0: 9b92 4bb8 56d9 e6b8 2919 05bd b8db b139
000001d0: 51af f8ba fd76 9b38 2fde 26b9 a54d a2b5
000001e0: b03e 843d e538 4db9 230d 193a 275e 8dbd
000001f0: c832 833d c61e 85bc 2c8e c3b9 a85a 58b8
00000200: 7499 b139 f942 aebc 1685 32bd c010 dbbc
00000210: 83a5 1339 b638 d5bc 1047 b1bd e078 04b8
00000220: 9a47 d5bc f4e8 9bb9 56e5 f7b9 9ab4 7336
00000230: 311c 1137 0f1b ca39 d937 0d3a e868 4dbb
00000240: 1c65 0b38 0a1b 173d 65a0 7538 9848 583c
00000250: 59d8 08bd 83fc 68bc 17d0 34b9 8ddb 583a
00000260: d90d 0a38 a678 e8b8 42aa 6537 ecb5 13b6
00000270: 3278 983a d4a6 4e3a 3e26 a636 0ac8 4b3c
00000280: 0119 983b ca1b 003b 8f49 9eb5 9290 8734
00000290: d209 e03a b4f7 9c37 a82b 3630 a844 54b3
000002a0: 1275 07b6 d370 8933 5fb8 373a d172 68b5
000002b0: b3b6 4db8 ced6 0b3d 5cdc 9b3b 4c4e 153f
000002c0: d93e a1b8 51b6 fcb5 2461 9a37 b370 553a
000002d0: ea2f 313b 15a1 8f39 2c50 9eb2 6017 ab39
000002e0: fd91 ad3b d4b3 96b1 4bd4 9f3e ea45 3ab7
000002f0: 8019 0337 e6fe a634 8d18 4a36 c72a d6b5
00000300: 681f 4235 f138 513c a47a dd33 5fe4 973b
00000310: 721b d030 8e21 fa3a 0209 553b 3ba1 71b8
-0.00017243673 0.0008267688 3.293439e-05 -0.00011081011 1.3687378e-05 -2.2011975e-06 0.0011626049 0.0007875773
4.9510636e-06 0.012346852 0.004617607 0.0019530206 -1.1794639e-06 2.521649e-07 0.0017050322 1.8706945e-05
6.6281214e-10 -4.9425157e-08 -2.0184948e-06 6.3994094e-08 0.00065191684 -8.662838e-07 -4.904587e-05 0.034031894
0.0047243405 0.56767875 -7.688897e-05 -1.8829833e-06 1.839842e-05 0.0008137345 0.0026960676 0.0002738857
-1.8431805e-08 0.00032577442 0.0052780984 -4.386156e-09 0.30820408 -1.1107979e-05 7.8104185e-06 3.1098153e-07
3.0110887e-06 -1.596185e-06 7.221429e-07 0.01273532 1.031233e-07 0.0046146973 1.5144386e-09 0.0019072196
0.0032415292 -5.7609093e-05 -0.00048123498 -0.00061979966 3.3336928e-05 -0.000580112 1.319693e-05 -2.1779297e-06
-0.0013809182 -0.00047473583 4.823993e-06 -0.0027041994 -0.0006972865 -0.0015513455 -1.1979314e-06 -5.139826e-07
-0.00021868586 1.8762747e-05 3.1163244e-10 -7.1527886e-09 -2.6110147e-06 6.03886e-08 -0.0015677763 -8.370363e-07
-5.279306e-05 -0.010649179 0.00029068542 -0.28878328 -8.2624385e-05 -2.0126208e-06 1.8453376e-05 -0.0011391204
-0.0008333388 -0.00080380705 1.7208488e-09 -0.00034295407 -0.001618561 -1.3882562e-09 -0.12234178 -1.3122534e-05
7.968767e-06 3.2852637e-07 2.9384776e-06 -1.3401916e-06 1.1831096e-06 -0.004338054 1.108226e-07 -0.00085017434
-1.0706777e-09 -0.0023876585 -0.0009554069 -0.00011892271 0.022947535 -0.05602458 -0.0001473882 -0.03292866
-0.00018752358 0.00014961301 0.06461279 0.013412036 1.9479961e-05 -0.062539265 -0.07686992 0.025621098
-4.853551e-05 -0.000110077366 -0.032494698 0.00033923774 -0.0018973147 7.413139e-05 -0.00015913763 -1.2092538e-06
0.06457269 -0.00019571518 0.00058384443 -0.06902724 0.0640617 -0.016250025 -0.00037299225 -5.1582843e-05
0.00033874402 -0.02127217 -0.043583952 -0.026741385 0.0001408067 -0.026028018 -0.08656132 -3.1583826e-05
-0.026035119 -0.00029737467 -0.0004728238 3.6314946e-06 8.649237e-06 0.00038548603 0.0005387045 -0.0031343047
3.3234348e-05 0.03689102 5.856193e-05 0.013200901 -0.03340945 -0.01422036 -0.00017243657 0.0008272462
3.291466e-05 -0.000110850946 1.3689105e-05 -2.20106e-06 0.0011632501 0.00078831357 4.9516375e-06 0.01243783
0.0046416526 0.0019547814 -1.1793326e-06 2.5250898e-07 0.001709277 1.8711995e-05 6.6273254e-10 -4.942254e-08
-2.0184712e-06 6.400082e-08 0.00070083694 -8.6593815e-07 -4.904596e-05 0.0341404 0.0047564935 0.58322597
-7.6887845e-05 -1.8828524e-06 1.8403465e-05 0.00081420987 0.0027036616 0.000273951 -1.8430079e-08 0.00032633077
0.005296944 -4.3860187e-09 0.31216654 -1.1102742e-05 7.814146e-06 3.1105372e-07 3.0114636e-06 -1.5956692e-06
7.2316334e-07 0.012769924 1.0313423e-07 0.0046353783 1.5141792e-09 0.0019083486 0.003250659 -5.7609035e-05

lstm.bias_hh_l1 f4 [200]
00000000: 22d0 34b9 84bb 583a 0823 0a38 ba62 e8b8
00000010: d7a2 6537 49b8 13b6 8c62 983a 6b75 4e3a
00000020: 5021 a636 fa50 4a3c 6552 973b 7ffc ff3a
00000030: 124e 9eb5 4861 8734 637b df3a dcec 9c37
00000040: 4231 3630 8947 54b3 7a75 07b6 206d 8933
00000050: 0c6a 463a 928a 68b5 9ab6 4db8 b95d 0b3d
00000060: 7b4b 9a3b 254d 123f 743f a1b8 d0ba fcb5
00000070: 4e56 9a37 cc50 553a 82b0 303b 5198 8f39
00000080: f853 9eb2 b4cc aa39 e0f3 ac3b 09b5 96b1
00000090: 7964 9e3e 685c 3ab7 7e09 0337 faf4 a634
000000a0: 1c12 4a36 803c d6b5 48d9 4135 c7a7 503c
000000b0: a274 dd33 cd32 973b 9224 d030 acfb f93a
000000c0: fc6f 543b 4ba1 71b8 444e fcb9 0d7a 22ba
000000d0: 41d3 0b38 a812 18ba 6268 5d37 8c28 12b6
000000e0: edff b4ba f7e5 f8b9 c9dd a136 f038 31bb
000000f0: efc7 36ba 8456 cbba 9cc8 a0b5 9ef8 09b5
00000100: 0a4f 65b9 b164 9d37 5e52 ab2f 98c4 f5b1
00000110: e438 2fb6 fcae 8133 4110 ccba b2b0 60b5
00000120: 1e6e 5db8 e579 2ebc b2ec 8839 e667 94be
00000130: a146 adb8 9010 07b6 53cc 9a37 8a4e 95ba
00000140: 6c74 5aba 94b6 52ba fc82 ec30 84ce b3b9
00000150: e325 d4ba eccc beb0 548e fabd db28 5cb7
00000160: 98b1 0537 5260 b034 a932 4536 a2e0 b3b5
00000170: 56cb 9e35 3c26 8ebb 5efd ed33 2ddb 5eba
00000180: 1f27 93b0 437a 1cbb 518b 7aba 2566 f9b8
00000190: eeb7 7cbc c9b0 bebb 388c 1ab9 53fc 253c
000001a0: faa1 44b9 70e1 1c39 7ebb 23bd a68e 513d
000001b0: e668 a337 d86a 0fbd 3011 8bbc 7826 80bd
000001c0: 9b92 4bb8 56d9 e6b8 ceba 6dbd 4abf b139
000001d0: f681 003b ed3f b538 2fde 26b9 a54d a2b5
000001e0: 26a9 8a3d e538 4db9 230d 193a 4425 e03d
000001f0: 092d 933d d110 efbc 2c8e c3b9 a85a 58b8
00000200: 7499 b139 5b28 513d 2b52 03bd 797f afbb
00000210: 83a5 1339 4f2c e7bc 58cf 313c 4079 04b8
00000220: a539 df3c f4e8 9bb9 56e5 f7b9 9ab4 7336
00000230: 311c 1137 0f1b ca39 d937 0d3a b9f3 673d
00000240: 0e98 f8b7 416c 4a3d 65a0 7538 276e 973c
00000250: 4148 3ebd b6c7 003c 17d0 34b9 8ddb 583a
00000260: d90d 0a38 a678 e8b8 42aa 6537 ecb5 13b6
00000270: 3278 983a d4a6 4e3a 3e26 a636 46c8 4b3c
00000280: d11b 983b ca1b 003b 8f49 9eb5 9290 8734
00000290: d209 e03a b4f7 9c37 a82b 3630 a844 54b3
000002a0: 1275 07b6 d370 8933 ff0f 373a d172 68b5
000002b0: b3b6 4db8 cfe2 0b3d f9ed 9d3b d25e 113f
000002c0: d93e a1b8 51b6 fcb5 2461 9a37 b370 553a
000002d0: ef2f 313b 15a1 8f39 2c50 9eb2 6017 ab39
000002e0: f691 ad3b d4b3 96b1 e598 9e3e ea45 3ab7
000002f0: 8019 0337 e6fe a634 8d18 4a36 c72a d6b5
00000300: 681f 4235 e138 513c a47a dd33 efec 973b
00000310: 721b d030 8e21 fa3a 6c0a 553b 3ba1 71b8
-0.00017243673 0.0008267688 3.293439e-05 -0.00011081011 1.3687378e-05 -2.2011975e-06 0.0011626049 0.0007875773
4.9510636e-06 0.012348408 0.0046179765 0.0019530206 -1.1794639e-06 2.521649e-07 0.0017050322 1.8706945e-05
6.6281214e-10 -4.9425157e-08 -2.0184948e-06 6.3994094e-08 0.0007568903 -8.662838e-07 -4.904587e-05 0.034024928
0.004708705 0.57148963 -7.688897e-05 -1.8829833e-06 1.839842e-05 0.0008137345 0.0026960676 0.0002738857
-1.8431805e-08 0.00032577442 0.0052780956 -4.386156e-09 0.3093603 -1.1107979e-05 7.8104185e-06 3.1098153e-07
3.0110887e-06 -1.596185e-06 7.221429e-07 0.012735314 1.031233e-07 0.00461421 1.5144386e-09 0.0019072196
0.003241538 -5.7609093e-05 -0.00048123498 -0.00061979966 3.3336928e-05 -0.000580112 1.319693e-05 -2.1779297e-06
-0.0013809182 -0.00047473583 4.823993e-06 -0.0027041994 -0.00069725415 -0.0015513455 -1.1979314e-06 -5.139826e-07
-0.00021868586 1.8762747e-05 3.1163244e-10 -7.1527886e-09 -2.6110147e-06 6.03886e-08 -0.0015568809 -8.370363e-07
-5.279306e-05 -0.010649179 0.00026116293 -0.28985518 -8.2624385e-05 -2.0126208e-06 1.8453376e-05 -0.0011391204
-0.0008333388 -0.00080380705 1.7208488e-09 -0.00034295407 -0.0016185608 -1.3882562e-09 -0.12234178 -1.3122534e-05
7.968767e-06 3.2852637e-07 2.9384776e-06 -1.3401916e-06 1.1831096e-06 -0.004338054 1.108226e-07 -0.00085012877
-1.0706777e-09 -0.0023876585 -0.0009557503 -0.00011892271 -0.015424712 -0.0058194143 -0.0001473882 0.01013096
-0.00018752358 0.00014961301 -0.03997373 0.05116143 1.9479961e-05 -0.035014004 -0.01697597 -0.06257337
-4.853551e-05 -0.000110077366 -0.05803948 0.00033902592 0.0019608713 8.64266e-05 -0.00015913763 -1.2092538e-06
0.06770544 -0.00019571518 0.00058384443 0.10944608 0.07186324 -0.029182823 -0.00037299225 -5.1582843e-05
0.00033874402 0.051063877 -0.032060783 -0.005355772 0.0001408067 -0.02821937 0.010852657 -3.1584175e-05
0.027249167 -0.00029737467 -0.0004728238 3.6314946e-06 8.649237e-06 0.00038548603 0.0005387045 0.056628916
-2.963471e-05 0.049419645 5.856193e-05 0.018485142 -0.046455625 0.007860115 -0.00017243657 0.0008272462
3.291466e-05 -0.000110850946 1.3689105e-05 -2.20106e-06 0.0011632501 0.00078831357 4.9516375e-06 0.012437886
0.004641988 0.0019547814 -1.1793326e-06 2.5250898e-07 0.001709277 1.8711995e-05 6.6273254e-10 -4.942254e-08
-2.0184712e-06 6.400082e-08 0.00069832796 -8.6593815e-07 -4.904596e-05 0.03415185 0.0048196283 0.5678531
-7.6887845e-05 -1.8828524e-06 1.8403465e-05 0.00081420987 0.0027036627 0.000273951 -1.8430079e-08 0.00032633077
0.005296941 -4.3860187e-09 0.30976024 -1.1102742e-05 7.814146e-06 3.1105372e-07 3.0114636e-06 -1.5956692e-06
7.2316334e-07 0.012769909 1.0313423e-07 0.004636399 1.5141792e-09 0.0019083486 0.0032507433 -5.7609035e-05

fc.weight f4 [1, 50]
00000000: dd3a 073d e521 83bd b9fe ebb8 d456 1dbd
00000010: 0435 ff39 41c0 9db9 3ba4 b53d d2bd 6f3d
00000020: 502a 42b9 3f4e 49be 95b8 f5bd 969a d3bd
00000030: 2c17 7039 f38b 91b9 2a2e 92bd 41c5 9fb9
00000040: 9511 b138 c7fd a539 e7e5 0cb9 d68c 1ab6
00000050: c941 d6bd 0df6 0039 a8d8 1d3a 086b 9e3e
00000060: 8945 de3d e559 873f 4675 a3ba 7830 88b9
00000070: 4988 9fb9 cf7f 9f3d f563 cbbd 537b 6dbd
00000080: f353 a139 0ee0 2abd e2e4 0ebe a0eb bc38
00000090: f820 453f e6de 9b3a cb4d 353a c0c0 8638
000000a0: f462 1cb9 e200 33b9 d4b3 33ba 5ab5 583e
000000b0: bf3d 7ab7 960c f83d 5dff 0439 96f1 e6bd
000000c0: 222a e0bd e90e ad3c
0.03301512 -0.06402949 -0.00011253119 -0.038412884 0.0004867689 -0.00030088614 0.08869215 0.058530636
-0.00018517044 -0.19658755 -0.11998097 -0.10332219 0.00022896816 -0.00027760825 -0.07137711 -0.0003047381
8.4432926e-05 0.0003166033 -0.00013437086 -2.3029766e-06 -0.10461766 0.00012298692 0.0006021359 0.30941033
0.108531065 1.0574309 -0.0012470863 -0.00025976053 -0.00030428384 0.077880494 -0.09931175 -0.05797894
0.0003077086 -0.04171758 -0.139545 9.008427e-05 0.7700343 0.001189199 0.0006916194 6.4255204e-05
-0.00014914182 -0.00017071099 -0.00068551046 0.2116293 -1.4915538e-05 0.121117756 0.00012683631 -0.112765476
-0.10945536 0.021125274
