src/models/saved_models/dl_resnet_cnn_model.pth (torch, 64128 bytes, 36 tensors)

block1.conv1.weight f4 [8, 1, 3]
000000 f3 1b d6 3e c0 80 03 3f 6f a6 de bd 61 e6 01 3f
       0.418182 0.5136833 -0.108715884 0.50742155
000010 9e e8 10 be cb b0 00 3e af 37 99 be e7 39 ad 3e
       -0.14151236 0.12567441 -0.29925296 0.33833238
000020 d3 83 f9 3e f0 81 d3 be 91 ac 03 3f 32 8f d1 3d
       0.48733386 -0.41310072 0.5143519 0.102323905
000030 26 8e d4 3e 21 4e 43 3d ce f5 95 3e d4 5a 8b bd
       0.415147 0.04768193 0.29289097 -0.068044335
000040 e7 02 ea 3e 98 e8 a2 3d 14 4d 63 be 4c b9 e3 3d
       0.4570534 0.0795452 -0.22197372 0.11119327
000050 5d bd d9 be 3d 9c 29 bd b8 e2 65 be 1f 86 cb 3e
       -0.42527285 -0.041408766 -0.22449768 0.39750764

block1.conv1.bias f4 [8]
000000 e0 88 e9 be f2 17 88 be 0c 19 27 be bd c0 b1 be
       -0.4561224 -0.2658077 -0.16318148 -0.3471736
000010 e9 53 5f 3d 2b c1 11 bf 57 65 05 3f 00 c9 fa be
       0.054523382 -0.56935376 0.5210776 -0.48981476

block1.bn1.weight f4 [8]
000000 3b dd 7b 3f ac 32 81 3f 8a 53 82 3f 08 8b 78 3f
       0.98384446 1.0093589 1.0181744 0.97087145
000010 94 21 83 3f 4a ac 7b 3f 40 27 87 3f 37 c7 7a 3f
       1.0244622 0.9830977 1.0558853 0.9796023

block1.bn1.bias f4 [8]
000000 4d 7f c1 bc e0 05 79 bb 47 3d ff 3c e4 d2 9d bc
       -0.023620272 -0.0037997887 0.031157149 -0.0192656
000010 68 ed ca 3c 22 65 93 3d c9 24 3f 3d ae 11 5b 3d
       0.024771407 0.07197024 0.04666594 0.053483658

block1.bn1.running_mean f4 [8]
000000 c8 d3 d6 be 0b ba 7b be e2 4f 0f be b0 5b ac be
       -0.4195845 -0.24582689 -0.13995317 -0.33663702
000010 3a a9 b0 3d f5 45 0c bf 81 98 ff 3e 70 7b f8 be
       0.086260274 -0.54794246 0.4992104 -0.48531675

block1.bn1.running_var f4 [8]
000000 af 79 d6 3a 83 0f 16 3a a0 cd 7a 3a e5 13 cc 39
       0.0016363169 0.00057243573 0.00095673837 0.00038924735
000010 03 42 96 3a 4d 31 16 3a 72 a6 20 3a 2c 85 38 39
       0.0011463765 0.0005729392 0.0006128318 0.00017597218

block1.conv2.weight f4 [8, 8, 3]
000000 de 79 f2 3d 5b b4 2c 3d f3 71 79 bd b5 f9 e0 3d
       0.118396506 0.042164188 -0.060899686 0.10985128
000010 9f bf 3f ba a0 1c 2a 3e 9f 73 45 3d 54 00 8c bd
       -0.00073146255 0.16612482 0.048205968 -0.06836
000020 57 07 40 3d 6d 8c a8 bc d7 ea a4 3d e1 87 21 3e
       0.046882 -0.020574773 0.08052605 0.1577449
000030 2a 4b d1 3d bc 90 cf bd 87 7e fb 3d 72 b3 ea 3c
       0.102194145 -0.10135028 0.122799926 0.02865002
000040 a7 e0 04 3e e7 42 07 be b6 5f 56 be c3 88 8f bd
       0.12976323 -0.13209115 -0.20934948 -0.07008507
000050 63 df 44 be 58 42 45 3e 71 12 41 3d 55 a2 ce 3d
       -0.1922584 0.1926359 0.047136728 0.10089556
000060 04 ed 65 3d 25 01 ae bb 2c c4 24 3e 7c 56 1a be
       0.05613424 -0.005310195 0.16090459 -0.15072054
000070 7b e1 ab 3b b2 7f 11 be e5 f8 7a 3d 81 f3 8c bd
       0.005245385 -0.14208868 0.06127252 -0.06882382
000080 7d 23 85 3d 34 b9 59 bd a9 55 27 3e 1d 04 f9 bd
       0.065009095 -0.05315514 0.1634127 -0.12158988
000090 76 c5 00 be 45 67 fe bd 9b 8d 3c 3e a6 a0 81 3d
       -0.12575325 -0.12422041 0.18413393 0.063294694
0000a0 fc 4c 4b 3e 78 45 2b be 98 e9 4a be ac c2 17 be
       0.19853586 -0.16725719 -0.19815671 -0.14820355
0000b0 4a 35 07 be af a6 87 3d 1a c5 92 3d 8b fe 28 3e
       -0.13203922 0.06623589 0.071665004 0.1650335
0000c0 90 90 b6 bd 43 71 0d be 54 a3 f0 3d 0a db 7a bd
       -0.08914292 -0.13812737 0.11749902 -0.06124405
0000d0 ef b5 0a 3e 6a af 57 bd 55 38 e6 3d 29 79 2c be
       0.13545965 -0.052657522 0.11241213 -0.16843094
0000e0 c2 64 d1 bd 26 43 55 3d 4c ea 65 3c e3 8f 76 bd
       -0.10224296 0.05206599 0.0140329115 -0.060195815
0000f0 8c 75 07 3e ee 51 1a 3e b3 81 17 be 5f 5d d7 bd
       0.13228434 0.15070316 -0.1479557 -0.10515856
000100 71 64 3c 3e 1f 06 7c bd 0e 4c e3 bd bd 84 4e be
       0.1839769 -0.061529275 -0.11098491 -0.20167823
000110 f1 1c 88 bd 41 a9 ca 3c 33 31 ff bc 54 57 0a be
       -0.06646145 0.02473891 -0.03115139 -0.13509876
000120 83 41 38 3d e1 4e dd bd ef f3 f4 bd 12 12 91 bd
       0.04498435 -0.108060606 -0.11960589 -0.07083525
000130 d9 80 f8 bd 75 c0 af bd 8f 16 7c 3e f8 ff 5c 3d
       -0.12133951 -0.0858163 0.2461798 0.05395505
000140 ed 1b 89 3d 4a 68 35 be 8f 29 23 be ee 7f a3 bd
       0.066947795 -0.17715564 -0.15933822 -0.07983385
000150 94 be 99 3d be bf 00 be a0 c6 14 bd 6d 20 a3 bd
       0.07507053 -0.12573144 -0.036322236 -0.07965169
000160 0d f2 17 3d 02 8b 19 bd 3c 33 a0 bd e1 51 3b be
       0.037096072 -0.037486084 -0.07822272 -0.18292953
000170 21 d2 09 be ae 2a df bd d6 4e d3 bd 30 f5 2a be
       -0.13459064 -0.108968124 -0.10317771 -0.16695094
000180 f7 b6 32 3e 18 43 56 bd 10 f4 2d 3e c4 b0 69 3d
       0.17452608 -0.05231008 0.16987634 0.057053342
000190 ff a5 1c be 6e ec 16 3e 99 09 34 bd b3 63 ac bd
       -0.15297697 0.14738628 -0.043954466 -0.084174536
0001a0 ad 32 14 be 20 32 1d be 72 01 2e 3d f0 8d 28 bd
       -0.14472456 -0.15351152 0.042481847 -0.041150987
0001b0 f2 7d 89 3d 87 5b 23 be 2e 48 26 3e 28 6a 0f be
       0.06713475 -0.15952884 0.16238472 -0.14005339
0001c0 70 40 48 bd 7e 5d 62 3d e7 36 29 3e ff bc 6a 3e
       -0.048889577 0.055264942 0.1652485 0.22923659
0001d0 ee dc 3b 3e 55 9f 35 be 07 4e 92 3c 41 34 71 bd
       0.18345997 -0.17736562 0.017859472 -0.058887724
0001e0 b6 0b c5 bc 74 3a 1c be 82 03 39 3e d4 11 23 be
       -0.024053436 -0.15256673 0.18067744 -0.1592477
0001f0 dc 11 e5 3d 41 21 90 3d 34 73 8d 3d 01 47 ea bd
       0.11185047 0.07037593 0.06906739 -0.11439324
000200 9c 1a 47 3e 71 8a 81 3d 26 86 b1 3c e1 63 2a be
       0.19443744 0.06325234 0.021670412 -0.16639663
000210 cf d7 a4 3d 3e ad fc bc 6d 09 bd bd b0 56 37 3e
       0.08048975 -0.030844327 -0.092303135 0.17904162
000220 22 b1 28 3d 94 52 df bd 7e d2 a3 bd 3a 9f d2 3c
       0.041184552 -0.109044224 -0.079991326 0.02571069
000230 ed 06 e1 3d 68 d4 6b bd 98 73 de bd 03 2b 61 bd
       0.10987649 -0.057575613 -0.108618915 -0.05497266
000240 d5 74 1e be 6b 30 8e 3d ab b0 08 3e 4d 14 51 be
       -0.15474255 0.06942829 0.13348643 -0.204179
000250 f8 86 56 3d 0a 35 99 3d 24 b0 1f 3d d9 33 c6 bd
       0.05237481 0.074808195 0.03898634 -0.09677858
000260 1f c8 c5 3d f7 72 10 3e 3f b6 9a 3d f2 44 1b bd
       0.09657311 0.14106356 0.07554292 -0.03790755
000270 ce d4 88 bd fa 4e 8d 3c 0e d5 73 bd 57 01 64 bd
       -0.06681214 0.017249573 -0.059529357 -0.05566534
000280 ad 1d f1 3d 94 7c 25 3e 3f 19 69 bd b2 19 80 bd
       0.11773238 0.16160804 -0.056908842 -0.06254901
000290 7b f6 60 bc b0 b5 ff bc 84 f0 3e 3d ad ce 77 3d
       -0.0137306405 -0.031214565 0.046616092 0.060499836
0002a0 fa 97 9f bd df 51 d4 bd 4b 07 0e 3e aa 4d e5 3d
       -0.07792659 -0.10367178 0.1386997 0.11196454
0002b0 77 ba 5d 3d 18 c4 e2 bd 70 a5 28 be 30 c2 3e be
       0.054132905 -0.11072558 -0.1646936 -0.18628764
0002c0 06 39 5d bd f8 fc 05 3d da 34 f5 3d 76 73 dc 3d
       -0.05400946 0.032711953 0.11972971 0.1076421
0002d0 80 0f 3a be 0f 4a 02 be 06 ef ad bc aa c5 46 3e
       -0.18169975 -0.12723564 -0.02123214 0.1941134
0002e0 73 fa 8e 37 9b a0 7d bd b4 95 24 3e fc 0f 65 bd
       1.7044344e-05 -0.061920743 0.16072732 -0.055923447
0002f0 1a b1 0f be a7 5e b7 3d 68 9f e8 bd 83 ff ad bd
       -0.14032403 0.089536004 -0.11358529 -0.084960006

block1.conv2.bias f4 [8]
000000 12 ed 4f be 98 db 0b 3e 1c 4e 1e 3e 3b 5a 98 3d
       -0.20305279 0.13657987 0.15459484 0.07439085
000010 1b c0 11 be 80 4f 4e be e3 c1 29 be 58 dd 1b 3e
       -0.14233439 -0.20147514 -0.16577868 0.15221155

block1.bn2.weight f4 [8]
000000 ee b2 7f 3f 44 27 7c 3f 39 c8 82 3f 22 1f 86 3f
       0.998824 0.98497415 1.0217353 1.0478251
000010 b8 1b 84 3f 1a e2 7a 3f af 5c 80 3f 53 82 80 3f
       1.0320959 0.98001254 1.0028285 1.0039772

block1.bn2.bias f4 [8]
000000 00 fa 35 3d 7d 5b c7 ba 02 16 af 3c 9d cb 43 3d
       0.04442787 -0.0015209761 0.021372799 0.047801603
000010 d2 64 89 3c 3d ce c7 bc 8e ec 49 3c df 12 d3 bb
       0.016771708 -0.024390334 0.012324465 -0.0064414586

block1.bn2.running_mean f4 [8]
000000 dc 45 e3 bc 2a 8d 90 3d 7c 76 85 bc 26 0d bb be
       -0.027743272 0.07058175 -0.01629185 -0.3653347
000010 90 f4 5b bd da 76 35 be 5b 54 c5 bd ea 0a ff bc
       -0.05370003 -0.1772112 -0.0963523 -0.031133134

block1.bn2.running_var f4 [8]
000000 e2 92 fd 3e 1b 38 08 3e f2 4e 97 3d 39 2f 88 3e
       0.49526125 0.13302653 0.073881045 0.26598528
000010 9d e6 1e 3e 49 db 4e 3d ec 60 2b 3e f9 67 f6 3d
       0.1551766 0.050502095 0.16736192 0.1203155

block1.skip_connection.weight f4 [8, 1, 1]
000000 24 b5 09 3f 38 18 4d 3f b6 eb 0d 3f d0 eb 92 3e
       0.53792024 0.8011508 0.5543779 0.28695536
000010 61 76 51 bd 29 3f 47 bf fa 3b 53 bf 86 0b 89 bf
       -0.051138286 -0.7783075 -0.8251339 -1.0706642

block1.skip_connection.bias f4 [8]
000000 5e 57 e8 3e da 27 fc be 9d 31 38 be ce 17 07 bf
       0.45379156 -0.49249154 -0.17987676 -0.527707
000010 7b 6c 29 be ea 6d 3a bf c0 1e 24 bf c6 89 a6 3e
       -0.16545288 -0.72823966 -0.6410942 0.32526988

block2.conv1.weight f4 [16, 8, 3]
000000 80 cf 89 bd f8 64 fd 3d cc 71 91 bd 89 19 17 be
       -0.067290306 0.12372774 -0.07101783 -0.14755835
000010 22 d6 d2 bc c2 e3 e4 bd dd 61 b3 bd e1 ed 52 be
       -0.025736872 -0.11176254 -0.087589 -0.20598556
000020 8d ac f5 3d cb b3 0d be 46 f1 be 3d e5 73 b1 3d
       0.11995802 -0.13838117 0.09323363 0.08664683
000030 5b b6 12 3e f2 19 df bd 36 2d 30 3e fd ac d9 bd
       0.14327376 -0.108936206 0.17204747 -0.10628698
000040 2d e8 8c 3d 94 a6 32 3e 85 8a 26 bd 9b 84 98 3c
       0.068802215 0.17446357 -0.040659446 0.018617919
000050 42 24 30 bd f9 77 31 be 5a 89 a8 3d eb c7 3e be
       -0.04300333 -0.17330922 0.08229323 -0.1863095
000060 44 4b ff 3d 3f 60 23 3e f9 af 4f 3e 01 09 47 bd
       0.12465528 0.15954684 0.20281972 -0.04859257
000070 fb a2 15 be f1 0b 82 3d 0e 9b a3 3d 69 a5 6e be
       -0.14612953 0.06349934 0.07988559 -0.23305286
000080 5d 86 71 bd 4b 2c 4a be b3 1b d9 bb 96 a7 b5 bd
       -0.05896603 -0.19743459 -0.0066256165 -0.08869855
000090 5e 3b bd bd 55 19 8c bd 0d 56 58 be 20 92 04 3e
       -0.09239839 -0.06840769 -0.21126576 0.12946367
0000a0 49 ca 1c 3e 81 88 28 bd 71 54 c7 bc 52 e2 ab bd
       0.1531154 -0.041145805 -0.024332257 -0.083927765
0000b0 27 ab 33 be e8 2a 5f be 9b 7a 1f 3d bb 67 20 be
       -0.17545758 -0.21793711 0.038935285 -0.1566457
0000c0 24 f8 04 be 23 a2 23 bc c3 ac 86 bd 13 9c 93 bd
       -0.12985283 -0.009987387 -0.065759204 -0.07207503
0000d0 f8 5b 5d 3c 44 18 0e bd 77 8b 47 bd 31 89 94 bd
       0.013510697 -0.03469111 -0.04871699 -0.0725273
0000e0 66 69 38 be fc da 3c 3e 4d 74 84 bd 9e ab 27 3d
       -0.18008956 0.18442911 -0.06467495 0.04093515
0000f0 7a e0 58 bd f3 70 de 3c cf 7d 34 3e 0a 5d dd 3d
       -0.052948453 0.027153468 0.17626117 0.108087614
000100 d1 8f 3a be d1 9f 9e 3d 76 3c 4e 3e 59 47 36 3d
       -0.18218924 0.07745326 0.20140252 0.044501636
000110 89 5c 0f 3e 0d c5 3f 3e 93 02 ac bc 9b 65 3e 3d
       0.14000143 0.18727513 -0.020997321 0.046483617
000120 87 21 14 be 18 9d 2a bc 58 46 05 3e 83 31 8f 3d
       -0.14465915 -0.010413431 0.13015115 0.069918655
000130 d0 be f2 bd 06 aa 75 be f6 fb ff bd fe f3 7e be
       -0.11852801 -0.2399064 -0.124992296 -0.24897763
000140 d2 9b 2c be 11 21 9a bd 5c 70 05 3e b8 fb fb 3c
       -0.16856316 -0.07525838 0.13031143 0.030759677
000150 69 b4 0d be 66 69 16 be 86 c3 68 3d 43 08 c3 bd
       -0.13838352 -0.14688644 0.05682709 -0.0952306
000160 a3 b6 f7 bc 1b 6f 02 3e 53 2e 51 bd 02 b8 33 bc
       -0.030238455 0.12737696 -0.05106957 -0.010969164
000170 ef d0 ce bc 5d 09 1b bc 31 90 96 bd 0b 43 51 be
       -0.025246112 -0.009462682 -0.07351721 -0.20435731
000180 85 74 12 be ea 23 cc bd a5 36 56 3e 7c 51 af bd
       -0.14302261 -0.099677876 0.20919283 -0.08560464
000190 ff 79 f5 bd e9 7c 1d 3d 72 40 67 3d 68 af 0b 3e
       -0.119861595 0.0384492 0.056457944 0.13641131
0001a0 80 cf 2b 3e d7 1b 8b 3d e8 d7 1b be 8b 0f bd 3b
       0.16778374 0.067924194 -0.1521908 0.005769675
0001b0 14 2f 00 3e 5f 73 69 3a 8e d5 41 be 70 30 53 3e
       0.12517959 0.0008905436 -0.18929121 0.20623946
0001c0 9e 4e 0c bd 0a c3 d6 bd d1 d7 1e be d1 00 dc bb
       -0.034254663 -0.104864195 -0.15512015 -0.0067139645
0001d0 e2 37 d8 3d 6b 5a 01 3a a3 91 f5 3c 74 1f 55 be
       0.10557534 0.0004934433 0.029976672 -0.2081278
0001e0 69 b3 41 be 0b 12 38 3c 29 cc 44 3e 3e 69 da 3d
       -0.18916096 0.0112347705 0.19218506 0.106646046
0001f0 75 7a e1 bd 9b 20 cc bc b7 a7 10 be 3c a9 d0 bd
       -0.11009685 -0.024917891 -0.14126478 -0.10188529
000200 01 2e 1f 3d 20 c1 bf 3d 04 f8 31 3e f5 03 48 be
       0.038862232 0.093630075 0.17379767 -0.1953276
000210 1d 98 12 3e 31 23 27 be e4 27 b1 3d 58 04 37 3e
       0.14315839 -0.16322018 0.08650187 0.17872751
000220 d1 80 bb 3b de a8 33 3e 5e 7b 17 be 72 b1 89 bd
       0.005722143 0.17544886 -0.14793155 -0.06723298
000230 9b e3 31 3e b7 84 99 bd 16 e8 48 bd d6 24 d2 bd
       0.17371981 -0.074960165 -0.04904946 -0.10260932
000240 33 38 1a 3e ca dd f0 3d 83 bf 8a 3d 62 70 ce bd
       0.15060501 0.11761053 0.06774809 -0.10080029
000250 85 6d 10 be 8b 97 8a 3c 3a e8 aa 3d ee 74 a8 bd
       -0.14104278 0.016917964 0.08345075 -0.082254276
000260 a9 e3 51 bd 93 43 23 3e f5 8c 52 3d 90 fc 83 3d
       -0.051242504 0.15943746 0.05140396 0.06444657
000270 ae 17 55 bd 98 07 43 be 02 c6 61 be 6c 38 c6 bd
       -0.052024536 -0.19045866 -0.2204819 -0.0967873
000280 ac 57 da bd ba a9 a5 3d b4 0f 43 bd 84 a4 9f bd
       -0.10661253 0.080890134 -0.047622398 -0.07795051
000290 57 9d 3b 3e d3 f5 6e 3d ae 40 01 3e 22 4f 05 be
       0.18321739 0.058339905 0.1262233 -0.13018468
0002a0 27 5f d2 bd 23 0e 84 3d 4c 35 12 be 46 39 36 be
       -0.10272055 0.06448009 -0.14278144 -0.17795286
0002b0 88 8b 5b bc e9 7e a0 bd 2b e7 34 be fc f6 cb 3d
       -0.013399966 -0.07836706 -0.17666309 0.09959218
0002c0 15 f4 1b 3e b7 ac f6 3c 7d 2c 87 bc 76 ee 5c be
       0.15229829 0.030111654 -0.016500706 -0.2157534
0002d0 2e c1 88 bd 64 fc 80 3d 72 4e b5 3d 7b 58 37 bd
       -0.06677471 0.0629814 0.08852853 -0.044762116
0002e0 a2 3c e3 bd 37 99 e1 3d eb a7 2f be cf 8a bb 3d
       -0.11095549 0.110155515 -0.171539 0.09157335
0002f0 42 f1 72 bd 11 79 cc 3c 35 5b c7 bc fa 42 8d 3c
       -0.059312113 0.024960073 -0.024335483 0.017243851
000300 9a f0 34 bd 11 8e 17 3e a2 09 71 3c 6c f3 34 3e
       -0.044174768 0.14800288 0.014711769 0.17670983
000310 b0 75 38 3e c1 c6 e4 bd cf 5a 05 be 40 d8 2e 3e
       0.18013644 -0.11170722 -0.13022922 0.1707468
000320 2b 71 11 3e 84 c3 50 be a9 d4 95 bd a5 1e 82 be
       0.14203326 -0.20387083 -0.07315952 -0.25414005
000330 04 df 3f be aa a0 f6 bb 98 e1 cf 3c 6d 7d 87 3d
       -0.18737417 -0.007526477 0.025376126 0.0661572
000340 ff c2 c6 bc ec 8b 43 3e 20 75 92 3c 2d 9e 08 be
       -0.024262903 0.19096345 0.017878115 -0.1334159
000350 da 70 af bb 64 28 c8 bb ad 9a e2 3c bf 23 2e be
       -0.005354029 -0.0061083306 0.027661646 -0.17005824
000360 f4 03 a7 3d 94 75 97 bd 07 5a 2d be 17 23 e8 bd
       0.08155051 -0.07395473 -0.16928874 -0.11334818
000370 a9 42 49 3e f1 10 21 3e e9 78 51 3e 17 d3 01 3e
       0.19654335 0.15729119 0.2045628 0.1267818
000380 d1 aa 32 3e cc 30 4a b8 ab f5 d4 bd a3 9c 1c 3e
       0.17447974 -4.8206e-05 -0.1039842 0.15294127
000390 c7 ee 99 bd 64 89 33 be 9e 52 e1 bc 78 32 52 3d
       -0.07516246 -0.17532879 -0.027505215 0.051317662
0003a0 d1 a0 d3 3d 51 1d 85 bd a8 26 d2 bd 7a 0e c9 3c
       0.10333408 -0.06499732 -0.10261279 0.024543036
0003b0 e6 ee 04 be be 49 db bd 7b 17 c1 3d cc e1 99 bc
       -0.12981758 -0.107074246 0.09428307 -0.018784426
0003c0 45 51 3b 3e 85 ea 4d 3e 51 b5 77 3d 0e ff 57 3d
       0.1829272 0.20108993 0.06047565 0.052733473
0003d0 da df 28 3d 99 4d 49 3c 77 b6 1d bc d9 22 70 3c
       0.041229106 0.012286567 -0.009626023 0.014656746
0003e0 79 b7 f3 3d bc b4 6a 3e c6 bc 6a bd 32 ec eb bd
       0.11900229 0.22920507 -0.057308935 -0.1151966
0003f0 95 aa 29 bd 72 8f c9 bd c6 da c9 3c f4 4a 1d 3e
       -0.041422445 -0.09841813 0.024640452 0.15360624

block2.conv1.bias f4 [16]
000000 a6 76 a0 3d dd 36 26 3e 42 7d 64 bd 8e a5 ab bd
       0.078351304 0.16231866 -0.055783518 -0.083811864
000010 e4 03 3d be b4 9b d7 bd 57 04 37 be c4 6b 3f bd
       -0.18458515 -0.10527745 -0.1787275 -0.046733633
000020 3e a3 2a 3d 6c d6 43 be 58 7e 36 3e 42 24 03 3e
       0.041659586 -0.19124764 0.17821634 0.128068
000030 92 a0 4c be 33 9d c7 bd 0b 64 88 3d ca ca 2b bd
       -0.19983128 -0.0974678 0.06659707 -0.04194144

block2.bn1.weight f4 [16]
000000 2c aa 7d 3f 91 50 7d 3f 7b ca 85 3f 91 d7 7e 3f
       0.99087787 0.9895106 1.0452417 0.9954768
000010 c6 78 7f 3f 2c bd 81 3f dd e4 80 3f 8c bc 7d 3f
       0.9979366 1.0135856 1.0069844 0.99115825
000020 52 54 7a 3f 37 96 7d 3f 4d c3 7d 3f 36 e9 82 3f
       0.9778491 0.99057335 0.9912613 1.022742
000030 b6 c2 85 3f eb 9e 81 3f ca f6 81 3f 4a 8c 7f 3f
       1.0450046 1.0126623 1.0153439 0.9982344

block2.bn1.bias f4 [16]
000000 52 32 bf 3b 33 4e d4 bb 4c 68 6d bc ad 81 14 bb
       0.005834856 -0.0064790486 -0.014490198 -0.00226603
000010 33 07 98 3d 7b 41 0d 3c 6e b6 c6 3c d5 cd 4f 3a
       0.07423248 0.008621569 0.024256911 0.00079270947
000020 31 eb b1 3c cc 76 a0 bc 25 e0 95 bb ad 62 6e 3c
       0.021718593 -0.019587897 -0.0045738393 0.014549893
000030 90 9a f0 3c 6a 30 61 3d 25 c7 60 3d 2c 80 d6 ba
       0.029370576 0.054977812 0.05487742 -0.0016365102

block2.bn1.running_mean f4 [16]
000000 d4 66 bb bd d8 4d 9b 3d da 94 8d bd a5 5c ff be
       -0.09150472 0.07583207 -0.06913157 -0.4987537
000010 79 b4 87 be cb 95 68 be 27 05 15 be b8 4d 30 be
       -0.26504877 -0.22713391 -0.14552747 -0.17217147
000020 de 60 ca 3d 52 b5 55 be 07 1d c4 3e 24 06 6f 3e
       0.09881757 -0.2086995 0.38303396 0.23342186
000030 14 7f e2 bd ff df d8 bc 54 e5 fc bd 3c ee 29 3d
       -0.110593945 -0.026473997 -0.12348428 0.041486964

block2.bn1.running_var f4 [16]
000000 a2 d2 83 3d 59 b9 4d 3e 98 f0 e5 3d 64 54 b3 3d
       0.064366594 0.20090236 0.1122753 0.087563306
000010 44 60 5b 3d 4d 8b 53 3d 07 4c b0 3d 31 58 27 3e
       0.053558603 0.05164652 0.08608251 0.16342236
000020 f3 8a 4c 3e c4 e3 69 3d 00 a6 86 3e c5 f3 fe 3d
       0.1997488 0.05710198 0.26298523 0.12448839
000030 cc a5 87 3d 99 b4 a5 3d bc fd 54 3d 05 b5 58 3e
       0.0662342 0.08091087 0.051999792 0.21162803

block2.conv2.weight f4 [16, 16, 3]
000000 74 46 ed ba 37 48 8d bd 53 be e9 3d 78 a9 55 bd
       -0.0018102662 -0.068985395 0.114132546 -0.05216357
000010 30 d7 08 3e 25 7c 6a 3c f5 bd 00 ba 9e 44 bb 3d
       0.13363338 0.014311825 -0.00049111183 0.09143947
000020 12 39 55 bd 1b 50 ed bd ad b8 2c 3d 64 b9 27 3e
       -0.05205638 -0.115875445 0.042168308 0.16379315
000030 43 89 c4 bd 23 2f 6c 3d 40 12 ed bd 3b 19 94 3d
       -0.09596493 0.05766214 -0.115757465 0.07231375
000040 7f 32 58 3d a9 96 f1 3c ca 51 75 3d 02 f6 1e 3c
       0.05278253 0.029490786 0.059892453 0.0097022075
000050 61 fb cb 3d 25 3e ba bd 8e 95 6a bd 75 04 77 3d
       0.09960056 -0.090938844 -0.057271533 0.060306985
000060 60 e5 13 3e 05 a1 73 3d 6a 64 e9 bd e5 29 0c 3e
       0.14442968 0.059479732 -0.113961056 0.13687856
000070 7b c9 28 bd 5e b7 15 bc f6 4f b6 bd 2b 82 95 bc
       -0.04120777 -0.009137956 -0.0890197 -0.018250545
000080 82 58 c6 3d 90 42 50 3d 87 6a c2 bd 10 ef 45 3d
       0.0968485 0.05084473 -0.09492975 0.04832369
000090 34 10 10 bd d5 aa e5 3d 9d f5 f3 bd dd ac fd bc
       -0.035171703 0.11214224 -0.119120814 -0.030966217
0000a0 79 72 dc bd 17 da b2 bb 24 06 c7 3c 1f 9b 17 3e
       -0.107640214 -0.0054581272 0.02429492 0.14805268
0000b0 f7 22 44 3d 1b d4 1d 3e 11 a0 09 3d b1 1e c1 3d
       0.047884908 0.15412943 0.033599917 0.09429682
0000c0 a1 cb ec 3d 30 58 0a 3e 92 3b b4 bd 6f c6 cf 3d
       0.11562277 0.13510203 -0.08800425 0.1014527
0000d0 06 e9 8a 3d 66 03 70 bd 9e 30 6d bd b8 64 e1 bd
       0.06782727 -0.05859699 -0.057907693 -0.11005539
0000e0 a7 6a 1f 3d cc 5b c9 bd 7e a6 3b ba 7d ea 55 3d
       0.03892007 -0.09831962 -0.0007158293 0.05222558
0000f0 33 3e eb bd 29 7a bd 3c 94 19 03 bd d1 10 c7 3d
       -0.11486473 0.02312954 -0.032006815 0.09720004
000100 b5 4e c6 3d 8d a5 1e be 9f cb 15 3e e6 d0 f0 3d
       0.09682981 -0.1549284 0.14628457 0.11758594
000110 f0 d0 36 3d cd c4 31 be 72 fe ed bc 8d 45 5f bd
       0.044632852 -0.1736023 -0.029051993 -0.05450969
000120 0f d6 85 bd 24 4a cc 3d 33 6d 78 3d 9c b7 ae 3d
       -0.06534969 0.09975079 0.060651015 0.085311145
000130 16 fb 54 bd d1 7d ed 3c ec 60 84 bb 65 9c 05 be
       -0.051997267 0.028990658 -0.0040398743 -0.13047941
000140 26 1a 08 be a7 9f cb bd 15 f5 49 3d b1 15 1b be
       -0.13291225 -0.09942561 0.049305994 -0.15144993
000150 32 4b 14 be ce 73 87 3d e2 1c 45 3d e4 69 a2 3d
       -0.1448181 0.06613885 0.048123248 0.07930353
000160 42 a8 0d be 57 68 2f be 6e cb c1 3d e6 6f da 3d
       -0.13833717 -0.17129646 0.09462629 0.10665874
000170 84 6a 89 3d 01 4f 8c ba d9 80 01 3d 98 65 0b 3e
       0.06709769 -0.0010704697 0.03161702 0.13612974
000180 f4 ab 16 be c3 02 27 bd 35 f5 e8 3d c3 7e 90 bd
       -0.14714032 -0.04077412 0.113748945 -0.07055428
000190 cf 28 83 bd f7 e4 df 3d 86 d8 59 3d e0 28 93 3d
       -0.06404268 0.109323435 0.05318501 0.07185531
0001a0 be ce c1 bd 7c 6b 54 3c ca 4f 9a 3d a8 4a 4a bd
       -0.09463261 0.012965079 0.0753475 -0.049387604
0001b0 a4 e8 2f bc 2b 29 67 3a 38 8e ae bd 63 74 0a 3e
       -0.010736618 0.0008818085 -0.0852322 0.1352096
0001c0 9f aa 51 bd 4f 1e 16 bd 03 ca e3 bc 4c e7 7c bd
       -0.051188108 -0.03665 -0.027806288 -0.06174402
0001d0 70 20 e2 bd 1a f5 59 3d 31 f9 75 3d d0 c7 5b be
       -0.11041343 0.053212263 0.0600521 -0.21462941
0001e0 40 d5 a1 bd 56 8a 34 3e 0e 9b 88 3d 8b 21 65 3d
       -0.07902002 0.17630896 0.06670199 0.055940192
0001f0 9f 3a 95 bd 3e 80 8b bd 54 fa 3a bc a6 72 1c bc
       -0.07286572 -0.0681157 -0.011412222 -0.009548819
000200 18 96 b4 bd 9f c6 63 bc 6d 8e 71 3c 0d 29 1f bd
       -0.088176906 -0.013902335 0.01474343 -0.03885751
000210 45 5f c4 bc b2 5d 80 bc de 6d 1a bc 63 62 91 3b
       -0.02397121 -0.015669677 -0.009425608 0.0044367774
000220 53 fd 43 bd 2e 78 f0 bd cc 0e ac 3d e4 9b 00 3d
       -0.04784901 -0.117416725 0.0840126 0.03139867
000230 75 fb cc bd 30 33 2c 3e 3c 3e 3b bd ad 59 e6 3d
       -0.10008899 0.16816401 -0.04571365 0.11247573
000240 ec 30 df 3d 13 43 ed bd b8 aa 94 3d 67 49 c0 bd
       0.10898003 -0.11585059 0.072591245 -0.093890004
000250 72 e3 c4 bd 10 a5 21 bc af 83 e2 bd 00 61 16 3e
       -0.09613694 -0.009866014 -0.11060273 0.1468544
000260 49 03 06 3d 48 e0 a3 3d 08 b0 e6 bd 77 bf b4 3d
       0.032717977 0.08001763 -0.11264044 0.088255815
000270 a1 2a 44 bd c2 ac b5 bd 45 7f 03 bd 49 9f 9b 3d
       -0.047892217 -0.088708416 -0.032103796 0.075987406
000280 5b 90 fc 3d b9 e6 95 bd 6b 7c 75 bd 78 88 4d 3d
       0.12332221 -0.073193975 -0.059933107 0.050178975
000290 07 87 a9 3d 56 09 c4 3d 4d 2b b2 3d 6d 80 83 bd
       0.082777075 0.09572093 0.08699665 -0.0642098
0002a0 12 37 90 3d 7a 70 02 3e fb 49 31 bd 69 a6 ca 3d
       0.07041754 0.12738219 -0.043283444 0.098950215
0002b0 b1 1a 4e 3d de 3d 05 3e a0 cc 9e bd 55 5f 92 bd
       0.050318424 0.13011882 -0.07753873 -0.071470894
0002c0 28 24 29 bd 7e 28 0e 3d 52 7d f7 3c 7a 3e 62 bd
       -0.041294247 0.034706585 0.030211125 -0.055235364
0002d0 d5 7a 88 3d 29 af 3d bd c3 93 b4 3d f6 78 88 bd
       0.06664053 -0.046309624 0.08817246 -0.066636965
0002e0 63 59 fd bd a4 d4 2c bd 35 5d 44 be fd 0e 8e 3d
       -0.12370565 -0.042194977 -0.1917618 0.069364525
0002f0 a5 14 57 bd c0 f7 38 3c 1c 53 ec 3c 15 6b 56 bd
       -0.052509923 0.011289537 0.028848223 -0.052348215
000300 82 3a 54 3d d5 8d 19 be df 80 f2 bd 74 00 c3 bd
       0.05181361 -0.14995511 -0.118409865 -0.09521571
000310 43 7e eb bc 23 05 4a bd cf b4 70 3b a3 43 00 bd
       -0.02874673 -0.049321305 0.0036728864 -0.031314503
000320 0c 46 52 3d c9 d4 dc 3d 0a f8 b4 3d 85 be 00 bd
       0.051336333 0.10782773 0.08836372 -0.031431694
000330 69 6f 13 be f7 59 63 3d 95 9f 5f bd 88 c2 97 3d
       -0.14397968 0.05550572 -0.05459555 0.07410151
000340 fd 22 a8 3d bd 45 82 3d b2 68 0a 3e 89 0a 2a 3e
       0.082097985 0.06360958 0.135165 0.16605581
000350 f4 92 5e 3d a6 ba 8f bd 8d 27 a3 3d af ad a6 bd
       0.054339364 -0.07018022 0.07966528 -0.08138596
000360 28 99 9a bd b8 87 ba 3d 30 88 c6 3d bf 91 76 3d
       -0.075487435 0.091079175 0.096939445 0.060197588
000370 3b 08 49 bc 8f 47 e9 bd c2 98 00 3c 52 34 02 3e
       -0.012270029 -0.11390602 0.00784892 0.12715271
000380 ab 1e d4 3c ae c4 95 3d 43 86 5c bc 95 f6 32 bd
       0.02589353 0.07312904 -0.013459745 -0.04369219
000390 56 03 f3 3d c4 ea 2e 3c eb 48 19 3e 73 90 27 3a
       0.11865871 0.01067609 0.14969222 0.0006392069
0003a0 38 a4 e1 3d 9c 2d dd 3d 7e e2 93 3c 58 26 b9 3d
       0.1101765 0.10799715 0.018052336 0.090405166
0003b0 59 c6 d1 3d e1 23 0b 3e cf 18 f9 3d 28 c3 c8 bc
       0.1024291 0.13587905 0.12162935 -0.02450712
0003c0 72 2b 07 be 12 b2 99 3d 02 0c a7 bc 2e 33 fe bc
       -0.13200167 0.07504667 -0.020391468 -0.031030264
0003d0 52 39 14 bd 2a 83 bb 3c e2 e0 8e 3d 29 38 c7 3c
       -0.036187477 0.022889692 0.06976487 0.024318771
0003e0 f2 3c f4 bc da 29 4a bd 74 d6 c3 3c 7e a2 4e bd
       -0.029814217 -0.04935632 0.02390597 -0.050447933
0003f0 07 61 16 3e 7b 31 b4 3d e2 cb f8 3d 3c 2e f1 3b
       0.1468545 0.087985 0.121482626 0.007360248

block2.conv2.bias f4 [16]
000000 18 75 b8 bd 16 12 39 3c 00 fc 26 bc ff 56 65 3d
       -0.09006709 0.011295816 -0.010191917 0.05599117
000010 e3 f3 0b 3d 35 39 dd 3d aa 7b 9b bb ee 6f da bd
       0.034168135 0.10801927 -0.0047449665 -0.1066588
000020 06 22 84 3d f3 c6 c7 bd ae 84 a2 bc b4 70 3f bd
       0.06451802 -0.097547434 -0.019838657 -0.04673834
000030 96 64 60 bd d8 c3 5a bd 7d d1 07 3e f6 36 a9 3d
       -0.054783426 -0.053409427 0.13263507 0.08262436

block2.bn2.weight f4 [16]
000000 4a 4f 7c 3f dd 00 80 3f ea 5f 85 3f df fe 85 3f
       0.98558486 1.0000263 1.0419896 1.0468405
000010 3b 43 7e 3f c1 79 81 3f e3 7f 7b 3f 37 50 80 3f
       0.99321336 1.0115281 0.98242015 1.002448
000020 95 2e 84 3f 34 60 82 3f 9b 3b 87 3f ed ff 80 3f
       1.0326716 1.0185609 1.0565065 1.0078102
000030 6e 38 82 3f a2 7c 7d 3f 95 e0 81 3f 0b 88 7c 3f
       1.0173471 0.990183 1.0146662 0.98645085

block2.bn2.bias f4 [16]
000000 78 37 70 3a 62 8d 9b bc cf a1 70 3c 07 df 66 3c
       0.0009163539 -0.018988315 0.014687016 0.01409126
000010 66 81 b4 3b 5c 78 c3 3c b0 19 93 3d 44 88 f5 bc
       0.0055085896 0.023861103 0.07182634 -0.029972203
000020 2d 21 25 3c 74 66 0c bc 6a 7f a7 bc 0a 57 a1 bc
       0.0100787105 -0.008569349 -0.020446498 -0.019694824
000030 e7 bf 17 3b 6b 39 ea 3a ab 6e 0b 3d aa 99 59 bd
       0.0023155154 0.0017869895 0.034041088 -0.05312506

block2.bn2.running_mean f4 [16]
000000 67 9e 2f 3e 77 1e 8f 3c b4 53 02 be f2 d6 83 3d
       0.1715027 0.017470581 -0.12727243 0.06437482
000010 e4 91 f3 3e d8 2f 0a bc 91 35 5f 3b 02 f6 f3 be
       0.47572243 -0.008434258 0.0034059028 -0.47648627
000020 8b df 68 3e b2 f6 4a 3d 66 1e 77 3d 48 7d 33 bd
       0.22741525 0.049551673 0.060331725 -0.04382065
000030 03 95 ec 3c 57 d6 63 3e c4 5e e4 3d 8f 34 85 3d
       0.028879648 0.22249733 0.111508876 0.065041654

block2.bn2.running_var f4 [16]
000000 d9 6d 75 3e 1e 13 33 3e c3 c9 a0 3d f2 e0 95 3d
       0.23967685 0.17487761 0.07850983 0.073182955
000010 37 a8 43 3e f1 33 8e 3d b1 4b a0 3d b6 bb 8a 3d
       0.19107138 0.06943501 0.07826937 0.06774084
000020 79 42 72 3d 7b 97 99 3d f7 f4 51 3d ee b4 aa 3d
       0.059145425 0.07499596 0.051259007 0.08335291
000030 b0 3b 75 3d 51 57 fc 3d f6 3d 23 3e f6 0a da 3d
       0.059871376 0.12321342 0.15941605 0.10646622

block2.skip_connection.weight f4 [16, 8, 1]
000000 b8 ae a6 3d 28 7a 99 3e e8 99 9a be f0 b8 bf 3d
       0.08138794 0.2997601 -0.30195546 0.09361446
000010 bc 4a 81 3e f9 33 6a 3e 6a cd 99 be 47 a4 7d 3e
       0.2525233 0.22871388 -0.3003953 0.24769698
000020 94 8b 46 be d3 37 af 3c dc 69 fa bd 89 7e a1 be
       -0.19389182 0.021388924 -0.12227222 -0.3154185
000030 d0 94 b5 be 95 a8 75 be 0d 1b 36 3e 7c a6 5f 3d
       -0.35465097 -0.2399009 0.17783757 0.05460213
000040 1a 83 8a be 04 16 b2 bd ab 07 f2 b8 92 3b a6 be
       -0.27053148 -0.086956054 -0.000115408875 -0.32467324
000050 36 fc 4f 3e 27 d6 92 3e 71 f8 a3 3d 45 a9 75 be
       0.20311055 0.2867901 0.08006371 -0.23990352
000060 9d 63 a2 3d 80 83 11 3e 36 c1 9c 3e fa bd 13 be
       0.07929156 0.1421032 0.30616158 -0.14427939
000070 f9 84 71 be 0b 86 09 3e 2d 6d e2 3c e0 82 c1 bd
       -0.23585881 0.1343004 0.02763995 -0.094487906
000080 82 99 29 be 78 e7 61 be a2 db 98 3e 56 a4 43 bd
       -0.16562465 -0.22060955 0.29855067 -0.047764145
000090 e5 f7 97 3e 7a db 9d 3e 22 0b c5 3c 07 4b 0f 3e
       0.29681316 0.3083151 0.02405316 0.13993464
0000a0 00 be b3 bc 96 48 89 3e ca e5 8d be 32 27 34 3e
       -0.021941185 0.2681319 -0.27714378 0.17593077
0000b0 a9 85 c4 bd 3d ce 28 3e ea 1d 0f bc 34 94 11 be
       -0.09595806 0.16484924 -0.008735159 -0.14216691
0000c0 b0 93 cf bc 37 69 4f 3e 75 d8 5f be 17 5e 67 be
       -0.025338978 0.2025498 -0.21859916 -0.22594486
0000d0 c1 b6 ae bd 77 ae df bd 3c 71 24 3e f9 74 97 3e
       -0.08530951 -0.109219484 0.1605882 0.2958143
0000e0 c3 9a 42 bd 0b d7 aa 3e e2 05 38 be 71 58 83 be
       -0.047510874 0.3336719 -0.17970994 -0.25653413
0000f0 fd b0 16 be 77 b6 35 be 58 a9 87 be f8 b2 cc be
       -0.14715953 -0.17745386 -0.26496387 -0.39980292
000100 c0 a7 9a be 59 7f 8b 3d 25 94 71 3e d4 d3 ba 3e
       -0.30206108 0.06811399 0.23591669 0.36489737
000110 0d 8c 8f 3e d7 cc 7c bc c7 c0 82 3d 5e 1a 34 be
       0.28036538 -0.015429697 0.063844256 -0.17588183
000120 f2 2e 12 3e 82 26 a5 be d3 10 11 3e 7a cc f0 3b
       0.1427572 -0.32255942 0.14166574 0.0073485943
000130 59 02 ed 3d 97 31 09 3e 4c 4e 1b be bf a5 96 3e
       0.115727134 0.13397823 -0.15166587 0.2942333
000140 8b 29 30 3e f8 6a 81 3e e4 68 cb 3c 69 24 4a 3e
       0.17203347 0.25276923 0.02483029 0.19740452
000150 6a 38 86 3e 00 25 2e 3e 24 fd 93 3e 0f b0 e7 bd
       0.26214916 0.17006302 0.28904068 -0.113128774
000160 fe 87 7a 3e 77 1c 06 3e ca 98 5c 3e df ae a1 3e
       0.2446594 0.13096796 0.2154266 0.3157873
000170 a5 56 b0 3d 54 24 0e be c7 ff 3e bc f0 3f d8 3d
       0.08610276 -0.13881046 -0.011657662 0.1055907
000180 31 42 94 3d e6 be 7b bd 62 16 82 3e 5b db 35 3e
       0.072391875 -0.06146135 0.25407702 0.17759459
000190 11 c5 59 be 87 9f 39 bd d4 1e 3c bc 67 f9 81 be
       -0.21266581 -0.045318153 -0.011481959 -0.2538559
0001a0 3c 66 85 3d 83 fa 92 bd d7 a5 2c be 5a 07 36 be
       0.0651364 -0.071766876 -0.16860138 -0.17776242
0001b0 c2 9c e1 bd 1b 75 b1 3e a0 24 22 3e 46 7d 9b 3e
       -0.11016227 0.34659657 0.15834284 0.30369014
0001c0 27 62 ce 3d f7 35 b9 3d f6 6b 3e 3e 1e 37 c1 3d
       0.10077315 0.09043496 0.18595871 0.09434341
0001d0 85 71 70 be 0b e3 53 be 38 cf 8f bd 84 5d b2 3c
       -0.23480804 -0.20692079 -0.07021946 0.021773107
0001e0 5b 56 00 3e ba 6b 0f 3e 6b 2f 6c 3e 0e f3 48 3d
       0.12532942 0.14005938 0.23064964 0.04905992
0001f0 74 3b b2 bd bf 31 98 be 34 70 7e be 24 14 82 be
       -0.08702746 -0.29725453 -0.2484749 -0.2540599

block2.skip_connection.bias f4 [16]
000000 ac 42 dc 3d 9b 27 30 3e 81 e5 a5 3e dc 2c c8 bd
       0.10754904 0.17202608 0.3240166 -0.09774181
000010 f6 57 b7 bc f7 27 a6 bd 74 74 90 3d 64 0c ab 3d
       -0.02238081 -0.081130914 0.07053462 0.08351973
000020 39 6d 17 3b 43 89 ff 3b 7b 6d c7 3c 48 52 e5 3d
       0.0023105873 0.0077983453 0.024344197 0.111973345
000030 7d f1 d6 bd 20 0e 56 be eb 8b f0 3d e0 88 c2 bd
       -0.10495279 -0.20903826 0.11745437 -0.09498763

reduce_channels.weight f4 [1, 16, 1]
000000 1a 1a c4 bd 94 34 d9 3d ca 91 f3 3c 83 4f 98 bd
       -0.09575291 0.106057316 0.029732604 -0.07437041
000010 06 2c fa bd e6 53 3b bd 5d 29 59 be bc 2c 9d 3d
       -0.12215428 -0.04573431 -0.21207185 0.07674548
000020 a8 cc 1a bd e7 b6 25 3e 5f f7 70 3d f5 01 37 3d
       -0.03779283 0.16183053 0.05882966 0.0446796
000030 b1 11 aa 3d 61 5e 3b 3e 90 5e 0d be 54 a4 05 3e
       0.083041556 0.18297721 -0.13805604 0.13050967

cnn.conv1.weight f4 [8, 1, 3]
000000 07 af ca be 87 bd 53 3e 93 2f b6 be f0 93 32 be
       -0.3958666 0.20677768 -0.3558317 -0.17439246
000010 c5 4f 8b be 05 61 cf be a8 35 dd 3e 7f bf 02 bf
       -0.27209297 -0.40503708 0.43205 -0.5107345
000020 70 d4 95 3e ac 4e 08 bf c1 9a ad bd 09 7c 3b 3d
       0.2926364 -0.53245044 -0.084767826 0.045772586
000030 a1 52 d1 3e 66 f1 58 be 83 b8 1a 3e 82 30 c8 3d
       0.40883353 -0.21185836 0.15109448 0.09774877
000040 59 08 b3 3e 1a 7a 3a 3d a4 0e 5a 3e a0 aa b2 be
       0.34967306 0.0455266 0.21294647 -0.34895802
000050 35 7a cc be 61 e8 fa 3e e0 4d d5 be f3 3b cf bd
       -0.39936987 0.49005416 -0.41660976 -0.10118856

cnn.conv1.bias f4 [8]
000000 5e 20 70 bd 60 72 0e 3f c4 11 ff bd a3 a9 db be
       -0.058624618 0.5564327 -0.124545604 -0.4290286
000010 29 98 1d be 90 c3 95 3e 09 4a 70 3e 2d 5d f3 3e
       -0.15390076 0.29250765 0.23465742 0.47532025

cnn.conv2.weight f4 [16, 8, 3]
000000 3d 40 3b bd d0 9e bd 3d 36 3f 3e be f5 ec 4a 3d
       -0.04571556 0.09258807 -0.185788 0.049542386
000010 55 bf a5 3d f4 39 00 3e 39 73 dd bd f1 2a f6 bc
       0.08093134 0.12522107 -0.108129926 -0.030049773
000020 3d b9 84 3d 1a 2f 12 be 8a b6 24 be 6e 3b 3e be
       0.06480644 -0.1427578 -0.16085258 -0.18577358
000030 6b 14 09 3d a3 e7 22 3e a9 1f 89 3d f9 92 32 3c
       0.033466738 0.15908675 0.06695492 0.010899299
000040 21 54 7a 3d d2 4d 19 be af 6e 7b 3b af d2 4d bd
       0.061115388 -0.14971092 0.0038365533 -0.05024975
000050 e8 33 ce bd 62 03 26 3e 07 97 24 be a2 92 cb 3c
       -0.10068494 0.16212228 -0.16073237 0.024850193
000060 e6 fd 35 be ab f0 4d 3c f2 38 a2 bd 94 df a6 3d
       -0.17772636 0.012569587 -0.07921018 0.08148113
000070 f1 35 cb bd cd 7b 19 3e 68 45 2d be fe b1 da 3d
       -0.09922398 0.14988633 -0.16921008 0.106784806
000080 4b 8f 1f be c0 78 db 3d f9 5f aa bd 5e ee f3 3b
       -0.15582006 0.107163906 -0.083190866 0.007444187
000090 1f 95 44 bd e3 6d e7 3d 5c 45 59 3d 6e b3 37 be
       -0.047993775 0.11300256 0.053044662 -0.1793954
0000a0 f7 43 81 3c 36 19 1c be 32 4e 2c 3e 0d ca 58 3d
       0.015779478 -0.15243992 0.16826704 0.052927066
0000b0 94 6f 21 bd f6 af c7 bd 67 dd 95 3d 7a 8c f7 bd
       -0.03941305 -0.09750359 0.0731762 -0.12087341
0000c0 b7 86 aa 3d d3 7e c9 3d 54 1f 03 3e d7 c0 56 3d
       0.08326476 0.09838643 0.1280492 0.05243
0000d0 64 86 33 be 8c a3 1c 3e ad ba 8b bd 57 1f 2f bd
       -0.17531735 0.15296763 -0.06822715 -0.042754497
0000e0 57 a1 1d bd b5 80 05 3e 1c 96 12 3e e0 8c df 3c
       -0.038483944 0.13037379 0.14315075 0.027288854
0000f0 e7 1e df 3d e8 b4 33 be 10 0d 9a bc ed 25 29 be
       0.10894566 -0.17549479 -0.018805057 -0.16518374
000100 95 2c 9d 3d f0 d1 0e be d3 93 86 bd 69 e5 19 3e
       0.07674519 -0.13947272 -0.06571164 0.1502892
000110 e9 07 45 3e 33 4b e1 bd 35 b9 c5 bd 59 73 d4 3c
       0.19241299 -0.11000671 -0.09654466 0.025933908
000120 09 b2 c9 3d 12 46 fc bc 3a 81 6a bd fb 34 0b be
       0.09848411 -0.03079513 -0.057252146 -0.13594429
000130 f7 40 96 3d 12 ec 3d 3e 77 ba e5 bd a0 8b c7 3d
       0.0733661 0.18547085 -0.11217206 0.09743428
000140 8a 88 b0 3d d2 8b 3b 3e 71 77 56 bc 2f 0a 30 3c
       0.08619793 0.18315056 -0.0130900005 0.010744615
000150 79 a6 00 3e cf 2e 03 3e 9c e9 49 3e e9 f3 8e bd
       0.12563504 0.12810825 0.19718021 -0.06980116
000160 ab ff 99 3d 43 93 12 3e 5b db 1a be 88 49 bf 3c
       0.07519468 0.14313988 -0.1512274 0.023350492
000170 ee fd 75 bd f8 b8 e2 3d a0 c6 d7 bd 62 7f cb 3a
       -0.06005662 0.11070436 -0.105359316 0.0015525634
000180 ff d0 08 3e 9e 72 3a be 3f 47 2a be 2a b2 db bd
       0.13360976 -0.18207785 -0.1662874 -0.107273415
000190 af e3 02 3e 6e 55 05 3e ce 1d 07 be e0 3a 5f 3d
       0.12782167 0.1302087 -0.13194963 0.054499507
0001a0 a3 7b d3 bd 27 78 b9 bd 1e 9a 40 3e 1a 22 e0 3d
       -0.10326316 -0.0905612 0.18808791 0.10944004
0001b0 bb 0b 36 bd 8d 04 28 3d de 3b 2a 3d d1 98 16 3d
       -0.04444478 0.041019965 0.041561 0.03676683
0001c0 ae ce af bd 1b d4 04 be 7a 93 0e 3e 74 c2 e3 3c
       -0.08584343 -0.12971537 0.13923445 0.027802683
0001d0 ae 4f 99 3d 06 dc a0 bd 27 9d c5 3d 78 38 0e 3e
       0.07485901 -0.07854466 0.09649115 0.13888729
0001e0 86 d4 04 3e b3 26 75 3d 87 27 5c 3e 30 28 0c 3c
       0.12971696 0.05985136 0.21499453 0.008554503
0001f0 9a 40 5f 3d ea 3b 5f 3e e6 85 46 3e 0f 01 c7 bd
       0.05450497 0.21800199 0.19387016 -0.09716999
000200 d0 d7 2e 3e 5e b6 a1 3d 14 e3 c3 bc 37 82 32 3e
       0.17074513 0.07896112 -0.02391199 0.17432486
000210 40 f5 ee bd 6e 10 f7 3d 68 19 3f 3e b7 c6 11 be
       -0.116678715 0.120636806 0.18662035 -0.1423596
000220 46 3a f2 bd c8 b7 4b be 5b 30 1a bd a2 d4 38 be
       -0.11827521 -0.19894326 -0.03764377 -0.18049863
000230 93 c9 4c bd b4 25 78 3d 52 f6 16 3e 9c 32 f9 3d
       -0.049996924 0.06058283 0.14742401 0.12167856
000240 02 8b dc 3d 9e a5 c9 3d c4 3e 09 be 11 49 1a be
       0.10768701 0.09846042 -0.1340285 -0.15066935
000250 54 01 95 3c ba 67 4c 3e e0 10 03 3c 20 a1 5b bd
       0.01818911 0.19961444 0.007999629 -0.053620458
000260 c3 e1 04 be 7d 19 ce bd 88 bc 23 be 3f 2b 21 3e
       -0.12976746 -0.10063455 -0.15989888 0.15739153
000270 b2 30 4e bd 4b e9 5a be dd b8 d8 3c d3 a8 84 3c
       -0.05033941 -0.21378057 0.026455337 0.016193783
000280 61 68 57 bc f2 fc 97 3d e7 74 e3 3d ec 2f 41 be
       -0.013147444 0.07421292 0.11106282 -0.18865937
000290 ba 50 12 be 41 c8 93 bb dc ad 46 be 6e 24 34 be
       -0.14288607 -0.004509956 -0.1940226 -0.17592022
0002a0 65 99 3d 3e e1 6c 4a bb c7 a6 cc bd 13 a2 96 bd
       0.18515547 -0.003088765 -0.09992748 -0.07355132
0002b0 93 36 27 be e3 d9 1e 3e 60 12 32 bd 2e 2e 09 be
       -0.16329412 0.15512805 -0.043474555 -0.13396522
0002c0 50 b6 18 be 70 88 05 3e 8f b3 c3 bc 21 32 82 bc
       -0.14913297 0.13040328 -0.023889331 -0.015893044
0002d0 3e 41 78 bd 6d b0 e5 bd 63 79 39 3d 32 28 19 3e
       -0.060609095 -0.11215291 0.04528178 0.1495674
0002e0 f8 35 f0 bd 0f 4f 3f 3b 32 87 27 be cc 6d da bd
       -0.11729044 0.002919141 -0.16360167 -0.10665473
0002f0 97 1b 37 3e 03 f7 cb bb 04 08 3f 3e 2c cd 1d bd
       0.17881618 -0.0062245145 0.18655401 -0.038525745
000300 98 4a da bd 98 50 0a be 0b 13 3e 3e 67 d3 1e be
       -0.10658759 -0.13507307 0.18561952 -0.15510331
000310 8c a9 d0 3d c6 fb 82 3d 27 81 2c 3d b7 1b f3 3d
       0.101885885 0.06395678 0.042115357 0.118705206
000320 1f 5c a8 bd ac 9a ff 3d 08 f8 2c be 38 38 b3 bd
       -0.08220696 0.12480673 -0.16891491 -0.08750957
000330 5d 62 08 3e fa 59 8b 3d 18 d0 30 bd db a6 24 bd
       0.13318773 0.06804271 -0.043167204 -0.04019819
000340 ce e4 ee bd db 78 0f 3e cc 0e 51 bc 95 75 6e bc
       -0.11664735 0.14010946 -0.0127598755 -0.014554401
000350 e6 f1 74 3d a9 11 17 3e 3d 12 d1 bd 55 69 7a bd
       0.059801005 0.1475283 -0.10208557 -0.06113561
000360 f0 98 09 3e b5 40 0a 3e 54 19 e3 bd 84 91 4c be
       0.13437247 0.13501246 -0.11088815 -0.19977385
000370 d8 6a 6b 3d 2e 80 04 3e 4b ac 47 3d 9c 99 fc 3d
       0.05747494 0.12939522 0.048748296 0.12333986
000380 10 10 13 be 97 fe d3 3d 8d a9 05 be d5 df db 3d
       -0.14361596 0.103512935 -0.1305296 0.10736052
000390 eb 77 1b 3e 1f b3 3f 3d 83 42 30 3e 31 6a 0b be
       0.15182464 0.046801683 0.17212872 -0.13614728
0003a0 54 c8 34 be 27 84 4e be 83 69 02 3e df 8d ac 3d
       -0.17654544 -0.201676 0.12735562 0.08425497
0003b0 e2 1b ea bd 86 1c cd 3d d6 1a 43 3e 3f 47 36 be
       -0.114310995 0.10015206 0.19053206 -0.17800616
0003c0 e2 08 20 3e 3b f1 a2 3c e1 32 af 3c 5f 50 41 3e
       0.15628389 0.019890418 0.021386566 0.18878315
0003d0 93 a3 39 3e 60 2a 7e 3d 2f 85 1b 3e 74 34 d0 3d
       0.18128805 0.06205213 0.15187524 0.10166255
0003e0 2c 9b d6 3c 9e 19 33 be fd 94 30 3d 1a fd 0c be
       0.026197039 -0.17490241 0.043110836 -0.13768426
0003f0 cc 39 5f 3d 44 8f 44 3d 39 51 91 3b 5d 2b 0f be
       0.05449848 0.04798819 0.0044347313 -0.13981386

cnn.conv2.bias f4 [16]
000000 e4 c7 bc bd 50 d3 81 3d 55 b1 34 bd 36 29 f7 bd
       -0.092178136 0.06339133 -0.04411443 -0.12068407
000010 cd 81 23 be 19 80 1a bd c6 38 3e be 85 59 2a 3e
       -0.15967484 -0.03771982 -0.18576345 0.16635711
000020 07 84 c1 bd 59 58 9e bd fc 8c 55 3c 69 f0 4a 3d
       -0.0944901 -0.07731695 0.013034102 0.04954568
000030 59 e9 91 bc 24 aa 09 3e c8 7e de bd 72 2e 7b 3d
       -0.017811464 0.1344381 -0.10864025 0.06132359

cnn.fc1.weight f4 [72, 144]
000000 8d 6f 30 bc de c7 9e bd 0c e0 0d bd 8d 2f 2e 3b
       -0.010768783 -0.077529654 -0.034637496 0.0026578635
000010 e8 5f 97 3c 50 18 06 3d 89 52 41 3d 4c 18 1d bd
       0.018478349 0.03273803 0.047197852 -0.03835325
000020 20 fd 40 bd 55 a9 8e bc 5b a7 6c bd e9 af 0a bd
       -0.0471164 -0.017414728 -0.05777679 -0.033859167
000030 93 7c 5f bd e8 69 8b 3c 58 b5 a8 3d c1 17 12 3c
       -0.054562163 0.017018273 0.082377136 0.008916796
000040 58 31 94 bd 86 3e 28 bd fd 8f 04 bd 02 6c 11 3d
       -0.07235974 -0.041075252 -0.03236388 0.035503395
000050 d6 02 0a 3c af c2 a5 3c 91 73 b7 3d 34 c1 18 3d
       0.008423528 0.020234434 0.089575894 0.037293628
000060 32 25 0d 3c d9 79 c8 b9 da 20 34 3d 91 3e fd 3c
       0.008614825 -0.00038237756 0.043976642 0.030913623
000070 e2 b7 94 bd c2 e0 b8 bc 75 10 35 3c 1b 90 66 3d
       -0.07261635 -0.02256811 0.011051287 0.056289773
000080 a1 cb 5a 3d 80 b3 82 bd e8 ac 76 bd 4a 41 19 3c
       0.053416852 -0.06381893 -0.06022349 0.009353945
000090 ed 0f 0f 3b 69 1f ce 3c 1b f4 d0 bc 16 bd 92 3d
       0.002182956 0.025161462 -0.025507024 0.071649715
0000a0 ea 40 c4 3b 45 71 c8 3d 91 95 97 bd 9c e0 cd 3c
       0.0059891837 0.097872294 -0.074015744 0.025131516
0000b0 ad 57 1e 3d 67 1c 13 bd 3f 54 44 3d eb 54 9a bd
       0.038657833 -0.03591576 0.047931906 -0.07535728
0000c0 a6 55 8b 3d f8 18 9b 3c 02 79 51 3c bc 46 b1 3c
       0.068034455 0.018932804 0.012785198 0.021640174
0000d0 1c a6 89 3c b9 9a b1 3c 20 85 86 3d 72 42 46 bd
       0.01680284 0.021680223 0.0656836 -0.04840321
0000e0 25 7f 80 3d 2f e0 d3 3a f2 44 4d bc 3c f0 9f 3c
       0.06274251 0.0016164834 -0.012528645 0.019523732
0000f0 2f 55 aa 3d f1 6d 19 bd 90 57 6a bd 51 47 1c 3d
       0.08317029 -0.037458364 -0.057212412 0.03815395
000100 79 2f 73 bd 93 4b 8b 3c 77 1e e1 bb e6 1a 27 3c
       -0.059371445 0.01700381 -0.006870087 0.010199284
000110 80 e6 6c 3d 21 98 91 bd 14 cf 2c bd 78 d7 48 3d
       0.05783701 -0.071090944 -0.042189673 0.049033612
000120 66 c3 58 3a b7 4d 76 3b d8 6e b8 bd 50 b7 c6 3d
       0.0008268863 0.0037582943 -0.09005517 0.09702933
000130 15 c1 8e bb 53 fd 84 bc c4 56 57 3c 2d e0 07 bd
       -0.0043565133 -0.016234076 0.013143245 -0.033172775
000140 c2 fd 62 3d 96 df c0 3c 0e 6b a0 3d dd 89 a1 ba
       0.055417784 0.023544114 0.07832919 -0.0012324412
000150 aa 99 6b bb e0 ba 47 3d 1c 49 97 3c b5 5a 03 bc
       -0.0035949745 0.048762202 0.018467478 -0.008017232
000160 ea d2 94 3c 52 32 a5 3d 09 0e 23 3c ee cd 50 3d
       0.018166978 0.080662385 0.009952077 0.05097764
000170 cd ff 05 3d c9 c7 d6 3b a4 ff 77 3c d9 8a 6f 3c
       0.032714654 0.006554578 0.015136633 0.014620506
000180 7d 8d a4 3b ef 56 5e 3d 9d f2 84 3d b5 a5 f9 3b
       0.0050217495 0.054282125 0.06491587 0.007618631
000190 54 76 24 bc 0e 84 c6 3d cd 25 64 bd 08 80 a6 3d
       -0.010037977 0.09693156 -0.055700112 0.08129889
0001a0 a3 8b 4a 3d 75 79 c5 3c 1b 5a b4 3c 90 6d 4d bd
       0.049449574 0.024105767 0.022015622 -0.050153315
0001b0 6d 3e 0b 3d 51 b0 4a bd 8c 93 05 3c 18 9a 6e 3d
       0.03399508 -0.049484555 0.008152854 0.058252424
0001c0 b6 66 a1 bd ca bb 36 bb 1e 6f 36 bd 59 c9 86 3d
       -0.07880919 -0.0027882927 -0.044539563 0.06581373
0001d0 d9 6d 2d bd ca 20 22 3d f9 b5 31 3d 0f e6 af 3c
       -0.042341087 0.03958205 0.043386433 0.021472005
0001e0 50 19 7f 3d fb e8 6f 3c 02 7f ca bd 05 17 5f 3d
       0.06228 0.014642949 -0.09887506 0.054465313
0001f0 93 c6 05 bc 96 0e 49 bc 2e 28 b4 bd b2 a7 03 bc
       -0.00816502 -0.012271544 -0.08796726 -0.008035587
000200 b0 a8 af bc fe 5c 8f 3d 9b 5c a7 3d 11 ad 75 3d
       -0.021442741 0.07000159 0.0817196 0.059979502
000210 ac a1 a4 3d 9e 03 1c bd f2 c2 32 bd 42 c3 11 bd
       0.08038649 -0.038089387 -0.043642946 -0.035586603
000220 d6 a7 1a bd fe 85 67 3d 0f 00 ed 3c cd 14 5d 3d
       -0.037757717 0.05652427 0.028930692 0.053974915
000230 7f 70 cc bb 44 32 2f bd 22 ed 60 bd f0 ba 7c 3d
       -0.0062389965 -0.042772546 -0.054913647 0.061701715
000240 63 ca 42 3d 73 8e ae 3c bb db b5 bc a0 85 a7 bd
       0.047556292 0.02130816 -0.022199502 -0.08179784
000250 81 ce 1f bd 8b 51 16 3d de 75 d8 bc a5 50 21 3d
       -0.039015297 0.03669886 -0.026423391 0.03938355
000260 8b c0 ea 3c 4a a1 d3 bc 09 5c 6e 3d 6a f1 1f bd
       0.028656265 -0.025833745 0.05819324 -0.03904859
000270 5a 0f 15 3c da 82 3b bd b4 ef 86 bd af 97 f9 bb
       0.009097898 -0.045779087 -0.065886885 -0.007616959
000280 35 e0 23 3d d8 75 53 bd 5b d1 49 3d e2 ff 99 bd
       0.040008742 -0.051626056 0.049271923 -0.07519509
000290 75 3c a2 bd 44 2b 5d bd 65 80 0f bd 2d ed 60 bc
       -0.079216875 -0.05399634 -0.035034556 -0.013728422
0002a0 a2 c5 16 bc b8 74 12 3d ce e2 a1 bd ba ee 82 3c
       -0.009202393 0.035755843 -0.07904588 0.015982974
0002b0 26 fc 84 bb 2a e0 d9 3c 21 a3 b1 3d 98 a6 69 3d
       -0.0040583787 0.026596148 0.086736925 0.05704364
0002c0 61 63 2f bd 73 a0 6a bd 46 b0 4b bc 96 10 37 bd
       -0.042819384 -0.057281923 -0.012432164 -0.044693552
0002d0 3d 3e 0d 3d 03 6e 1d 3a 9a 82 6b 3d 4f f4 fe 3c
       0.034483183 0.0006005468 0.0574976 0.031122355
0002e0 74 ed d1 bc 8f 2f 63 bb da b0 12 3c 77 3b 28 3c
       -0.025625922 -0.0034665798 0.0089532975 0.010268084
0002f0 7c 07 99 3d d0 1d 75 bd 45 87 22 3d e5 7a 56 bd
       0.07472131 -0.059842885 0.039679784 -0.052363295
000300 54 4d 9d bd 8e 51 aa bc 86 e4 01 3d bd 41 87 3d
       -0.07680765 -0.020790841 0.031712078 0.066043355
000310 32 bb f3 3c d3 28 ab bb 13 d4 af bb c5 7b e8 bc
       0.029752348 -0.0052233725 -0.0053658574 -0.02837933
000320 c5 cb b6 bb ab d1 95 bb 7d 89 95 3d 73 15 54 3d
       -0.0055784904 -0.0045721135 0.073016144 0.051778268
000330 dd a6 8e bd 3b f5 c7 bb 89 09 5b bd 57 a6 83 bc
       -0.069654204 -0.006102232 -0.05347589 -0.016070528
000340 32 a5 93 bd ee 49 95 3c 3a 50 60 bd 60 dc 93 3d
       -0.07209243 0.018223729 -0.05476401 0.072197676
000350 63 24 8c 3d 82 0d 5d bd 72 6b 92 bd 04 77 65 bc
       0.06842878 -0.05396796 -0.071494 -0.014005426
000360 e8 9b e9 bc 54 83 00 3d ac c3 8e bd c0 28 10 3d
       -0.028516725 0.031375244 -0.06970915 0.035195112
000370 28 18 a1 bd 93 57 f7 bc c9 7c 12 bd 11 c6 d4 3c
       -0.078659356 -0.030193126 -0.035763536 0.025973352
000380 31 9d 0e 3c f4 aa 8f bd b8 d0 34 bd 12 64 2c bd
       0.00870447 -0.070150286 -0.044144362 -0.042087622
000390 16 24 9d bd 13 11 16 3c 10 3e e5 3c 5e 93 c6 bc
       -0.076728985 0.009159344 0.027983695 -0.024240192
0003a0 95 88 bc bc fa 95 98 3c 20 80 86 bd f6 06 44 bd
       -0.023014346 0.018626202 -0.06567407 -0.0478582
0003b0 4b 7d 82 bb 7a de 8a 3d 24 5e ee bc dc 7a 09 3d
       -0.0039822212 0.06780715 -0.029097624 0.033564433
0003c0 96 93 1a bd d6 f2 ca bc 1a 46 88 bd a3 96 7e 3d
       -0.037738405 -0.024773996 -0.06653996 0.062155377
0003d0 d8 36 90 3d ab 3e 68 3a 8f 5e 72 3d 72 b5 81 3d
       0.070417106 0.0008859436 0.05917221 0.06333436
0003e0 4d fd 3e 3d 66 89 59 3d a8 8c 90 bd 30 ea c1 bd
       0.046628285 0.05310955 -0.07058078 -0.09468496
0003f0 cd d5 9a bd 91 df 7a 3c 6b 14 a7 bd 6e 5f 80 bd
       -0.075603105 0.015312091 -0.08158191 -0.06268202

cnn.fc1.bias f4 [72]
000000 1e e3 99 3c 3d 38 82 3c 76 db 8a 3d e1 f3 7a 3b
       0.018785056 0.015895957 0.0678014 0.0038292336
000010 d5 a3 65 bc a0 3c 8a 3b 37 e6 b4 bc 5e d0 9e bd
       -0.014016111 0.004218653 -0.022082431 -0.07754587
000020 08 bd 9c bc 51 df 7a bd d9 7d 34 3d c0 97 81 3b
       -0.019133106 -0.061248127 0.04406533 0.0039548576
000030 da e5 a1 3b ad 54 97 ba 0e de 57 bd fe 2e 84 bd
       0.0049407305 -0.0011545621 -0.052702002 -0.064542755
000040 bf e9 49 bc 97 64 86 3c 06 4e 16 bd 65 48 6d bd
       -0.012323796 0.016405387 -0.036695503 -0.05793037
000050 d2 3a 4b 3d 0b eb bd bc 3e 90 25 3d 28 77 99 3d
       0.049616642 -0.023183366 0.040420763 0.074934304
000060 e7 1c 8c 3d 30 46 9c bd 34 68 dd 3b 69 09 8d bd
       0.0684145 -0.07630575 0.0067568067 -0.068865605
000070 18 53 14 bb 64 27 5b 3b fe 75 ec bc 00 6f 7f 3c
       -0.0022632536 0.0033440227 -0.028864857 0.015590429
000080 59 21 20 bd 78 d6 0a 3d 9b 61 53 bb 3c 85 5e 3d
       -0.039094303 0.03389594 -0.0032254222 0.05432628
000090 8f 4a 5e 3d f8 dd ad 3c bf 40 b2 3c e1 da 1e bd
       0.054270323 0.021224007 0.021759389 -0.038782958
0000a0 61 56 7a bd 97 15 80 3d 56 0b 65 3d dd 2d 66 3c
       -0.061117534 0.06254118 0.055919014 0.014049021
0000b0 a8 90 89 3d fa 46 35 3d ac 41 5b 3d f8 9b b5 bc
       0.06717044 0.04425714 0.053529426 -0.022169098
0000c0 7b e1 f3 3b d6 11 98 bd 36 ff b6 bd 85 c0 dc 3c
       0.007442651 -0.07425277 -0.089353964 0.02694727
0000d0 33 52 30 bd 89 9b 36 3d 39 70 9a bd 36 6d 88 bd
       -0.04304714 0.044581924 -0.07540936 -0.06661455
0000e0 54 22 8f bd 47 bc 39 3d 7f c8 83 bd ad 36 a9 bd
       -0.069889694 0.04534557 -0.06434726 -0.08262382
0000f0 62 f6 2a 3d 84 54 0a bc 05 0b a9 bd 86 25 61 3d
       0.041738875 -0.008443002 -0.08254055 0.054967426
000100 3d b5 4c 3d 9b 8a 6a 3d c3 c3 3b 3d 5f cd 9f bd
       0.04997753 0.05726109 0.04584099 -0.07802843
000110 1e 0d 4a bd 35 67 16 bd 49 24 c5 bd cf 99 4a 3d
       -0.049328916 -0.03671952 -0.096260615 0.04946309
