src/models/saved_models/dl_transformer_model.pth (torch, 16418 bytes, 13 tensors)

encoder_layer.self_attn.in_proj_weight f4 [3, 1]
0	0xbe92e7b5	-0.28692403
1	0x3f90021d	1.1250645
2	0xbe8964a5	-0.26834598

encoder_layer.self_attn.in_proj_bias f4 [3]
0	0x00000000	0.0
1	0x00000000	0.0
2	0x00000000	0.0

encoder_layer.linear1.weight f4 [16, 1]
0	0x3e4ea238	0.20179069
1	0xbef94510	-0.48685503
2	0x3f165828	0.58728266
3	0x3f61accc	0.8815429
4	0xbf3bcf0e	-0.73362815
5	0x3f5e83a4	0.8691962
6	0x3e3fa6b0	0.1871593
7	0x3f3d2294	0.7388089
8	0x3e0aae50	0.13543057
9	0x3ef6e15c	0.4821881
10	0xbe109460	-0.141191
11	0x3f4558c6	0.7708858
12	0x3e175b38	0.14780891
13	0xbeef05a4	-0.4668399
14	0x3e828208	0.2548983
15	0xbeebe5ac	-0.46073663

encoder_layer.linear1.bias f4 [16]
0	0xbdf02cc0	-0.117272854
1	0xbecff3fc	-0.40615833
2	0x3f29d2ae	0.66337097
3	0xbf4a142a	-0.7893702
4	0xbeec098c	-0.46101034
5	0xbe90936c	-0.28237474
6	0xbf19ecfe	-0.60127246
7	0x3dc14bf0	0.09438312
8	0xbf7cd88a	-0.9876791
9	0x3f673228	0.9031091
10	0xbf5976c0	-0.84946823
11	0x3f45a396	0.7720274
12	0x3e2a69c8	0.16641915
13	0xbea63fac	-0.32470453
14	0x3f1e31f8	0.61794996
15	0x3e1f9758	0.15585077

encoder_layer.linear2.weight f4 [1, 16]
0	0x3e4ed6b0	0.20199084
1	0x3cdfe300	0.027329922
2	0xbda17898	-0.078843296
3	0x3d8990e8	0.06717092
4	0xbd8ad808	-0.06779486
5	0x3dd77aa4	0.10521439
6	0x3e648ffe	0.22320554
7	0x3e13fbb6	0.14451489
8	0xbddfd514	-0.10929313
9	0x3e13c79e	0.14431617
10	0x3d373870	0.044731557
11	0x3e02017a	0.12695876
12	0xbe1c0886	-0.15237626
13	0xbe7d6aa4	-0.24747711
14	0xbdc5d10c	-0.09659013
15	0xbe445b9c	-0.19175571

transformer_encoder.layers.0.self_attn.in_proj_weight f4 [3, 1]
0	0xbe8f2e95	-0.27965227
1	0x3f8c8ffe	1.0981443
2	0xbe860ad5	-0.2618014

transformer_encoder.layers.0.self_attn.in_proj_bias f4 [3]
0	0x3037cbe3	6.686475e-10
1	0x24a37e7c	7.0904255e-17
2	0xb50212f9	-4.845638e-07

transformer_encoder.layers.0.linear1.weight f4 [16, 1]
0	0x3e498e17	0.19683109
1	0xbef34407	-0.47512838
2	0x3f129f29	0.5727411
3	0x3f5c171c	0.8597276
4	0xbf37574e	-0.7161759
5	0x3f59063f	0.84775156
6	0x3e3aebac	0.18253964
7	0x3f389915	0.72108585
8	0x3e075480	0.13215828
9	0x3ef0eba7	0.47054788
10	0xbe0d13a1	-0.13777019
11	0x3f4081a2	0.75197804
12	0x3e13a3a9	0.144179
13	0xbee91630	-0.4552474
14	0x3e7e687f	0.2484455
15	0xbee62825	-0.44952503

transformer_encoder.layers.0.linear1.bias f4 [16]
0	0xbdea37c0	-0.11436415
1	0xbecac7ba	-0.39605504
2	0x3f259598	0.64681387
3	0xbf453d1a	-0.7704636
4	0xbee649d9	-0.44978216
5	0xbe8d12c5	-0.27553383
6	0xbf1633de	-0.58672893
7	0x3dbf8412	0.09351362
8	0xbf76a1a7	-0.9634041
9	0x3f61bc90	0.8817835
10	0xbf544060	-0.8291073
11	0x3f413974	0.7547829
12	0x3e2517ba	0.16122332
13	0xbea2273c	-0.31670558
14	0x3f1a419a	0.6025635
15	0x3e18bcdd	0.14915796

transformer_encoder.layers.0.linear2.weight f4 [1, 16]
0	0x3e49becf	0.19701694
1	0x3cda4e2e	0.026648607
2	0xbd9ac19e	-0.07556461
3	0x3d863718	0.06553477
4	0xbd877e38	-0.06615871
5	0x3dd24444	0.10266927
6	0x3e5efa4e	0.21775171
7	0x3e116c70	0.14201522
8	0xbdda4130	-0.10656965
9	0x3e115749	0.14193453
10	0x3d32c0b0	0.043640792
11	0x3e03b9d7	0.12863861
12	0xbe170c14	-0.14750701
13	0xbe772b28	-0.24137557
14	0xbdbd7a5b	-0.09251853
15	0xbe3cb315	-0.1842769

linear1.weight f4 [128, 9]
0	0xbc86e738	-0.016467676
1	0x3cc93d62	0.024565402
2	0xbbeece25	-0.007287758
3	0xbded275f	-0.11579775
4	0x3e13c988	0.14432347
5	0xbeae9bb4	-0.34103167
6	0xbdb79b7d	-0.08965204
7	0xbeaa1695	-0.33220354
8	0xbc218a42	-0.009859623
9	0xbdceddfb	-0.10100933
10	0x3de2888e	0.11061202
11	0xbd68790f	-0.056756075
12	0x3e8fa6ef	0.28057048
13	0xbe3a30c7	-0.1818267
14	0xbe3b7313	-0.18305616
15	0xbe3b7631	-0.18306805
16	0x3e9b5625	0.3033916
17	0x3df461b6	0.119326994
18	0x3e4187aa	0.18899408
19	0xbec8cda0	-0.3921938
20	0xbee4aba2	-0.44662195
21	0xbec1b26c	-0.37831438
22	0xbeaf5fad	-0.34252682
23	0x3c0031b1	0.007824347
24	0xbbf3ff9d	-0.007446243
25	0x3e15d158	0.1463064
26	0xbe956d91	-0.29185155
27	0xbe994096	-0.29932088
28	0x3dc258ce	0.094895944
29	0xbe561a50	-0.20908475
30	0x3df5334b	0.11972674
31	0xbe1e8758	-0.15481317
32	0x3dddfa26	0.10838728
33	0xbea922ef	-0.33034465
34	0xbe779090	-0.2417624
35	0x3cb01b5f	0.021497427
36	0xbe081974	-0.1329096
37	0xbe919c6a	-0.28439647
38	0xbbfeb77e	-0.007773339
39	0x3c9f6897	0.019459052
40	0xbedff998	-0.43745112
41	0xbec01546	-0.3751623
42	0x3dc4eec2	0.09615852
43	0xbe9f569c	-0.31120765
44	0xbea23890	-0.3168378
45	0xbe7973fb	-0.2436065
46	0xbdebf1a2	-0.11520697
47	0x3e1be156	0.15222678
48	0x3ce62720	0.028094828
49	0xbe28fbc8	-0.16502297
50	0x3da10f05	0.07864193
51	0xbe1abae8	-0.15110362
52	0xbe51c7ff	-0.20486449
53	0xbddd4885	-0.10804848
54	0xbeb60ecb	-0.3555816
55	0xbe8e651d	-0.27811518
56	0x3e821280	0.2540474
57	0xbc1c0ced	-0.009524566
58	0x3cefc3e2	0.029268209
59	0xbebf8e37	-0.3741319
60	0xbe9198aa	-0.28436786
61	0xbe377ec5	-0.17919452
62	0xbca496c8	-0.02009143
63	0xbeb7d78b	-0.35906634
64	0xbe5a28af	-0.21304582
65	0xbe8901fa	-0.2675932
66	0xbd937f9a	-0.072020724
67	0xbe468f07	-0.19390498
68	0xbdc380cd	-0.09546051
69	0xbe963cf1	-0.2934337
70	0xbe979c9c	-0.2961167
71	0xbe868815	-0.26275697
72	0xbd1c5f56	-0.038176857
73	0xbe3bee89	-0.18352713
74	0x3eb10b39	0.34578875
75	0x3c0d06a8	0.008607544
76	0x3eb4b5e9	0.35295036
77	0x3e32a6b7	0.17446409
78	0xbe4f08e1	-0.20218231
79	0x3e98ab07	0.29817984
80	0xbc85cc48	-0.01633276
81	0xbe6be238	-0.23035514
82	0xbec052a4	-0.3756305
83	0xbedba4fb	-0.42899308
84	0xbc4fd6c5	-0.012685482
85	0xbe34fe85	-0.17675216
86	0x3cab04a7	0.020876242
87	0xbebebff9	-0.3725584
88	0x3e0afbd1	0.13572623
89	0xbeb05506	-0.34439868
90	0xbe2a8273	-0.16651325
91	0xbd2ddcf2	-0.042447038
92	0x3d6b8b16	0.05750569
93	0x3e1bcd6e	0.15215084
94	0x3e3e56aa	0.18587747
95	0xbebc8737	-0.3682191
96	0xbce9b898	-0.028530404
97	0xbe801ea4	-0.25023377
98	0xbe157f36	-0.14599308
99	0xbe906b96	-0.28207082
100	0x3e83bd16	0.257302
101	0xbe8e2807	-0.27764913
102	0x3e0a344c	0.13496512
103	0x3d9a89e0	0.07545829
104	0x3d88dd10	0.06682789
105	0xbe5bba34	-0.2145775
106	0x3e836aa1	0.2566729
107	0x3d059456	0.032612167
108	0xbd21d768	-0.039512068
109	0xbebc6eac	-0.36803186
110	0x3d61e99d	0.05515443
111	0xbe05385a	-0.13009778
112	0xbe6bdcc8	-0.2303344
113	0x3e4ab430	0.19795299
114	0xbc10e93c	-0.00884467
115	0xbe85b264	-0.26112664
116	0xbe7bdd00	-0.24596024
117	0x3d38bc17	0.04510125
118	0x3e7804a6	0.24220523
119	0xbcb80785	-0.022464523
120	0xbdffcb3c	-0.12489936
121	0xbd4fcbc8	-0.05073145
122	0xbe3aae1f	-0.18230484
123	0x3e34d523	0.1765943
124	0x3e9fe3bf	0.31228444
125	0xbe7b5554	-0.24544269
126	0x3e25ca8d	0.16190548
127	0x3e823048	0.2542746
128	0x3e14d0f8	0.1453284
129	0xbcf11564	-0.029429145
130	0x3e831501	0.25601962
131	0x3e83adad	0.25718442
132	0x3e54f767	0.20797502
133	0x3cef7af2	0.02923343
134	0x398b88bf	0.0002661403
135	0xbcd262a2	-0.025681797
136	0xbdf18336	-0.117926046
137	0xbe211e88	-0.15734303
138	0x3e16f431	0.14741589
139	0x3e6038c2	0.21896651
140	0xbdbdbac9	-0.09264142
141	0xbe087c5f	-0.13328694
142	0xbd64460a	-0.055730857
143	0xbda398d3	-0.07988133
144	0x3d53679e	0.05161249
145	0x3d843704	0.06455806
146	0xbea4d750	-0.3219552
147	0xbe161519	-0.14656486
148	0x3e7d2d47	0.24724303
149	0x3dccfb31	0.100088485
150	0xbd2f1356	-0.04274305
151	0xbe63feb7	-0.22265135
152	0xbe66f49b	-0.22554247
153	0xbe7c93be	-0.24665734
154	0xbd7b7f75	-0.06140085
155	0x3e1e25ad	0.1544406
156	0x3e80fb18	0.2519157
157	0x3e476924	0.19473702
158	0xbe78a14e	-0.24280283
159	0xbe1a91d6	-0.15094694
160	0xbbdc99c6	-0.0067321984
161	0x3eb7e187	0.3591425
162	0xbc1b25a2	-0.009469422
163	0xbe100dd3	-0.14067774
164	0x3d9fce8f	0.0780307
165	0xbe38b4ed	-0.18037768
166	0xbe88c874	-0.26715434
167	0x3e393c80	0.18089485
168	0xbe514de2	-0.20439866
169	0xbdf922a9	-0.12164814
170	0xbec29c3c	-0.38009822
171	0x3e6355b8	0.22200668
172	0x3e8042b8	0.25050902
173	0x3dfb893d	0.122820355
174	0xbe63c727	-0.2224394
175	0xbea2171d	-0.3165826
176	0xbe8500c4	-0.25977147
177	0x3e7cb4fd	0.24678417
178	0x3e244c0f	0.16044639
179	0x3e8e5bd5	0.27804437
180	0x3d2c53e7	0.042072203
181	0xbd3c55d1	-0.04598028
182	0xbe06a3ed	-0.1314847
183	0xbec05790	-0.37566805
184	0xbed0581e	-0.40692228
185	0xbedd7310	-0.43251848
186	0x3b9e7578	0.0048357807
187	0xbe93783e	-0.28802675
188	0xbe46662d	-0.19374914
189	0xbe86a62b	-0.2629865
190	0xbe0a5a61	-0.1351104
191	0xbe9c04d7	-0.30472443
192	0xbe939be9	-0.28829888
193	0x3d031d19	0.03201017
194	0xbe30a1b6	-0.17249188
195	0x3dffbf04	0.12487605
196	0xbe3882a4	-0.18018585
197	0xbea0f60e	-0.31437725
198	0xbde7596f	-0.11296355
199	0xbe5a4caa	-0.21318308
200	0xbe1ec0c0	-0.15503216
201	0xbebae012	-0.36499077
202	0x3e015965	0.12631758
203	0xbe904f3c	-0.2818545
204	0x3ddce18c	0.10785207
205	0x3dbc5c55	0.091972984
206	0x3e34f6d7	0.17672287
207	0xbe2aff5c	-0.16698974
208	0x3ea1e811	0.31622365
209	0xbd9205f2	-0.0713004
210	0x3e4ff381	0.20307733
211	0x3ec69243	0.38783464
212	0x3d15c92c	0.036568806
213	0x3da3a787	0.07990938
214	0x3bf7d9f8	0.0075638257
215	0xbe41a217	-0.18909489
216	0x3d797d99	0.060910795
217	0xbed5ffbe	-0.41796678
218	0x3dda9689	0.106732436
219	0x3e17c19a	0.14819947
220	0x3e597ff3	0.21240215
221	0xbe2ff4c3	-0.17183213
222	0xbeb980b0	-0.36230993
223	0xbcb465db	-0.022021225
224	0x3dad12a5	0.08450822
225	0xbeaab3f9	-0.33340433
226	0xbdab4d97	-0.083644085
227	0xbe51b27d	-0.20478244
228	0xbd1cc187	-0.0382705
229	0xbe2df392	-0.16987446
230	0xbe122bd8	-0.14274538
231	0xbde77ba2	-0.11302878
232	0xbea34ebf	-0.31896016
233	0x3e837293	0.2567335
234	0x3e83a133	0.25708923
235	0xbd87f89d	-0.06639216
236	0xbd56b45c	-0.052418098
237	0xbe17b2f0	-0.14814353
238	0xbe9e44f1	-0.30911973
239	0xbea9ed47	-0.3318884
240	0x3dd7facc	0.105458826
241	0xbe4699b3	-0.19394569
242	0xbe65d759	-0.2244543
243	0xbd4ce6af	-0.050024685
244	0xbe0833fb	-0.13301079
245	0xbe04f90f	-0.12985633
246	0xbc689c56	-0.01419743
247	0xbdbfc57f	-0.09363841
248	0xbe0bdf15	-0.13659318
249	0xbe38a976	-0.18033394
250	0xbe941c42	-0.2892781
251	0x3e7ddf31	0.24792172
252	0xbea9d2ac	-0.33168542
253	0xbdec4447	-0.1153646
254	0xbea0e959	-0.3142803
255	0xbe335b61	-0.17515327

linear1.bias f4 [128]
0	0x3dce91d4	0.10086408
1	0xbc903af0	-0.017606229
2	0x3e6053b7	0.21906935
3	0x3e14357e	0.1447353
4	0x3e7ab80d	0.24484272
5	0xbe3d0dd6	-0.18462309
6	0x3e33e16e	0.17566463
7	0x3e83c646	0.25737208
8	0xbde1f329	-0.11032707
9	0x3e85305c	0.26013458
10	0x3e31e836	0.17373738
11	0xbc963b07	-0.018338693
12	0x3dfb5710	0.12272465
13	0xbd89b268	-0.067234814
14	0xbe6a770d	-0.22896977
15	0x3d2f5cd8	0.042813152
16	0x3d93a8cb	0.07209929
17	0xbe358211	-0.17725398
18	0x3e17d73e	0.14828202
19	0xbe87f3ba	-0.26553136
20	0x3e83d07b	0.25744995
21	0x3e813f73	0.2524372
22	0x3d8e8d8b	0.06960591
23	0xbe1c2469	-0.15248264
24	0x3dd662da	0.10468073
25	0x3d58e364	0.05295123
26	0x3db80280	0.08984852
27	0x3dda2630	0.10651815
28	0x3e42cb56	0.19022879
29	0xbe0a465d	-0.13503404
30	0xbd0cbcdc	-0.034359798
31	0x3db7e5f2	0.089794055
32	0x3d262fe0	0.040573
33	0x3e4430de	0.19159266
34	0xbddd99e2	-0.108203664
35	0xbc879eac	-0.016555153
36	0x3ccac333	0.024751281
37	0xbd8f6444	-0.07001546
38	0x3e2e51a3	0.1702333
39	0x3d445ad5	0.047938187
40	0xbe7f67d4	-0.24941951
41	0xbd28f504	-0.04124929
42	0xbdc23398	-0.09482497
43	0xbc4c02e6	-0.012451863
44	0xbcc3bd54	-0.02389399
45	0xbe8338d7	-0.25629303
46	0xbdbd2e26	-0.09237318
47	0x3b812ac6	0.0039418666
48	0xbdf73529	-0.12070686
49	0x3e70e590	0.23525071
50	0xbd0aa4dc	-0.03384863
51	0x3e265649	0.16243853
52	0x3d33493f	0.043771025
53	0xbe6f7a61	-0.23386528
54	0x3c9f32ba	0.019433368
55	0x3e544942	0.2073107
56	0xbe3410f6	-0.17584595
57	0xbe225854	-0.15854007
58	0x3e83dc24	0.2575389
59	0x3e371cb9	0.1788205
60	0xbe03016f	-0.12793516
61	0x3e188cdc	0.14897484
62	0xbd0350e9	-0.032059584
63	0xbe8a4367	-0.2700455
64	0x3cf9a2b8	0.030473098
65	0x3dc11b58	0.094290435
66	0xbdc074ac	-0.093972534
67	0x3dcdef24	0.10055378
68	0xbe779f9c	-0.2418198
69	0x3e2599d2	0.16171959
70	0x3e6f6f1b	0.23382227
71	0x3dc60444	0.09668782
72	0x3d9cd6a0	0.07658124
73	0x3d84360d	0.06455622
74	0xbe459032	-0.19293287
75	0xbd7a7403	-0.061145794
76	0xbd95c6e7	-0.07313328
77	0xbe0eca50	-0.13944364
78	0xbe5eb3bf	-0.21748255
79	0x3e2f4dad	0.17119475
80	0x3e32e001	0.17468263
81	0xbe87da6c	-0.2653383
82	0x3dc3ebad	0.09566436
83	0x3db7242d	0.08942447
84	0x3e53c19a	0.20679322
85	0x3e15df22	0.146359
86	0x3e771980	0.24130821
87	0xbd4d9e81	-0.05019999
88	0x3e0916ab	0.13387553
89	0x3e39068f	0.18068908
90	0xbe80e0fc	-0.2517165
91	0xbe6378ab	-0.22214
92	0x3c59a19f	0.013283162
93	0x3e1157c7	0.1419364
94	0xbe1f2c1f	-0.15544175
95	0x3b5dd2c6	0.0033847555
96	0x3c877a6a	0.016537864
97	0x3db175da	0.086650565
98	0xbdf32a00	-0.11873245
99	0x3e3193df	0.17341565
100	0x3e481d87	0.19542514
101	0xbe54aa80	-0.20768166
102	0xbd01fe10	-0.031736434
103	0x3bbbb5af	0.0057284455
104	0x3db1bc6e	0.08678518
105	0x3e8df752	0.27727753
106	0x3dc1345c	0.09433815
107	0xbd93e9ae	-0.07222305
108	0x3e7710c2	0.24127486
109	0xbdd05894	-0.10173145
110	0xbd879a61	-0.06621242
111	0x3cefb281	0.029259922
112	0xbe6c828e	-0.23096678
113	0x3d10a883	0.035316955
114	0xbe2b077f	-0.16702078
115	0x3c723b3e	0.014784632
116	0x3bb7b342	0.005606086
117	0x3d0f701b	0.03501902
118	0xbe5f341b	-0.2179722
119	0xbe6de478	-0.23231685
120	0x3dee7cb6	0.116448805
121	0x3e7f01c4	0.24903017
122	0xbe83ce8c	-0.2574352
123	0x3db347f9	0.08753962
124	0xbe5d57db	-0.21615545
125	0x3d02b155	0.0319074
126	0x3e822d42	0.25425154
127	0x3e5c4738	0.21511543

linear2.weight f4 [1, 128]
0	0xbc9ebf77	-0.019378407
1	0x3c1ab1a4	0.009441767
2	0x3b9bdd43	0.004756601
3	0x3b082fd6	0.0020780466
4	0x3cac2454	0.021013416
5	0xbae26a21	-0.001727406
6	0x3abf5259	0.0014596685
7	0xbc4ce6f5	-0.012506236
8	0x396d8622	0.0002265205
9	0x3aa58331	0.0012627599
10	0xb9ca6290	-0.00038601877
11	0xbcac4d32	-0.021032903
12	0xbc9b291e	-0.018940505
13	0x39cbd92e	0.0003888099
14	0xbcdee096	-0.0272067
15	0xb95a8047	-0.00020837887
16	0xb7c1988c	-2.3078428e-05
17	0xbacb03a1	-0.0015488752
18	0x3c822260	0.015885532
19	0xbc21fe86	-0.009887343
20	0x3cd74d7b	0.026282063
21	0xbaff6cbb	-0.001948736
22	0xbd086628	-0.03330055
23	0x3c1b4dd8	0.009479009
24	0x39cff6bb	0.00039665945
25	0xbbfe3124	-0.007757323
26	0xbce2a14b	-0.027664801
27	0x3c5879fd	0.013212678
28	0xbc344bd4	-0.011004407
29	0xb982f2c6	-0.00024976413
30	0x3bdd4ed5	0.0067537823
31	0xbd24f985	-0.040277023
32	0xbcbc308a	-0.022972364
33	0x3aac748c	0.0013157292
34	0x3b159334	0.0022823336
35	0x3d1489cf	0.036264237
36	0xb9ca5a7e	-0.00038595864
37	0x3d1f81f2	0.038942285
38	0xb8f61560	-0.000117341755
39	0xbd2a5e19	-0.041593645
40	0xbb914cb3	-0.004434192
41	0x3a1f2a7a	0.0006071698
42	0x3cf2a5d9	0.029620098
43	0xb91a0ca8	-0.000146913
44	0x3ce70372	0.028199885
45	0xb857ed85	-5.14812e-05
46	0x3b2b3268	0.0026122574
47	0xbd2025c5	-0.03909852
48	0xb92def87	-0.00016587797
49	0x39a75153	0.00031913313
50	0x3cfbcd84	0.030737646
51	0x37eee22a	2.8477127e-05
52	0xbd24a634	-0.040197566
53	0x3a3b1ae6	0.0007137492
54	0x3ac9d08f	0.0015397238
55	0xbd1d6d59	-0.03843436
56	0xbb243952	-0.002505858
57	0x3aee2f1f	0.0018172002
58	0x3ae78936	0.0017664793
59	0x38b9f706	8.867499e-05
60	0xbb5e7332	-0.0033943173
61	0xbaaf5e61	-0.0013379568
62	0xba986dc5	-0.0011629394
63	0xbb4d8f34	-0.0031365873
64	0xbc9f7e23	-0.019469326
65	0xbd179267	-0.037004855
66	0xbcbab0d8	-0.022789404
67	0xbd2b31f4	-0.041795686
68	0xbbd9cee6	-0.0066469787
69	0x3ad39060	0.001614105
70	0x3b92e7b0	0.0044831857
71	0x3ad2e40f	0.0016089695
72	0x39ceb6d5	0.00039427602
73	0x3b379319	0.002801126
74	0xbbb1bc36	-0.005424048
75	0xbb1e8cfe	-0.0024192925
76	0x3a1f32df	0.0006072949
77	0xbaf2e749	-0.0018532063
78	0x3afdc544	0.0019361158
79	0x39a774ed	0.0003193984
80	0x39f2a9dd	0.00046284395
81	0xba40f3be	-0.0007360539
82	0xbccbd2dd	-0.02488082
83	0x38c6bedb	9.476925e-05
84	0x3adfb058	0.0017066104
85	0x3b4d9bcc	0.003137338
86	0x393e4803	0.00018146638
87	0x3b08b707	0.0020861046
88	0xb887ea8e	-6.480991e-05
89	0xbb3fe18a	-0.002927872
90	0xb90d6573	-0.000134846
91	0xbcc23a79	-0.023709523
92	0xbb903906	-0.004401329
93	0xb93a23f2	-0.00017751733
94	0xbce32d25	-0.027731488
95	0x35f0ac5c	1.7931557e-06
96	0x3da4500c	0.0802308
97	0x3d0c4045	0.03424098
98	0xbba73d8e	-0.0051037734
99	0x3d5582c4	0.05212666
100	0xbd1031f1	-0.035203878
101	0xbbc05198	-0.0058691017
102	0xb8f6c2b5	-0.00011766461
103	0x3d115576	0.035481893
104	0xbd24d4a5	-0.040241856
105	0x3b8178f0	0.0039511845
106	0xbc9f3c70	-0.019437999
107	0xbbc8a306	-0.0061229495
108	0x3adb817d	0.0016746965
109	0xbd53858d	-0.051641036
110	0xbd56f4b7	-0.052479472
111	0xbcafeb70	-0.02147457
112	0xbb3a10af	-0.0028391292
113	0x3c826810	0.015918761
114	0xbca3257c	-0.019915335
115	0xbbf1b8c7	-0.0073767635
116	0xbb260c54	-0.0025336938
117	0xbd4f9d5d	-0.050687183
118	0x3b101146	0.0021982952
119	0x3b4cf2b7	0.00312726
120	0xbafa553e	-0.001909889
121	0xbc7d0ded	-0.015445215
122	0x3ab7eb12	0.0014031848
123	0x38e39a94	0.00010852996
124	0x3c199ec9	0.009376236
125	0xbc6d1e5f	-0.014472573
126	0xbcafc78b	-0.021457454
127	0x3cbfdaf3	0.023419833
