src/models/saved_models/fcn_model.pth (torch, 22172 bytes, 5 tensors)

fc1.weight f4 [64, 9]
0.29114768 -0.14016372 -0.18852296 -0.105611645 0.08397294 -0.1895827 -0.047138136 -0.3353561
0.17205794 -0.29137316 -0.07529168 -0.007102481 0.24775839 0.12739952 0.14193447 -0.3415659
0.18965448 -0.16539532 0.00019293978 0.3101155 -0.0064509055 0.29158586 -0.052836623 0.2575571
0.20851529 0.0022546204 -0.24935982 -0.18828464 -0.2704415 0.11722119 -0.17334208 0.15704632
-0.20137298 -0.27966934 -0.031086981 0.252005 -0.14106712 0.27385038 -0.313919 -0.10870163
-0.19244918 0.039734207 -0.07101095 0.3095784 0.09098347 0.29643372 -0.2107911 0.09073922
0.16580409 0.043357268 0.05087276 0.14305186 0.13153706 0.013015455 0.28572834 0.2020826
-0.2804237 -0.27202973 -0.1589935 0.29354906 -0.06554432 -0.071054876 -0.21638364 -0.028645754
0.18434617 -0.31862527 -0.07783401 0.2670276 -0.27630866 -0.10340544 0.07452397 -0.116030894
-0.2479461 -0.063583836 0.27396995 0.10913942 0.32652 -0.264004 0.338378 0.18833484
-0.021871177 -0.018595206 -0.2660165 0.17494664 -0.21615417 -0.011799119 -0.35187963 -0.017424481
0.019004157 0.1757777 0.19455445 0.025029289 0.15798233 -0.32818994 0.1957786 -0.18353462
0.07463965 -0.060858123 0.30088234 0.18095146 0.12881435 0.26636723 -0.21390513 -0.089539364
-0.10039438 -0.22324176 -0.026984336 0.13237645 -0.11318433 0.04998517 -0.28375602 -0.25135976
0.07928058 -0.039291304 -0.037638783 0.115769625 -0.07388246 -0.022082292 -0.19110283 0.17603488
0.20836428 0.30355984 0.15123841 0.05762703 -0.14199851 0.29478827 0.3128968 -0.15791437
0.28556392 -0.17650859 0.044510167 -0.081658885 -0.32629186 -0.26436615 0.046645604 0.05938698
-0.048456423 0.22672501 0.27071002 0.23933016 0.091965884 -0.25668487 -0.22265767 0.11198488
0.17070827 -0.21695256 -0.2709378 -0.13265157 0.25058135 0.28252432 -0.025338799 0.25430304
-0.12866017 -0.053325616 -0.04141911 -0.08457705 0.13115224 0.15680894 0.03176431 -0.32420504
-0.27716526 -0.2811789 0.03786192 -0.06637107 -0.085606575 -0.3578353 0.21796302 -0.13150075
-0.16758901 -0.33665177 -0.019736368 0.3052746 -0.14347331 -0.12680702 -0.21407919 0.07025659
0.07131942 0.0151371565 -0.0039966106 0.0010468563 -0.33594126 -0.030808346 -0.1300107 0.1409827
0.01334265 -0.2012561 -0.2900788 0.21261404 0.33251917 -0.28164238 0.26107317 0.25944924
0.19907698 -0.18243597 0.106283166 -0.17998403 -0.2890653 0.1456516 -0.069225766 -0.11356662
-0.17913032 -0.06459834 0.19615181 0.16125761 -0.1177257 -0.11850268 -0.06367852 -0.22582692
0.28450438 -0.21788935 -0.095795244 -0.15952279 -0.07198569 0.013899081 0.19521618 -0.0938621
0.3019997 0.058795094 -0.15349512 -0.25032005 0.05372739 -0.093500815 -0.32966134 0.016879043
0.12259325 0.26437238 0.05733818 -0.19474047 0.07508057 -0.34265393 -0.1370456 -0.20358051
0.04488703 -0.124246806 0.15262012 -0.29889357 0.009005269 -0.2810746 0.062342525 0.048576634
0.0042318506 0.1934201 0.15428619 0.09454618 0.26417133 -0.04211299 -0.34282997 -0.27913013
0.26494488 -0.27713805 -0.29049328 -0.20402421 0.27120194 0.056022573 0.27445403 -0.07225183
00000000: 4f11 953e 1487 0fbe 2a0c 41be eb4a d8bd
00000010: 01fa ab3d f821 42be eb13 41bd cbb3 abbe
00000020: f52f 303e dd2e 95be 8632 9abd eebb e8bb
00000030: 60b4 7d3e 0575 023e 4557 113e bae1 aebe
00000040: c934 423e 645d 29be e14f 4a39 75c7 9e3e
00000050: 1e62 d3bb be4a 953e 376b 58bd 86de 833e
00000060: 0885 553e 41c2 133b 2e58 7fbe b0cd 40be
00000070: 4f77 8abe aa11 f03d 9680 31be c0d0 203e
00000080: b834 4ebe d230 8fbe 20aa febc cd06 813e
00000090: e673 10be 1e36 8c3e feb9 a0be f69e debd
000000a0: 6611 45be 56c0 223d 306e 91bd 0f81 9e3e
000000b0: 8b55 ba3d 29c6 973e 9fd9 57be 7cd5 b93d
000000c0: 8cc8 293e 6497 313d f55f 503d 307c 123e
000000d0: a7b1 063e c63e 553c fc4a 923e beee 4e3e
000000e0: b293 8fbe 7b47 8bbe 31cf 22be 104c 963e
000000f0: 1a3c 86bd 3885 91bd ac93 5dbe 80aa eabc
00000100: 3ec5 3c3e da22 a3be 7067 9fbd d7b7 883e
00000110: 5478 8dbe 3bc6 d3bd 06a0 983d 9ba1 edbd
00000120: 95e5 7dbe 3e38 82bd ca45 8c3e 7d84 df3d
00000130: a12d a73e 882b 87be e23f ad3e d9da 403e
00000140: 2f2b b3bc f954 98bc 5133 88be 3625 333e
00000150: 8557 5dbe 1851 41bc 9129 b4be c9bd 8ebc
00000160: 9bae 9b3c 12ff 333e 4839 473e 390a cd3c
00000170: 1fc6 213e 8308 a8be 2f7a 483e 80f0 3bbe
00000180: acdc 983d 5e46 79bd 400d 9a3e 574b 393e
00000190: e9e7 033e 4961 883e f209 5bbe 6a60 b7bd
000001a0: 929b cdbd 7d99 64be 410e ddbc b18d 073e
000001b0: 30cd e7bd 40bd 4c3d 7848 91be 3ab2 80be
000001c0: db5d a23d ebef 20bd 202b 1abd a018 ed3d
000001d0: b04f 97bd ece5 b4bc 76b0 43be 7d42 343e
000001e0: 725d 553e 326c 9b3e 3ede 1a3e 520a 6c3d
000001f0: 0f68 11be 7dee 963e 0234 a03e 4eb4 21be
00000200: 6f35 923e abbe 34be 4b50 363d c63c a7bd
00000210: ba0f a7be 005b 87be 760f 3f3d c33f 733d
00000220: 3e7a 46bd 9a2a 683e 819a 8a3e f712 753e
00000230: 9c58 bc3d 336c 83be 5f00 64be 5458 e53d
00000240: 26ce 2e3e d028 5ebe 5cb8 8abe d0d5 07be
00000250: 334c 803e 07a7 903e 5093 cfbc 0234 823e
00000260: 7ebf 03be f66b 5abd 16a7 29bd bb36 adbd
00000270: c64c 063e 8692 203e 4b1b 023d 34fe a5be
00000280: 9be8 8dbe aef6 8fbe 1a15 1b3d 8eed 87bd
00000290: 8052 afbd 3036 b7be b331 5f3e 22a8 06be
000002a0: 749c 2bbe 9f5d acbe 2aae a1bc f44c 9c3e
000002b0: abea 12be b3d9 01be 9337 5bbe b0e2 8f3d
000002c0: eb0f 923d d601 783c 00f6 82bb ab36 893a
000002d0: 7e00 acbe c961 fcbc 8621 05be c55d 103e
000002e0: 219b 5a3c 1416 4ebe 3585 94be 7fb7 593e
000002f0: f43f aa3e 6e33 90be 62ab 853e 88d6 843e
00000300: d6da 4b3e 7fd0 3abe fdaa d93d bc4d 38be
00000310: 5e00 94be b125 153e 3dc6 8dbd 9e95 e8bd
00000320: f06d 37be 224c 84bd 05dc 483e b720 253e
00000330: 2c1a f1bd 88b1 f2bd e269 82bd 2c3f 67be
00000340: 8faa 913e 631e 5fbe 4c30 c4bd f159 23be
00000350: 3c6d 93bd f9b8 633c c0e6 473e c63a c0bd
00000360: b49f 9a3e 20d3 703d d32d 1dbe f329 80be
00000370: 4011 5c3d 5b7d bfbd 5fc9 a8be eb45 8a3c
00000380: 2b12 fb3d d15b 873e 70db 6a3d 0c6a 47be
00000390: d8c3 993d 5670 afbe af55 0cbe 6977 50be
000003a0: 76db 373d 1c75 febd 7348 1c3e 9408 99be
000003b0: d68a 133c 03e9 8fbe e05a 7f3d 4bf8 463d
000003c0: 56ab 8a3b eb0f 463e 33fd 1d3e 6da1 c13d
000003d0: 7741 873e ac7e 2cbd 6987 afbe 25ea 8ebe
000003e0: dba6 873e 0ae5 8dbe 89bb 94be b9eb 50be
000003f0: fbda 8a3e ed77 653d 3d85 8c3e c4f8 93bd

fc1.bias f4 [64]
-0.055723954 -0.018410068 -0.08087322 0.1495452 -0.22594778 -0.29187655 0.1401944 -0.1563096
0.06784743 0.25262162 -0.08093523 0.25720116 -0.2994486 -0.25119758 -0.21554093 -0.016348071
-0.10933472 -0.13955764 0.24971896 -0.22974643 0.12185302 -0.050680462 0.003858484 0.068960026
-0.29162213 0.21567167 -0.23754916 0.20827708 0.07502499 -0.15626709 -0.09776856 -0.22707021
-0.31438565 0.019769398 -0.048057422 -0.2813269 -0.07335174 0.13471012 -0.20603135 -0.22372632
-0.21446383 -0.036750656 0.06783474 -0.16931018 0.08183 -0.23688841 -0.0198144 -0.15007925
0.17526917 -0.18055196 0.15512444 -0.10583693 0.18095168 0.13155234 -0.094814636 -0.06298515
0.29794568 -0.011127989 -0.058015145 0.15834618 -0.115006514 0.021274837 -0.21851361 -0.15906434
00000000: cd3e 64bd b6d0 96bc dca0 a5bd 6022 193e
00000010: db5e 67be d870 95be 1f8f 0f3e a00f 20be
00000020: 98f3 8a3d 9f57 813e 5fc1 a5bd dfaf 833e
00000030: 5451 99be f89c 80be c3b6 5cbe 64ec 85bc
00000040: e2ea dfbd 33e8 0ebe 54b6 7f3e a642 6bbe
00000050: 138e f93d 5196 4fbd 9fde 7c3b ea3a 8d3d
00000060: 7f4f 95be 09d9 5c3e 1640 73be 9646 553e
00000070: b4a6 993d 7b04 20be e23a c8bd 1885 68be
00000080: 28f7 a0be 6ff3 a13c dcd7 44bd 140a 90be
00000090: 7039 96bd 73f1 093e e2f9 52be 8318 65be
000000a0: 689c 5bbe db87 16bd f1ec 8a3d a65f 2dbe
000000b0: 7d96 a73d e092 72be cf51 a2bc 60ae 19be
000000c0: c379 333e 9de2 38be f1d8 1e3e 08c1 d8bd
000000d0: 664b 393e a8b5 063e 2d2e c2bd 5cfe 80bd
000000e0: 568c 983e 2b52 36bc 4aa1 6dbd 8025 223e
000000f0: 8988 ebbd 9148 ae3c 08c2 5fbe c3e1 22be

fc2.weight f4 [64, 64]
0.03257647 0.116023265 -0.0979792 0.052775443 0.110743 -0.11913067 -0.09820608 0.003377527
-0.036384705 -0.048578706 0.012668244 0.09847501 -0.00016798079 0.110098116 0.088256165 -0.10086746
0.09544261 0.080791876 0.086597845 -0.009633079 -0.0952076 -0.0037175247 0.07908986 0.07297977
-0.046258166 -0.02613273 0.081022575 -0.071058445 -0.11982309 -0.11140248 0.043992113 0.046673045
0.08163914 0.08825869 -0.046046782 0.08063251 0.117408484 -0.0054832753 0.039498724 0.11313611
-0.10187121 -0.034606133 0.003996093 -0.014843062 -0.09390175 -0.008787513 -0.11098908 -0.00800316
-0.08654799 -0.07467705 -0.088652514 -0.04924602 -0.1250171 -0.01734471 -0.035855535 -0.12104938
-0.008467253 -0.10425978 -0.021302186 -0.021337507 0.099653326 -0.020064361 0.104060665 0.09322351
0.016613374 -0.07035339 0.10992665 -0.0725727 -0.031691387 0.07160535 -0.045261245 -0.10356763
-0.12064333 0.07893441 -0.07370914 -0.102420494 -0.08748746 0.10257171 0.021378234 -0.051485203
-0.06906873 0.0767861 -0.028808936 0.090810314 -0.09440258 -0.06462591 0.08677661 0.08435319
0.08360414 0.06132414 -0.077740535 -0.029099869 0.116189286 -0.090028375 -0.055462115 -0.11019774
0.01179105 -0.122220725 -0.033613063 -0.105909094 -0.028282642 -0.110849425 -0.045397345 0.044686884
0.065275595 -0.03837297 0.060407035 0.078610525 0.007464734 0.070637956 -0.034628008 0.069990925
0.025860326 0.019260347 0.058897257 0.026630336 -0.103836894 0.0075343624 0.10751644 0.0104981745
0.046318512 0.013601563 -0.022770837 0.12917696 -0.11504115 -0.0966514 0.02299504 -0.1013964
-0.10200169 0.06499716 -0.043964192 0.121701114 0.023328424 -0.10507175 0.0639174 0.119351566
0.12046611 0.09087923 0.044660233 -0.03196912 -0.082009286 -0.09068079 0.11582653 0.097503535
-0.11837447 0.053413615 -0.01052785 0.097819865 -0.10382406 -0.13647732 -0.10818958 -0.1022247
0.10833746 -0.07621225 0.04975882 -0.06460986 -0.0062221168 -0.041504636 0.06454348 0.11581464
0.04651782 0.07130665 -0.07132762 -0.08277021 -0.003425926 0.10958019 -0.07466668 -0.085066885
-0.006885037 -0.04677774 0.1069192 0.038926974 0.040004347 -0.10625517 0.06208622 -0.055519298
-0.07420862 0.068526044 0.055057436 0.04320154 -0.09978969 -0.09312597 0.12222859 0.083013654
-0.11107945 -0.09985889 0.09274751 0.11050642 0.062511966 -0.08423591 -0.118179485 -0.0658128
-0.032651704 -0.04068045 0.0696505 0.09203558 -0.0016803592 0.08307375 0.110095724 -0.009693578
-0.051648784 0.026882548 -0.06657641 -0.11546655 0.07043381 0.045391425 -0.114131615 0.05287211
0.077304505 0.108315915 0.05103671 0.12110476 -0.08522049 -0.09443626 0.017863583 0.029164052
0.0016599894 0.008068072 -0.08043735 0.036462992 -0.039206963 0.009925357 0.050546322 -0.0072733015
-0.10604899 -0.01270831 -0.12122896 0.10503054 0.075007185 0.13386822 0.038987573 -0.024486631
0.048665807 0.080356434 0.05173493 0.05639185 -0.027926432 0.05146256 -0.09274592 0.043255348
0.1249312 -0.110304 0.061967377 -0.0014885936 0.08205173 -0.04984344 -0.08093961 0.08318068
-0.015604849 0.14148383 0.09503636 -0.03840467 0.063006975 -0.018467274 0.01695861 0.007021278
00000000: e86e 053d 9b9d ed3d 52a9 c8bd 102b 583d
00000010: 3acd e23d c8fa f3bd 4520 c9bd 8059 5d3b
00000020: 2108 15bd 77fa 46bd 778e 4f3c 44ad c93d
00000030: 0024 30b9 1f7b e13d a6bf b43d 9993 cebd
00000040: 6a77 c33d 3676 a53d 365a b13d 10d4 1dbc
00000050: 34fc c2bd b7a1 73bb ddf9 a13d 6b76 953d
00000060: 3479 3dbd 4f14 d6bc 2aef a53d 1787 91bd
00000070: cf65 f5bd fc26 e4bd 1331 343d 3c2c 3f3d
00000080: 6c32 a73d f9c0 b43d 8d9b 3cbd a822 a53d
00000090: dc73 f03d 0cad b3bb 6ac9 213d e8b3 e73d
000000a0: daa1 d0bd 29bf 0dbd a8f1 823b 5030 73bc
000000b0: 904f c0bd 80f9 0fbc 3e4e e3bd b01f 03bc
000000c0: 1340 b1bd 48f0 98bd 738f b5bd 32b6 49bd
000000d0: 7c04 00be 7e16 8ebc 41dd 12bd bde8 f7bd
000000e0: 3cba 0abc 2786 d5bd ec81 aebc ffcb aebc
000000f0: 0b17 cc3d 045e a4bc c21d d53d f8eb be3d
00000100: c518 883c 7015 90bd 3921 e13d ffa0 94bd
00000110: d4ce 01bd d3a5 923d db63 39bd 441b d4bd
00000120: da13 f7bd 5da8 a13d d1f4 96bd d6c1 d1bd
00000130: a02c b3bd 1e11 d23d 6821 af3c 26e2 52bd
00000140: e873 8dbd 0842 9d3d b800 ecbc c2fa b93d
00000150: 2456 c1bd 975a 84bd efb7 b13d 5ec1 ac3d
00000160: a638 ab3d 052f 7b3d 6e36 9fbd d962 eebc
00000170: a6f4 ed3d cc60 b8bd 3e2c 63bd 5aaf e1bd
00000180: 402f 413c dc4e fabd daad 09bd dee6 d8bd
00000190: 00b1 e7bc 0605 e3bd 91f2 39bd 9809 373d
000001a0: 36af 853d fa2c 1dbd 5e6d 773d 8efe a03d
000001b0: ba9a f43b a2aa 903d 19d6 0dbd 6757 8f3d
000001c0: 09d9 d33c e0c7 9d3c 403e 713d dd27 da3c
000001d0: 70a8 d4bd d0e2 f63b 9431 dc3d 8900 2c3c
000001e0: 7bb8 3d3d 17d9 5e3c e889 babc f746 043e
000001f0: b29a ebbd 2bf1 c5bd 1860 bc3c eaa8 cfbd
00000200: 43e6 d0bd 3b1d 853d cc13 34bd 6f3e f93d
00000210: 401b bf3c dc2f d7bd 20e7 823d 986e f43d
00000220: f0b6 f63d e41e ba3d a6ed 363d 0df2 02bd
00000230: 7cf4 a7bd dab6 b9bd 7636 ed3d efaf c73d
00000240: 506e f2bd 3cc8 5a3d 017d 2cbc c855 c83d
00000250: b5a1 d4bd b6c0 0bbe 8092 ddbd 2f5b d1bd
00000260: 08e0 dd3d 2b15 9cbd e8cf 4b3d 2d52 84bd
00000270: e6e2 cbbb c400 2abd 5f2f 843d 3a30 ed3d
00000280: 7889 3e3d 3909 923d 3714 92bd 6e83 a9bd
00000290: 8085 60bb 946b e03d d8ea 98bd 8c37 aebd
000002a0: e09b e1bb 049a 3fbd 74f8 da3d e471 1f3d
000002b0: 99db 233d 509c d9bd 1f4e 7e3d 3468 63bd
000002c0: b0fa 97bd 6257 8c3d e883 613d 19f4 303d
000002d0: 895e ccbd d4b8 bebd fc52 fa3d 1003 aa3d
000002e0: 9f7d e3bd d182 ccbd 68f2 bd3d 3151 e23d
000002f0: 4606 803d e083 acbd 1608 f2bd dcc8 86bd
00000300: cbbd 05bd 8ba0 26bd eca4 8e3d 267d bc3d
00000310: 803f dcba 9222 aa3d de79 e13d d0d1 1ebc
00000320: ad8d 53bd ca38 dc3c 3659 88bd ba79 ecbd
00000330: 9a3f 903d 5cec 393d d6bd e9bd 6d90 583d
00000340: d351 9e3d bcd4 dd3d df0b 513d c605 f83d
00000350: 1588 aebd cc67 c1bd a656 923c 73e9 ee3c
00000360: 0094 d93a f22f 043c 56bc a4bd 385a 153d
00000370: 7b97 20bd f79d 223c a909 4f3d e054 eebb
00000380: 3630 d9bd 8436 50bc e446 f8bd 401a d73d
00000390: 5e9d 993d c014 093e 6fb1 1f3d 3098 c8bc
000003a0: cc55 473d ea91 a43d 02e8 533d 24fb 663d
000003b0: f9c5 e4bc 68ca 523d 93f1 bdbd 852c 313d
000003c0: eedb ff3d 10e7 e1bd 81d1 7d3d ea1c c3ba
000003d0: bd0a a83d a328 4cbd abc3 a5bd a25a aa3d
000003e0: 7bab 7fbc 23e1 103e 6ca2 c23d 374e 1dbd
000003f0: cd09 813d ae48 97bc c8ec 8a3c c012 e63b

fc2.bias f4 [64]
0.033520058 -0.092102125 0.0453486 -0.03903454 0.002628536 -0.0454687 -0.09761069 0.104848266
-0.09315057 -0.004270149 0.032871548 -0.018585002 -0.005399612 0.06068455 -0.083611265 0.07838354
0.031918664 0.018764516 -0.10417121 0.09341405 0.043047067 -0.120128244 -0.024805794 -0.005856976
0.083430745 -0.101850554 0.04935309 -0.12743726 0.07981054 -0.06826995 -0.05353465 0.012819043
-0.10757396 0.017163467 -0.102437295 0.0020777073 0.09212591 0.057740353 -0.042963002 0.103359416
0.083257675 0.0679157 -0.11321567 -0.059300706 -0.12677637 0.039363645 0.0009830993 0.03285058
0.052955784 -0.109180085 0.037419867 0.036214337 0.026212456 -0.0956477 0.103232436 0.0470593
-0.115900055 -0.09451145 0.07442959 -0.07166455 0.012160214 -0.046124794 0.020928906 -0.09776132
00000000: 544c 093d 0aa0 bcbd 74bf 393d afe2 1fbd
00000010: 8443 2c3b 633d 3abd 1de8 c7bd b0ba d63d
00000020: bac5 bebd 9bec 8bbb 51a4 063d 933f 98bc
00000030: 3aef b0bb 5d90 783d 623c abbd 8d87 a03d
00000040: 25bd 023d 0bb8 993c b757 d5bd de4f bf3d
00000050: 1f52 303d cc05 f6bd 8535 cbbc e0eb bfbb
00000060: bddd aa3d 0697 d0bd 7726 4a3d ea7e 02be
00000070: b573 a33d 1ed1 8bbd 2647 5bbd f706 523c
00000080: bd4f dcbd 669a 8c3c a5ca d1bd 252a 083b
00000090: 82ac bc3d 2681 6c3d f9f9 2fbd 1aae d33d
000000a0: 0083 aa3d 6317 8b3d 9edd e7bd 4ce5 72bd
000000b0: aad1 01be c63b 213d 57db 803a 548e 063d
000000c0: 2ae8 583d cf99 dfbd 9345 193d 7c55 143d
000000d0: 81bb d63c f1e2 c3bd 876b d33d 41c1 403d
000000e0: 025d edbd 388f c1bd 8a6e 983d ddc4 92bd
000000f0: a23b 473c 5aed 3cbd 1973 ab3c 1637 c8bd

fc3.weight f4 [1, 64]
0.043322403 0.056783035 -0.062685356 -0.054081075 -0.07167788 -0.022115108 0.05036933 -0.09141085
0.028101027 -0.039109495 -0.07031473 -0.03166372 -0.052751772 0.061923496 0.036317527 0.07850291
0.061263666 -0.07499967 -0.021416532 -0.066888385 0.063885756 -0.07412671 -0.06794378 -0.026928246
-0.044600848 0.10913511 -0.077646926 -0.08387337 -0.056173973 -0.1120079 -0.024857119 0.063867524
0.03303245 0.06845545 0.102313235 -0.031114604 -0.08762541 -0.04942156 -0.069595434 -0.07273152
-0.04219254 -0.08947471 -0.11323337 0.052747827 0.11611215 0.025489446 -0.051694643 -0.018839378
0.0696218 -0.005866315 -0.061888006 -0.0069811447 -0.030202849 -0.07765516 -0.053970326 -0.046089366
-0.07151432 0.07139259 0.07132428 -0.030896647 0.070784226 -0.064948075 -0.07519651 0.060950004
00000000: d572 313d 5495 683d 2e61 80bd 1e84 5dbd
00000010: dacb 92bd be2a b5bc 1250 4e3d 9d35 bbbd
00000020: 2034 e63c 4731 20bd 2b01 90bd d1b1 01bd
00000030: 3e12 58bd 7ea3 7d3d b0c1 143d 22c6 a03d
00000040: 9cef 7a3d 6d99 99bd b971 afbc c7fc 88bd
00000050: 89d6 823d bfcf 97bd 1c26 8bbd a098 dcbc
00000060: 61af 36bd 3b82 df3d 5a05 9fbd cdc5 abbd
00000070: ae16 66bd 6664 e5bd 28a1 cbbc facc 823d
00000080: 094d 073d 5f32 8c3d 9a89 d13d 0ee4 febc
00000090: f374 b3bd 436e 4abd 0d88 8ebd 43f4 94bd
000000a0: 16d2 2cbd 843e b7bd e6e6 e7bd 1b0e 583d
000000b0: 35cc ed3d 3ecf d03c c3bd 53bd 0a55 9abc
000000c0: e095 8e3d 383a c0bb 477e 7dbd 16c2 e4bb
000000d0: f76b f7bc ab09 9fbd fd0f 5dbd 34c8 3cbd
000000e0: 1a76 92bd 4736 923d 7712 923d f71a fdbc
000000f0: 52f7 903d 7f03 85bd a100 9abd b6a6 793d
